…
I0330 13:43:28.966262 37261 net.cpp:58] Initializing net from parameters: 
name: "LeNet"
state {
  phase: TRAIN
  level: 0
  stage: ""
}
layer {
  name: "input"
  type: "Input"
  top: "clip"
  input_param {
    shape {
      dim: 64
      dim: 1
    }
  }
}
layer {
  name: "mnist"
  type: "Data"
  top: "data"
  top: "label"
  include {
    phase: TRAIN
  }
  transform_param {
    scale: 0.00390625
  }
  data_param {
    source: "/home/liushuai/caffe-env/examples/fashion_mnist/mnist_train_lmdb"
    batch_size: 64
    backend: LMDB
  }
  input_param {
    shape {
      dim: 28
      dim: 28
    }
  }
}
layer {
  name: "rnn1"
  type: "RNN"
  bottom: "data"
  bottom: "clip"
  top: "rnn1"
  recurrent_param {
    num_output: 30
    weight_filler {
      type: "uniform"
      min: -0.01
      max: 0.01
    }
    bias_filler {
      type: "constant"
      value: 0
    }
  }
}
layer {
  name: "ip2"
  type: "InnerProduct"
  bottom: "rnn1"
  top: "ip2"
  param {
    lr_mult: 1
  }
  param {
    lr_mult: 2
  }
  inner_product_param {
    num_output: 10
    weight_filler {
      type: "xavier"
    }
    bias_filler {
      type: "constant"
    }
  }
}
layer {
  name: "loss"
  type: "SoftmaxWithLoss"
  bottom: "ip2"
  bottom: "label"
  top: "loss"
}
I0330 13:43:28.966588 37261 layer_factory.hpp:77] Creating layer input
I0330 13:43:28.966666 37261 net.cpp:100] Creating Layer input
I0330 13:43:28.966688 37261 net.cpp:408] input -> clip
I0330 13:43:28.988143 37261 net.cpp:150] Setting up input
I0330 13:43:28.988191 37261 net.cpp:157] Top shape: 64 1 (64)
I0330 13:43:28.988204 37261 net.cpp:165] Memory required for data: 256
I0330 13:43:28.988268 37261 layer_factory.hpp:77] Creating layer mnist
I0330 13:43:28.988898 37261 net.cpp:100] Creating Layer mnist
I0330 13:43:28.988921 37261 net.cpp:408] mnist -> data
I0330 13:43:28.988978 37261 net.cpp:408] mnist -> label
I0330 13:43:28.989578 37277 db_lmdb.cpp:35] Opened lmdb /home/liushuai/caffe-env/examples/fashion_mnist/mnist_train_lmdb
I0330 13:43:28.989766 37261 data_layer.cpp:41] output data size: 64,1,28,28
I0330 13:43:28.990015 37261 base_data_layer.cpp:69] Initializing prefetch
I0330 13:43:28.990084 37261 base_data_layer.cpp:72] Prefetch initialized.
I0330 13:43:28.990092 37261 net.cpp:150] Setting up mnist
I0330 13:43:28.990118 37261 net.cpp:157] Top shape: 64 1 28 28 (50176)
I0330 13:43:28.990144 37261 net.cpp:157] Top shape: 64 (64)
I0330 13:43:28.990149 37261 net.cpp:165] Memory required for data: 201216
I0330 13:43:28.990157 37261 layer_factory.hpp:77] Creating layer rnn1
I0330 13:43:28.990187 37261 net.cpp:100] Creating Layer rnn1
I0330 13:43:28.990211 37261 net.cpp:434] rnn1 <- data
I0330 13:43:28.990250 37261 net.cpp:434] rnn1 <- clip
I0330 13:43:28.990272 37261 net.cpp:408] rnn1 -> rnn1
I0330 13:43:28.990296 37261 recurrent_layer.cpp:20] Initializing recurrent layer: assuming input batch contains 64 timesteps of 1 independent streams.
I0330 13:43:28.991788 37278 data_layer.cpp:102] Prefetch batch: 1 ms.
I0330 13:43:28.991820 37278 data_layer.cpp:103]      Read time: 0.088 ms.
I0330 13:43:28.991828 37278 data_layer.cpp:104] Transform time: 0.593 ms.
I0330 13:43:28.992707 37278 data_layer.cpp:102] Prefetch batch: 0 ms.
I0330 13:43:28.992715 37278 data_layer.cpp:103]      Read time: 0.062 ms.
I0330 13:43:28.992720 37278 data_layer.cpp:104] Transform time: 0.473 ms.
I0330 13:43:28.992036 37261 net.cpp:58] Initializing net from parameters: 
layer {
  name: "rnn1_"
  type: "Input"
  top: "x"
  top: "cont"
  input_param {
    shape {
      dim: 64
      dim: 1
      dim: 28
      dim: 28
    }
    shape {
      dim: 64
      dim: 1
    }
  }
}
layer {
  name: "rnn1_"
  type: "Input"
  top: "h_0"
  input_param {
    shape {
      dim: 1
      dim: 1
      dim: 30
    }
  }
}
layer {
  name: "rnn1_cont_slice"
  type: "Slice"
  bottom: "cont"
  top: "cont_1"
  top: "cont_2"
  top: "cont_3"
  top: "cont_4"
  top: "cont_5"
  top: "cont_6"
  top: "cont_7"
  top: "cont_8"
  top: "cont_9"
  top: "cont_10"
  top: "cont_11"
  top: "cont_12"
  top: "cont_13"
  top: "cont_14"
  top: "cont_15"
  top: "cont_16"
  top: "cont_17"
  top: "cont_18"
  top: "cont_19"
  top: "cont_20"
  top: "cont_21"
  top: "cont_22"
  top: "cont_23"
  top: "cont_24"
  top: "cont_25"
  top: "cont_26"
  top: "cont_27"
  top: "cont_28"
  top: "cont_29"
  top: "cont_30"
  top: "cont_31"
  top: "cont_32"
  top: "cont_33"
  top: "cont_34"
  top: "cont_35"
  top: "cont_36"
  top: "cont_37"
  top: "cont_38"
  top: "cont_39"
  top: "cont_40"
  top: "cont_41"
  top: "cont_42"
  top: "cont_43"
  top: "cont_44"
  top: "cont_45"
  top: "cont_46"
  top: "cont_47"
  top: "cont_48"
  top: "cont_49"
  top: "cont_50"
  top: "cont_51"
  top: "cont_52"
  top: "cont_53"
  top: "cont_54"
  top: "cont_55"
  top: "cont_56"
  top: "cont_57"
  top: "cont_58"
  top: "cont_59"
  top: "cont_60"
  top: "cont_61"
  top: "cont_62"
  top: "cont_63"
  top: "cont_64"
  slice_param {
    axis: 0
  }
}
layer {
  name: "rnn1_x_transform"
  type: "InnerProduct"
  bottom: "x"
  top: "W_xh_x"
  param {
    name: "W_xh"
  }
  param {
    name: "b_h"
  }
  propagate_down: true
  inner_product_param {
    num_output: 30
    bias_term: true
    weight_filler {
      type: "uniform"
      min: -0.01
      max: 0.01
    }
    bias_filler {
      type: "constant"
      value: 0
    }
    axis: 2
  }
}
layer {
  name: "rnn1_W_xh_x_slice"
  type: "Slice"
  bottom: "W_xh_x"
  top: "W_xh_x_1"
  top: "W_xh_x_2"
  top: "W_xh_x_3"
  top: "W_xh_x_4"
  top: "W_xh_x_5"
  top: "W_xh_x_6"
  top: "W_xh_x_7"
  top: "W_xh_x_8"
  top: "W_xh_x_9"
  top: "W_xh_x_10"
  top: "W_xh_x_11"
  top: "W_xh_x_12"
  top: "W_xh_x_13"
  top: "W_xh_x_14"
  top: "W_xh_x_15"
  top: "W_xh_x_16"
  top: "W_xh_x_17"
  top: "W_xh_x_18"
  top: "W_xh_x_19"
  top: "W_xh_x_20"
  top: "W_xh_x_21"
  top: "W_xh_x_22"
  top: "W_xh_x_23"
  top: "W_xh_x_24"
  top: "W_xh_x_25"
  top: "W_xh_x_26"
  top: "W_xh_x_27"
  top: "W_xh_x_28"
  top: "W_xh_x_29"
  top: "W_xh_x_30"
  top: "W_xh_x_31"
  top: "W_xh_x_32"
  top: "W_xh_x_33"
  top: "W_xh_x_34"
  top: "W_xh_x_35"
  top: "W_xh_x_36"
  top: "W_xh_x_37"
  top: "W_xh_x_38"
  top: "W_xh_x_39"
  top: "W_xh_x_40"
  top: "W_xh_x_41"
  top: "W_xh_x_42"
  top: "W_xh_x_43"
  top: "W_xh_x_44"
  top: "W_xh_x_45"
  top: "W_xh_x_46"
  top: "W_xh_x_47"
  top: "W_xh_x_48"
  top: "W_xh_x_49"
  top: "W_xh_x_50"
  top: "W_xh_x_51"
  top: "W_xh_x_52"
  top: "W_xh_x_53"
  top: "W_xh_x_54"
  top: "W_xh_x_55"
  top: "W_xh_x_56"
  top: "W_xh_x_57"
  top: "W_xh_x_58"
  top: "W_xh_x_59"
  top: "W_xh_x_60"
  top: "W_xh_x_61"
  top: "W_xh_x_62"
  top: "W_xh_x_63"
  top: "W_xh_x_64"
  slice_param {
    axis: 0
  }
}
layer {
  name: "rnn1_h_conted_0"
  type: "Scale"
  bottom: "h_0"
  bottom: "cont_1"
  top: "h_conted_0"
  scale_param {
    axis: 0
  }
}
layer {
  name: "rnn1_W_hh_h_0"
  type: "InnerProduct"
  bottom: "h_conted_0"
  top: "W_hh_h_0"
  param {
    name: "W_hh"
  }
  inner_product_param {
    num_output: 30
    bias_term: false
    weight_filler {
      type: "uniform"
      min: -0.01
      max: 0.01
    }
    axis: 2
  }
}
layer {
  name: "rnn1_h_input_sum_1"
  type: "Eltwise"
  bottom: "W_hh_h_0"
  bottom: "W_xh_x_1"
  top: "h_neuron_input_1"
  eltwise_param {
    operation: SUM
  }
}
layer {
  name: "rnn1_h_neuron_1"
  type: "TanH"
  bottom: "h_neuron_input_1"
  top: "h_1"
}
layer {
  name: "rnn1_W_ho_h_1"
  type: "InnerProduct"
  bottom: "h_1"
  top: "W_ho_h_1"
  param {
    name: "W_ho"
  }
  param {
    name: "b_o"
  }
  inner_product_param {
    num_output: 30
    bias_term: true
    weight_filler {
      type: "uniform"
      min: -0.01
      max: 0.01
    }
    bias_filler {
      type: "constant"
      value: 0
    }
    axis: 2
  }
}
layer {
  name: "rnn1_o_neuron_1"
  type: "TanH"
  bottom: "W_ho_h_1"
  top: "o_1"
}
layer {
  name: "rnn1_h_conted_1"
  type: "Scale"
  bottom: "h_1"
  bottom: "cont_2"
  top: "h_conted_1"
  scale_param {
    axis: 0
  }
}
layer {
  name: "rnn1_W_hh_h_1"
  type: "InnerProduct"
  bottom: "h_conted_1"
  top: "W_hh_h_1"
  param {
    name: "W_hh"
  }
  inner_product_param {
    num_output: 30
    bias_term: false
    weight_filler {
      type: "uniform"
      min: -0.01
      max: 0.01
    }
    axis: 2
  }
}
layer {
  name: "rnn1_h_input_sum_2"
  type: "Eltwise"
  bottom: "W_hh_h_1"
  bottom: "W_xh_x_2"
  top: "h_neuron_input_2"
  eltwise_param {
    operation: SUM
  }
}
layer {
  name: "rnn1_h_neuron_2"
  type: "TanH"
  bottom: "h_neuron_input_2"
  top: "h_2"
}
layer {
  name: "rnn1_W_ho_h_2"
  type: "InnerProduct"
  bottom: "h_2"
  top: "W_ho_h_2"
  param {
    name: "W_ho"
  }
  param {
    name: "b_o"
  }
  inner_product_param {
    num_output: 30
    bias_term: true
    weight_filler {
      type: "uniform"
      min: -0.01
      max: 0.01
    }
    bias_filler {
      type: "constant"
      value: 0
    }
    axis: 2
  }
}
layer {
  name: "rnn1_o_neuron_2"
  type: "TanH"
  bottom: "W_ho_h_2"
  top: "o_2"
}
layer {
  name: "rnn1_h_conted_2"
  type: "Scale"
  bottom: "h_2"
  bottom: "cont_3"
  top: "h_conted_2"
  scale_param {
    axis: 0
  }
}
layer {
  name: "rnn1_W_hh_h_2"
  type: "InnerProduct"
  bottom: "h_conted_2"
  top: "W_hh_h_2"
  param {
    name: "W_hh"
  }
  inner_product_param {
    num_output: 30
    bias_term: false
    weight_filler {
      type: "uniform"
      min: -0.01
      max: 0.01
    }
    axis: 2
  }
}
layer {
  name: "rnn1_h_input_sum_3"
  type: "Eltwise"
  bottom: "W_hh_h_2"
  bottom: "W_xh_x_3"
  top: "h_neuron_input_3"
  eltwise_param {
    operation: SUM
  }
}
layer {
  name: "rnn1_h_neuron_3"
  type: "TanH"
  bottom: "h_neuron_input_3"
  top: "h_3"
}
layer {
  name: "rnn1_W_ho_h_3"
  type: "InnerProduct"
  bottom: "h_3"
  top: "W_ho_h_3"
  param {
    name: "W_ho"
  }
  param {
    name: "b_o"
  }
  inner_product_param {
    num_output: 30
    bias_term: true
    weight_filler {
      type: "uniform"
      min: -0.01
      max: 0.01
    }
    bias_filler {
      type: "constant"
      value: 0
    }
    axis: 2
  }
}
layer {
  name: "rnn1_o_neuron_3"
  type: "TanH"
  bottom: "W_ho_h_3"
  top: "o_3"
}
layer {
  name: "rnn1_h_conted_3"
  type: "Scale"
  bottom: "h_3"
  bottom: "cont_4"
  top: "h_conted_3"
  scale_param {
    axis: 0
  }
}
layer {
  name: "rnn1_W_hh_h_3"
  type: "InnerProduct"
  bottom: "h_conted_3"
  top: "W_hh_h_3"
  param {
    name: "W_hh"
  }
  inner_product_param {
    num_output: 30
    bias_term: false
    weight_filler {
      type: "uniform"
      min: -0.01
      max: 0.01
    }
    axis: 2
  }
}
layer {
  name: "rnn1_h_input_sum_4"
  type: "Eltwise"
  bottom: "W_hh_h_3"
  bottom: "W_xh_x_4"
  top: "h_neuron_input_4"
  eltwise_param {
    operation: SUM
  }
}
layer {
  name: "rnn1_h_neuron_4"
  type: "TanH"
  bottom: "h_neuron_input_4"
  top: "h_4"
}
layer {
  name: "rnn1_W_ho_h_4"
  type: "InnerProduct"
  bottom: "h_4"
  top: "W_ho_h_4"
  param {
    name: "W_ho"
  }
  param {
    name: "b_o"
  }
  inner_product_param {
    num_output: 30
    bias_term: true
    weight_filler {
      type: "uniform"
      min: -0.01
      max: 0.01
    }
    bias_filler {
      type: "constant"
      value: 0
    }
    axis: 2
  }
}
layer {
  name: "rnn1_o_neuron_4"
  type: "TanH"
  bottom: "W_ho_h_4"
  top: "o_4"
}
layer {
  name: "rnn1_h_conted_4"
  type: "Scale"
  bottom: "h_4"
  bottom: "cont_5"
  top: "h_conted_4"
  scale_param {
    axis: 0
  }
}
layer {
  name: "rnn1_W_hh_h_4"
  type: "InnerProduct"
  bottom: "h_conted_4"
  top: "W_hh_h_4"
  param {
    name: "W_hh"
  }
  inner_product_param {
    num_output: 30
    bias_term: false
    weight_filler {
      type: "uniform"
      min: -0.01
      max: 0.01
    }
    axis: 2
  }
}
layer {
  name: "rnn1_h_input_sum_5"
  type: "Eltwise"
  bottom: "W_hh_h_4"
  bottom: "W_xh_x_5"
  top: "h_neuron_input_5"
  eltwise_param {
    operation: SUM
  }
}
layer {
  name: "rnn1_h_neuron_5"
  type: "TanH"
  bottom: "h_neuron_input_5"
  top: "h_5"
}
layer {
  name: "rnn1_W_ho_h_5"
  type: "InnerProduct"
  bottom: "h_5"
  top: "W_ho_h_5"
  param {
    name: "W_ho"
  }
  param {
    name: "b_o"
  }
  inner_product_param {
    num_output: 30
    bias_term: true
    weight_filler {
      type: "uniform"
      min: -0.01
      max: 0.01
    }
    bias_filler {
      type: "constant"
      value: 0
    }
    axis: 2
  }
}
layer {
  name: "rnn1_o_neuron_5"
  type: "TanH"
  bottom: "W_ho_h_5"
  top: "o_5"
}
layer {
  name: "rnn1_h_conted_5"
  type: "Scale"
  bottom: "h_5"
  bottom: "cont_6"
  top: "h_conted_5"
  scale_param {
    axis: 0
  }
}
layer {
  name: "rnn1_W_hh_h_5"
  type: "InnerProduct"
  bottom: "h_conted_5"
  top: "W_hh_h_5"
  param {
    name: "W_hh"
  }
  inner_product_param {
    num_output: 30
    bias_term: false
    weight_filler {
      type: "uniform"
      min: -0.01
      max: 0.01
    }
    axis: 2
  }
}
layer {
  name: "rnn1_h_input_sum_6"
  type: "Eltwise"
  bottom: "W_hh_h_5"
  bottom: "W_xh_x_6"
  top: "h_neuron_input_6"
  eltwise_param {
    operation: SUM
  }
}
layer {
  name: "rnn1_h_neuron_6"
  type: "TanH"
  bottom: "h_neuron_input_6"
  top: "h_6"
}
layer {
  name: "rnn1_W_ho_h_6"
  type: "InnerProduct"
  bottom: "h_6"
  top: "W_ho_h_6"
  param {
    name: "W_ho"
  }
  param {
    name: "b_o"
  }
  inner_product_param {
    num_output: 30
    bias_term: true
    weight_filler {
      type: "uniform"
      min: -0.01
      max: 0.01
    }
    bias_filler {
      type: "constant"
      value: 0
    }
    axis: 2
  }
}
layer {
  name: "rnn1_o_neuron_6"
  type: "TanH"
  bottom: "W_ho_h_6"
  top: "o_6"
}
layer {
  name: "rnn1_h_conted_6"
  type: "Scale"
  bottom: "h_6"
  bottom: "cont_7"
  top: "h_conted_6"
  scale_param {
    axis: 0
  }
}
layer {
  name: "rnn1_W_hh_h_6"
  type: "InnerProduct"
  bottom: "h_conted_6"
  top: "W_hh_h_6"
  param {
    name: "W_hh"
  }
  inner_product_param {
    num_output: 30
    bias_term: false
    weight_filler {
      type: "uniform"
      min: -0.01
      max: 0.01
    }
    axis: 2
  }
}
layer {
  name: "rnn1_h_input_sum_7"
  type: "Eltwise"
  bottom: "W_hh_h_6"
  bottom: "W_xh_x_7"
  top: "h_neuron_input_7"
  eltwise_param {
    operation: SUM
  }
}
layer {
  name: "rnn1_h_neuron_7"
  type: "TanH"
  bottom: "h_neuron_input_7"
  top: "h_7"
}
layer {
  name: "rnn1_W_ho_h_7"
  type: "InnerProduct"
  bottom: "h_7"
  top: "W_ho_h_7"
  param {
    name: "W_ho"
  }
  param {
    name: "b_o"
  }
  inner_product_param {
    num_output: 30
    bias_term: true
    weight_filler {
      type: "uniform"
      min: -0.01
      max: 0.01
    }
    bias_filler {
      type: "constant"
      value: 0
    }
    axis: 2
  }
}
layer {
  name: "rnn1_o_neuron_7"
  type: "TanH"
  bottom: "W_ho_h_7"
  top: "o_7"
}
layer {
  name: "rnn1_h_conted_7"
  type: "Scale"
  bottom: "h_7"
  bottom: "cont_8"
  top: "h_conted_7"
  scale_param {
    axis: 0
  }
}
layer {
  name: "rnn1_W_hh_h_7"
  type: "InnerProduct"
  bottom: "h_conted_7"
  top: "W_hh_h_7"
  param {
    name: "W_hh"
  }
  inner_product_param {
    num_output: 30
    bias_term: false
    weight_filler {
      type: "uniform"
      min: -0.01
      max: 0.01
    }
    axis: 2
  }
}
layer {
  name: "rnn1_h_input_sum_8"
  type: "Eltwise"
  bottom: "W_hh_h_7"
  bottom: "W_xh_x_8"
  top: "h_neuron_input_8"
  eltwise_param {
    operation: SUM
  }
}
layer {
  name: "rnn1_h_neuron_8"
  type: "TanH"
  bottom: "h_neuron_input_8"
  top: "h_8"
}
layer {
  name: "rnn1_W_ho_h_8"
  type: "InnerProduct"
  bottom: "h_8"
  top: "W_ho_h_8"
  param {
    name: "W_ho"
  }
  param {
    name: "b_o"
  }
  inner_product_param {
    num_output: 30
    bias_term: true
    weight_filler {
      type: "uniform"
      min: -0.01
      max: 0.01
    }
    bias_filler {
      type: "constant"
      value: 0
    }
    axis: 2
  }
}
layer {
  name: "rnn1_o_neuron_8"
  type: "TanH"
  bottom: "W_ho_h_8"
  top: "o_8"
}
layer {
  name: "rnn1_h_conted_8"
  type: "Scale"
  bottom: "h_8"
  bottom: "cont_9"
  top: "h_conted_8"
  scale_param {
    axis: 0
  }
}
layer {
  name: "rnn1_W_hh_h_8"
  type: "InnerProduct"
  bottom: "h_conted_8"
  top: "W_hh_h_8"
  param {
    name: "W_hh"
  }
  inner_product_param {
    num_output: 30
    bias_term: false
    weight_filler {
      type: "uniform"
      min: -0.01
      max: 0.01
    }
    axis: 2
  }
}
layer {
  name: "rnn1_h_input_sum_9"
  type: "Eltwise"
  bottom: "W_hh_h_8"
  bottom: "W_xh_x_9"
  top: "h_neuron_input_9"
  eltwise_param {
    operation: SUM
  }
}
layer {
  name: "rnn1_h_neuron_9"
  type: "TanH"
  bottom: "h_neuron_input_9"
  top: "h_9"
}
layer {
  name: "rnn1_W_ho_h_9"
  type: "InnerProduct"
  bottom: "h_9"
  top: "W_ho_h_9"
  param {
    name: "W_ho"
  }
  param {
    name: "b_o"
  }
  inner_product_param {
    num_output: 30
    bias_term: true
    weight_filler {
      type: "uniform"
      min: -0.01
      max: 0.01
    }
    bias_filler {
      type: "constant"
      value: 0
    }
    axis: 2
  }
}
layer {
  name: "rnn1_o_neuron_9"
  type: "TanH"
  bottom: "W_ho_h_9"
  top: "o_9"
}
layer {
  name: "rnn1_h_conted_9"
  type: "Scale"
  bottom: "h_9"
  bottom: "cont_10"
  top: "h_conted_9"
  scale_param {
    axis: 0
  }
}
layer {
  name: "rnn1_W_hh_h_9"
  type: "InnerProduct"
  bottom: "h_conted_9"
  top: "W_hh_h_9"
  param {
    name: "W_hh"
  }
  inner_product_param {
    num_output: 30
    bias_term: false
    weight_filler {
      type: "uniform"
      min: -0.01
      max: 0.01
    }
    axis: 2
  }
}
layer {
  name: "rnn1_h_input_sum_10"
  type: "Eltwise"
  bottom: "W_hh_h_9"
  bottom: "W_xh_x_10"
  top: "h_neuron_input_10"
  eltwise_param {
    operation: SUM
  }
}
layer {
  name: "rnn1_h_neuron_10"
  type: "TanH"
  bottom: "h_neuron_input_10"
  top: "h_10"
}
layer {
  name: "rnn1_W_ho_h_10"
  type: "InnerProduct"
  bottom: "h_10"
  top: "W_ho_h_10"
  param {
    name: "W_ho"
  }
  param {
    name: "b_o"
  }
  inner_product_param {
    num_output: 30
    bias_term: true
    weight_filler {
      type: "uniform"
      min: -0.01
      max: 0.01
    }
    bias_filler {
      type: "constant"
      value: 0
    }
    axis: 2
  }
}
layer {
  name: "rnn1_o_neuron_10"
  type: "TanH"
  bottom: "W_ho_h_10"
  top: "o_10"
}
layer {
  name: "rnn1_h_conted_10"
  type: "Scale"
  bottom: "h_10"
  bottom: "cont_11"
  top: "h_conted_10"
  scale_param {
    axis: 0
  }
}
layer {
  name: "rnn1_W_hh_h_10"
  type: "InnerProduct"
  bottom: "h_conted_10"
  top: "W_hh_h_10"
  param {
    name: "W_hh"
  }
  inner_product_param {
    num_output: 30
    bias_term: false
    weight_filler {
      type: "uniform"
      min: -0.01
      max: 0.01
    }
    axis: 2
  }
}
layer {
  name: "rnn1_h_input_sum_11"
  type: "Eltwise"
  bottom: "W_hh_h_10"
  bottom: "W_xh_x_11"
  top: "h_neuron_input_11"
  eltwise_param {
    operation: SUM
  }
}
layer {
  name: "rnn1_h_neuron_11"
  type: "TanH"
  bottom: "h_neuron_input_11"
  top: "h_11"
}
layer {
  name: "rnn1_W_ho_h_11"
  type: "InnerProduct"
  bottom: "h_11"
  top: "W_ho_h_11"
  param {
    name: "W_ho"
  }
  param {
    name: "b_o"
  }
  inner_product_param {
    num_output: 30
    bias_term: true
    weight_filler {
      type: "uniform"
      min: -0.01
      max: 0.01
    }
    bias_filler {
      type: "constant"
      value: 0
    }
    axis: 2
  }
}
layer {
  name: "rnn1_o_neuron_11"
  type: "TanH"
  bottom: "W_ho_h_11"
  top: "o_11"
}
layer {
  name: "rnn1_h_conted_11"
  type: "Scale"
  bottom: "h_11"
  bottom: "cont_12"
  top: "h_conted_11"
  scale_param {
    axis: 0
  }
}
layer {
  name: "rnn1_W_hh_h_11"
  type: "InnerProduct"
  bottom: "h_conted_11"
  top: "W_hh_h_11"
  param {
    name: "W_hh"
  }
  inner_product_param {
    num_output: 30
    bias_term: false
    weight_filler {
      type: "uniform"
      min: -0.01
      max: 0.01
    }
    axis: 2
  }
}
layer {
  name: "rnn1_h_input_sum_12"
  type: "Eltwise"
  bottom: "W_hh_h_11"
  bottom: "W_xh_x_12"
  top: "h_neuron_input_12"
  eltwise_param {
    operation: SUM
  }
}
layer {
  name: "rnn1_h_neuron_12"
  type: "TanH"
  bottom: "h_neuron_input_12"
  top: "h_12"
}
layer {
  name: "rnn1_W_ho_h_12"
  type: "InnerProduct"
  bottom: "h_12"
  top: "W_ho_h_12"
  param {
    name: "W_ho"
  }
  param {
    name: "b_o"
  }
  inner_product_param {
    num_output: 30
    bias_term: true
    weight_filler {
      type: "uniform"
      min: -0.01
      max: 0.01
    }
    bias_filler {
      type: "constant"
      value: 0
    }
    axis: 2
  }
}
layer {
  name: "rnn1_o_neuron_12"
  type: "TanH"
  bottom: "W_ho_h_12"
  top: "o_12"
}
layer {
  name: "rnn1_h_conted_12"
  type: "Scale"
  bottom: "h_12"
  bottom: "cont_13"
  top: "h_conted_12"
  scale_param {
    axis: 0
  }
}
layer {
  name: "rnn1_W_hh_h_12"
  type: "InnerProduct"
  bottom: "h_conted_12"
  top: "W_hh_h_12"
  param {
    name: "W_hh"
  }
  inner_product_param {
    num_output: 30
    bias_term: false
    weight_filler {
      type: "uniform"
      min: -0.01
      max: 0.01
    }
    axis: 2
  }
}
layer {
  name: "rnn1_h_input_sum_13"
  type: "Eltwise"
  bottom: "W_hh_h_12"
  bottom: "W_xh_x_13"
  top: "h_neuron_input_13"
  eltwise_param {
    operation: SUM
  }
}
layer {
  name: "rnn1_h_neuron_13"
  type: "TanH"
  bottom: "h_neuron_input_13"
  top: "h_13"
}
layer {
  name: "rnn1_W_ho_h_13"
  type: "InnerProduct"
  bottom: "h_13"
  top: "W_ho_h_13"
  param {
    name: "W_ho"
  }
  param {
    name: "b_o"
  }
  inner_product_param {
    num_output: 30
    bias_term: true
    weight_filler {
      type: "uniform"
      min: -0.01
      max: 0.01
    }
    bias_filler {
      type: "constant"
      value: 0
    }
    axis: 2
  }
}
layer {
  name: "rnn1_o_neuron_13"
  type: "TanH"
  bottom: "W_ho_h_13"
  top: "o_13"
}
layer {
  name: "rnn1_h_conted_13"
  type: "Scale"
  bottom: "h_13"
  bottom: "cont_14"
  top: "h_conted_13"
  scale_param {
    axis: 0
  }
}
layer {
  name: "rnn1_W_hh_h_13"
  type: "InnerProduct"
  bottom: "h_conted_13"
  top: "W_hh_h_13"
  param {
    name: "W_hh"
  }
  inner_product_param {
    num_output: 30
    bias_term: false
    weight_filler {
      type: "uniform"
      min: -0.01
      max: 0.01
    }
    axis: 2
  }
}
layer {
  name: "rnn1_h_input_sum_14"
  type: "Eltwise"
  bottom: "W_hh_h_13"
  bottom: "W_xh_x_14"
  top: "h_neuron_input_14"
  eltwise_param {
    operation: SUM
  }
}
layer {
  name: "rnn1_h_neuron_14"
  type: "TanH"
  bottom: "h_neuron_input_14"
  top: "h_14"
}
layer {
  name: "rnn1_W_ho_h_14"
  type: "InnerProduct"
  bottom: "h_14"
  top: "W_ho_h_14"
  param {
    name: "W_ho"
  }
  param {
    name: "b_o"
  }
  inner_product_param {
    num_output: 30
    bias_term: true
    weight_filler {
      type: "uniform"
      min: -0.01
      max: 0.01
    }
    bias_filler {
      type: "constant"
      value: 0
    }
    axis: 2
  }
}
layer {
  name: "rnn1_o_neuron_14"
  type: "TanH"
  bottom: "W_ho_h_14"
  top: "o_14"
}
layer {
  name: "rnn1_h_conted_14"
  type: "Scale"
  bottom: "h_14"
  bottom: "cont_15"
  top: "h_conted_14"
  scale_param {
    axis: 0
  }
}
layer {
  name: "rnn1_W_hh_h_14"
  type: "InnerProduct"
  bottom: "h_conted_14"
  top: "W_hh_h_14"
  param {
    name: "W_hh"
  }
  inner_product_param {
    num_output: 30
    bias_term: false
    weight_filler {
      type: "uniform"
      min: -0.01
      max: 0.01
    }
    axis: 2
  }
}
layer {
  name: "rnn1_h_input_sum_15"
  type: "Eltwise"
  bottom: "W_hh_h_14"
  bottom: "W_xh_x_15"
  top: "h_neuron_input_15"
  eltwise_param {
    operation: SUM
  }
}
layer {
  name: "rnn1_h_neuron_15"
  type: "TanH"
  bottom: "h_neuron_input_15"
  top: "h_15"
}
layer {
  name: "rnn1_W_ho_h_15"
  type: "InnerProduct"
  bottom: "h_15"
  top: "W_ho_h_15"
  param {
    name: "W_ho"
  }
  param {
    name: "b_o"
  }
  inner_product_param {
    num_output: 30
    bias_term: true
    weight_filler {
      type: "uniform"
      min: -0.01
      max: 0.01
    }
    bias_filler {
      type: "constant"
      value: 0
    }
    axis: 2
  }
}
layer {
  name: "rnn1_o_neuron_15"
  type: "TanH"
  bottom: "W_ho_h_15"
  top: "o_15"
}
layer {
  name: "rnn1_h_conted_15"
  type: "Scale"
  bottom: "h_15"
  bottom: "cont_16"
  top: "h_conted_15"
  scale_param {
    axis: 0
  }
}
layer {
  name: "rnn1_W_hh_h_15"
  type: "InnerProduct"
  bottom: "h_conted_15"
  top: "W_hh_h_15"
  param {
    name: "W_hh"
  }
  inner_product_param {
    num_output: 30
    bias_term: false
    weight_filler {
      type: "uniform"
      min: -0.01
      max: 0.01
    }
    axis: 2
  }
}
layer {
  name: "rnn1_h_input_sum_16"
  type: "Eltwise"
  bottom: "W_hh_h_15"
  bottom: "W_xh_x_16"
  top: "h_neuron_input_16"
  eltwise_param {
    operation: SUM
  }
}
layer {
  name: "rnn1_h_neuron_16"
  type: "TanH"
  bottom: "h_neuron_input_16"
  top: "h_16"
}
layer {
  name: "rnn1_W_ho_h_16"
  type: "InnerProduct"
  bottom: "h_16"
  top: "W_ho_h_16"
  param {
    name: "W_ho"
  }
  param {
    name: "b_o"
  }
  inner_product_param {
    num_output: 30
    bias_term: true
    weight_filler {
      type: "uniform"
      min: -0.01
      max: 0.01
    }
    bias_filler {
      type: "constant"
      value: 0
    }
    axis: 2
  }
}
layer {
  name: "rnn1_o_neuron_16"
  type: "TanH"
  bottom: "W_ho_h_16"
  top: "o_16"
}
layer {
  name: "rnn1_h_conted_16"
  type: "Scale"
  bottom: "h_16"
  bottom: "cont_17"
  top: "h_conted_16"
  scale_param {
    axis: 0
  }
}
layer {
  name: "rnn1_W_hh_h_16"
  type: "InnerProduct"
  bottom: "h_conted_16"
  top: "W_hh_h_16"
  param {
    name: "W_hh"
  }
  inner_product_param {
    num_output: 30
    bias_term: false
    weight_filler {
      type: "uniform"
      min: -0.01
      max: 0.01
    }
    axis: 2
  }
}
layer {
  name: "rnn1_h_input_sum_17"
  type: "Eltwise"
  bottom: "W_hh_h_16"
  bottom: "W_xh_x_17"
  top: "h_neuron_input_17"
  eltwise_param {
    operation: SUM
  }
}
layer {
  name: "rnn1_h_neuron_17"
  type: "TanH"
  bottom: "h_neuron_input_17"
  top: "h_17"
}
layer {
  name: "rnn1_W_ho_h_17"
  type: "InnerProduct"
  bottom: "h_17"
  top: "W_ho_h_17"
  param {
    name: "W_ho"
  }
  param {
    name: "b_o"
  }
  inner_product_param {
    num_output: 30
    bias_term: true
    weight_filler {
      type: "uniform"
      min: -0.01
      max: 0.01
    }
    bias_filler {
      type: "constant"
      value: 0
    }
    axis: 2
  }
}
layer {
  name: "rnn1_o_neuron_17"
  type: "TanH"
  bottom: "W_ho_h_17"
  top: "o_17"
}
layer {
  name: "rnn1_h_conted_17"
  type: "Scale"
  bottom: "h_17"
  bottom: "cont_18"
  top: "h_conted_17"
  scale_param {
    axis: 0
  }
}
layer {
  name: "rnn1_W_hh_h_17"
  type: "InnerProduct"
  bottom: "h_conted_17"
  top: "W_hh_h_17"
  param {
    name: "W_hh"
  }
  inner_product_param {
    num_output: 30
    bias_term: false
    weight_filler {
      type: "uniform"
      min: -0.01
      max: 0.01
    }
    axis: 2
  }
}
layer {
  name: "rnn1_h_input_sum_18"
  type: "Eltwise"
  bottom: "W_hh_h_17"
  bottom: "W_xh_x_18"
  top: "h_neuron_input_18"
  eltwise_param {
    operation: SUM
  }
}
layer {
  name: "rnn1_h_neuron_18"
  type: "TanH"
  bottom: "h_neuron_input_18"
  top: "h_18"
}
layer {
  name: "rnn1_W_ho_h_18"
  type: "InnerProduct"
  bottom: "h_18"
  top: "W_ho_h_18"
  param {
    name: "W_ho"
  }
  param {
    name: "b_o"
  }
  inner_product_param {
    num_output: 30
    bias_term: true
    weight_filler {
      type: "uniform"
      min: -0.01
      max: 0.01
    }
    bias_filler {
      type: "constant"
      value: 0
    }
    axis: 2
  }
}
layer {
  name: "rnn1_o_neuron_18"
  type: "TanH"
  bottom: "W_ho_h_18"
  top: "o_18"
}
layer {
  name: "rnn1_h_conted_18"
  type: "Scale"
  bottom: "h_18"
  bottom: "cont_19"
  top: "h_conted_18"
  scale_param {
    axis: 0
  }
}
layer {
  name: "rnn1_W_hh_h_18"
  type: "InnerProduct"
  bottom: "h_conted_18"
  top: "W_hh_h_18"
  param {
    name: "W_hh"
  }
  inner_product_param {
    num_output: 30
    bias_term: false
    weight_filler {
      type: "uniform"
      min: -0.01
      max: 0.01
    }
    axis: 2
  }
}
layer {
  name: "rnn1_h_input_sum_19"
  type: "Eltwise"
  bottom: "W_hh_h_18"
  bottom: "W_xh_x_19"
  top: "h_neuron_input_19"
  eltwise_param {
    operation: SUM
  }
}
layer {
  name: "rnn1_h_neuron_19"
  type: "TanH"
  bottom: "h_neuron_input_19"
  top: "h_19"
}
layer {
  name: "rnn1_W_ho_h_19"
  type: "InnerProduct"
  bottom: "h_19"
  top: "W_ho_h_19"
  param {
    name: "W_ho"
  }
  param {
    name: "b_o"
  }
  inner_product_param {
    num_output: 30
    bias_term: true
    weight_filler {
      type: "uniform"
      min: -0.01
      max: 0.01
    }
    bias_filler {
      type: "constant"
      value: 0
    }
    axis: 2
  }
}
layer {
  name: "rnn1_o_neuron_19"
  type: "TanH"
  bottom: "W_ho_h_19"
  top: "o_19"
}
layer {
  name: "rnn1_h_conted_19"
  type: "Scale"
  bottom: "h_19"
  bottom: "cont_20"
  top: "h_conted_19"
  scale_param {
    axis: 0
  }
}
layer {
  name: "rnn1_W_hh_h_19"
  type: "InnerProduct"
  bottom: "h_conted_19"
  top: "W_hh_h_19"
  param {
    name: "W_hh"
  }
  inner_product_param {
    num_output: 30
    bias_term: false
    weight_filler {
      type: "uniform"
      min: -0.01
      max: 0.01
    }
    axis: 2
  }
}
layer {
  name: "rnn1_h_input_sum_20"
  type: "Eltwise"
  bottom: "W_hh_h_19"
  bottom: "W_xh_x_20"
  top: "h_neuron_input_20"
  eltwise_param {
    operation: SUM
  }
}
layer {
  name: "rnn1_h_neuron_20"
  type: "TanH"
  bottom: "h_neuron_input_20"
  top: "h_20"
}
layer {
  name: "rnn1_W_ho_h_20"
  type: "InnerProduct"
  bottom: "h_20"
  top: "W_ho_h_20"
  param {
    name: "W_ho"
  }
  param {
    name: "b_o"
  }
  inner_product_param {
    num_output: 30
    bias_term: true
    weight_filler {
      type: "uniform"
      min: -0.01
      max: 0.01
    }
    bias_filler {
      type: "constant"
      value: 0
    }
    axis: 2
  }
}
layer {
  name: "rnn1_o_neuron_20"
  type: "TanH"
  bottom: "W_ho_h_20"
  top: "o_20"
}
layer {
  name: "rnn1_h_conted_20"
  type: "Scale"
  bottom: "h_20"
  bottom: "cont_21"
  top: "h_conted_20"
  scale_param {
    axis: 0
  }
}
layer {
  name: "rnn1_W_hh_h_20"
  type: "InnerProduct"
  bottom: "h_conted_20"
  top: "W_hh_h_20"
  param {
    name: "W_hh"
  }
  inner_product_param {
    num_output: 30
    bias_term: false
    weight_filler {
      type: "uniform"
      min: -0.01
      max: 0.01
    }
    axis: 2
  }
}
layer {
  name: "rnn1_h_input_sum_21"
  type: "Eltwise"
  bottom: "W_hh_h_20"
  bottom: "W_xh_x_21"
  top: "h_neuron_input_21"
  eltwise_param {
    operation: SUM
  }
}
layer {
  name: "rnn1_h_neuron_21"
  type: "TanH"
  bottom: "h_neuron_input_21"
  top: "h_21"
}
layer {
  name: "rnn1_W_ho_h_21"
  type: "InnerProduct"
  bottom: "h_21"
  top: "W_ho_h_21"
  param {
    name: "W_ho"
  }
  param {
    name: "b_o"
  }
  inner_product_param {
    num_output: 30
    bias_term: true
    weight_filler {
      type: "uniform"
      min: -0.01
      max: 0.01
    }
    bias_filler {
      type: "constant"
      value: 0
    }
    axis: 2
  }
}
layer {
  name: "rnn1_o_neuron_21"
  type: "TanH"
  bottom: "W_ho_h_21"
  top: "o_21"
}
layer {
  name: "rnn1_h_conted_21"
  type: "Scale"
  bottom: "h_21"
  bottom: "cont_22"
  top: "h_conted_21"
  scale_param {
    axis: 0
  }
}
layer {
  name: "rnn1_W_hh_h_21"
  type: "InnerProduct"
  bottom: "h_conted_21"
  top: "W_hh_h_21"
  param {
    name: "W_hh"
  }
  inner_product_param {
    num_output: 30
    bias_term: false
    weight_filler {
      type: "uniform"
      min: -0.01
      max: 0.01
    }
    axis: 2
  }
}
layer {
  name: "rnn1_h_input_sum_22"
  type: "Eltwise"
  bottom: "W_hh_h_21"
  bottom: "W_xh_x_22"
  top: "h_neuron_input_22"
  eltwise_param {
    operation: SUM
  }
}
layer {
  name: "rnn1_h_neuron_22"
  type: "TanH"
  bottom: "h_neuron_input_22"
  top: "h_22"
}
layer {
  name: "rnn1_W_ho_h_22"
  type: "InnerProduct"
  bottom: "h_22"
  top: "W_ho_h_22"
  param {
    name: "W_ho"
  }
  param {
    name: "b_o"
  }
  inner_product_param {
    num_output: 30
    bias_term: true
    weight_filler {
      type: "uniform"
      min: -0.01
      max: 0.01
    }
    bias_filler {
      type: "constant"
      value: 0
    }
    axis: 2
  }
}
layer {
  name: "rnn1_o_neuron_22"
  type: "TanH"
  bottom: "W_ho_h_22"
  top: "o_22"
}
layer {
  name: "rnn1_h_conted_22"
  type: "Scale"
  bottom: "h_22"
  bottom: "cont_23"
  top: "h_conted_22"
  scale_param {
    axis: 0
  }
}
layer {
  name: "rnn1_W_hh_h_22"
  type: "InnerProduct"
  bottom: "h_conted_22"
  top: "W_hh_h_22"
  param {
    name: "W_hh"
  }
  inner_product_param {
    num_output: 30
    bias_term: false
    weight_filler {
      type: "uniform"
      min: -0.01
      max: 0.01
    }
    axis: 2
  }
}
layer {
  name: "rnn1_h_input_sum_23"
  type: "Eltwise"
  bottom: "W_hh_h_22"
  bottom: "W_xh_x_23"
  top: "h_neuron_input_23"
  eltwise_param {
    operation: SUM
  }
}
layer {
  name: "rnn1_h_neuron_23"
  type: "TanH"
  bottom: "h_neuron_input_23"
  top: "h_23"
}
layer {
  name: "rnn1_W_ho_h_23"
  type: "InnerProduct"
  bottom: "h_23"
  top: "W_ho_h_23"
  param {
    name: "W_ho"
  }
  param {
    name: "b_o"
  }
  inner_product_param {
    num_output: 30
    bias_term: true
    weight_filler {
      type: "uniform"
      min: -0.01
      max: 0.01
    }
    bias_filler {
      type: "constant"
      value: 0
    }
    axis: 2
  }
}
layer {
  name: "rnn1_o_neuron_23"
  type: "TanH"
  bottom: "W_ho_h_23"
  top: "o_23"
}
layer {
  name: "rnn1_h_conted_23"
  type: 
I0330 13:43:28.993574 37278 data_layer.cpp:102] Prefetch batch: 0 ms.
I0330 13:43:28.993582 37278 data_layer.cpp:103]      Read time: 0.059 ms.
I0330 13:43:28.993587 37278 data_layer.cpp:104] Transform time: 0.46 ms.
I0330 13:43:28.997848 37261 layer_factory.hpp:77] Creating layer rnn1_
I0330 13:43:28.997876 37261 net.cpp:100] Creating Layer rnn1_
I0330 13:43:28.997887 37261 net.cpp:408] rnn1_ -> x
I0330 13:43:28.997915 37261 net.cpp:408] rnn1_ -> cont
I0330 13:43:28.997965 37261 net.cpp:150] Setting up rnn1_
I0330 13:43:28.997975 37261 net.cpp:157] Top shape: 64 1 28 28 (50176)
I0330 13:43:28.997983 37261 net.cpp:157] Top shape: 64 1 (64)
I0330 13:43:28.997988 37261 net.cpp:165] Memory required for data: 200960
I0330 13:43:28.997997 37261 layer_factory.hpp:77] Creating layer rnn1_
I0330 13:43:28.998015 37261 net.cpp:100] Creating Layer rnn1_
I0330 13:43:28.998025 37261 net.cpp:408] rnn1_ -> h_0
I0330 13:43:28.998059 37261 net.cpp:150] Setting up rnn1_
I0330 13:43:28.998068 37261 net.cpp:157] Top shape: 1 1 30 (30)
I0330 13:43:28.998075 37261 net.cpp:165] Memory required for data: 201080
I0330 13:43:28.998080 37261 layer_factory.hpp:77] Creating layer rnn1_cont_slice
I0330 13:43:28.998106 37261 net.cpp:100] Creating Layer rnn1_cont_slice
I0330 13:43:28.998114 37261 net.cpp:434] rnn1_cont_slice <- cont
I0330 13:43:28.998132 37261 net.cpp:408] rnn1_cont_slice -> cont_1
I0330 13:43:28.998154 37261 net.cpp:408] rnn1_cont_slice -> cont_2
…
I0330 13:43:28.999220 37261 net.cpp:408] rnn1_cont_slice -> cont_57
I0330 13:43:28.999236 37261 net.cpp:408] rnn1_cont_slice -> cont_58
I0330 13:43:28.999253 37261 net.cpp:408] rnn1_cont_slice -> cont_59
I0330 13:43:28.999269 37261 net.cpp:408] rnn1_cont_slice -> cont_60
I0330 13:43:28.999284 37261 net.cpp:408] rnn1_cont_slice -> cont_61
I0330 13:43:28.999300 37261 net.cpp:408] rnn1_cont_slice -> cont_62
I0330 13:43:28.999326 37261 net.cpp:408] rnn1_cont_slice -> cont_63
I0330 13:43:28.999343 37261 net.cpp:408] rnn1_cont_slice -> cont_64
I0330 13:43:28.999665 37261 net.cpp:150] Setting up rnn1_cont_slice
I0330 13:43:28.999681 37261 net.cpp:157] Top shape: 1 1 (1)
I0330 13:43:28.999689 37261 net.cpp:157] Top shape: 1 1 (1)
I0330 13:43:28.999696 37261 net.cpp:157] Top shape: 1 1 (1)
I0330 13:43:28.999701 37261 net.cpp:157] Top shape: 1 1 (1)
I0330 13:43:28.999706 37261 net.cpp:157] Top shape: 1 1 (1)
I0330 13:43:28.999711 37261 net.cpp:157] Top shape: 1 1 (1)
I0330 13:43:28.999716 37261 net.cpp:157] Top shape: 1 1 (1)
I0330 13:43:28.999727 37261 net.cpp:157] Top shape: 1 1 (1)
I0330 13:43:28.999733 37261 net.cpp:157] Top shape: 1 1 (1)
I0330 13:43:28.999738 37261 net.cpp:157] Top shape: 1 1 (1)
I0330 13:43:28.999743 37261 net.cpp:157] Top shape: 1 1 (1)
I0330 13:43:28.999748 37261 net.cpp:157] Top shape: 1 1 (1)
I0330 13:43:28.999753 37261 net.cpp:157] Top shape: 1 1 (1)
I0330 13:43:28.999759 37261 net.cpp:157] Top shape: 1 1 (1)
I0330 13:43:28.999764 37261 net.cpp:157] Top shape: 1 1 (1)
I0330 13:43:28.999769 37261 net.cpp:157] Top shape: 1 1 (1)
I0330 13:43:28.999774 37261 net.cpp:157] Top shape: 1 1 (1)
I0330 13:43:28.999779 37261 net.cpp:157] Top shape: 1 1 (1)
I0330 13:43:28.999784 37261 net.cpp:157] Top shape: 1 1 (1)
I0330 13:43:28.999789 37261 net.cpp:157] Top shape: 1 1 (1)
I0330 13:43:28.999794 37261 net.cpp:157] Top shape: 1 1 (1)
I0330 13:43:28.999799 37261 net.cpp:157] Top shape: 1 1 (1)
I0330 13:43:28.999804 37261 net.cpp:157] Top shape: 1 1 (1)
I0330 13:43:28.999810 37261 net.cpp:157] Top shape: 1 1 (1)
I0330 13:43:28.999815 37261 net.cpp:157] Top shape: 1 1 (1)
I0330 13:43:28.999820 37261 net.cpp:157] Top shape: 1 1 (1)
I0330 13:43:28.999825 37261 net.cpp:157] Top shape: 1 1 (1)
I0330 13:43:28.999830 37261 net.cpp:157] Top shape: 1 1 (1)
I0330 13:43:28.999835 37261 net.cpp:157] Top shape: 1 1 (1)
I0330 13:43:28.999840 37261 net.cpp:157] Top shape: 1 1 (1)
I0330 13:43:28.999845 37261 net.cpp:157] Top shape: 1 1 (1)
I0330 13:43:28.999850 37261 net.cpp:157] Top shape: 1 1 (1)
I0330 13:43:28.999855 37261 net.cpp:157] Top shape: 1 1 (1)
I0330 13:43:28.999861 37261 net.cpp:157] Top shape: 1 1 (1)
I0330 13:43:28.999866 37261 net.cpp:157] Top shape: 1 1 (1)
I0330 13:43:28.999871 37261 net.cpp:157] Top shape: 1 1 (1)
I0330 13:43:28.999876 37261 net.cpp:157] Top shape: 1 1 (1)
I0330 13:43:28.999881 37261 net.cpp:157] Top shape: 1 1 (1)
I0330 13:43:28.999886 37261 net.cpp:157] Top shape: 1 1 (1)
I0330 13:43:28.999891 37261 net.cpp:157] Top shape: 1 1 (1)
I0330 13:43:28.999897 37261 net.cpp:157] Top shape: 1 1 (1)
I0330 13:43:28.999902 37261 net.cpp:157] Top shape: 1 1 (1)
I0330 13:43:28.999907 37261 net.cpp:157] Top shape: 1 1 (1)
I0330 13:43:28.999912 37261 net.cpp:157] Top shape: 1 1 (1)
I0330 13:43:28.999917 37261 net.cpp:157] Top shape: 1 1 (1)
I0330 13:43:28.999922 37261 net.cpp:157] Top shape: 1 1 (1)
I0330 13:43:28.999927 37261 net.cpp:157] Top shape: 1 1 (1)
I0330 13:43:28.999933 37261 net.cpp:157] Top shape: 1 1 (1)
I0330 13:43:28.999938 37261 net.cpp:157] Top shape: 1 1 (1)
I0330 13:43:28.999943 37261 net.cpp:157] Top shape: 1 1 (1)
I0330 13:43:28.999948 37261 net.cpp:157] Top shape: 1 1 (1)
I0330 13:43:28.999953 37261 net.cpp:157] Top shape: 1 1 (1)
I0330 13:43:28.999958 37261 net.cpp:157] Top shape: 1 1 (1)
I0330 13:43:28.999963 37261 net.cpp:157] Top shape: 1 1 (1)
I0330 13:43:28.999967 37261 net.cpp:157] Top shape: 1 1 (1)
I0330 13:43:28.999972 37261 net.cpp:157] Top shape: 1 1 (1)
I0330 13:43:28.999977 37261 net.cpp:157] Top shape: 1 1 (1)
I0330 13:43:28.999982 37261 net.cpp:157] Top shape: 1 1 (1)
I0330 13:43:28.999987 37261 net.cpp:157] Top shape: 1 1 (1)
I0330 13:43:28.999992 37261 net.cpp:157] Top shape: 1 1 (1)
I0330 13:43:28.999998 37261 net.cpp:157] Top shape: 1 1 (1)
I0330 13:43:29.000003 37261 net.cpp:157] Top shape: 1 1 (1)
I0330 13:43:29.000008 37261 net.cpp:157] Top shape: 1 1 (1)
I0330 13:43:29.000013 37261 net.cpp:157] Top shape: 1 1 (1)
I0330 13:43:29.000018 37261 net.cpp:165] Memory required for data: 201336
I0330 13:43:29.000025 37261 layer_factory.hpp:77] Creating layer rnn1_x_transform
I0330 13:43:29.000046 37261 net.cpp:100] Creating Layer rnn1_x_transform
I0330 13:43:29.000054 37261 net.cpp:434] rnn1_x_transform <- x
I0330 13:43:29.000077 37261 net.cpp:408] rnn1_x_transform -> W_xh_x
I0330 13:43:29.001188 37261 net.cpp:150] Setting up rnn1_x_transform
I0330 13:43:29.001199 37261 net.cpp:157] Top shape: 64 1 30 (1920)
I0330 13:43:29.001205 37261 net.cpp:165] Memory required for data: 209016
I0330 13:43:29.001268 37261 layer_factory.hpp:77] Creating layer rnn1_W_xh_x_slice
I0330 13:43:29.001294 37261 net.cpp:100] Creating Layer rnn1_W_xh_x_slice
I0330 13:43:29.001307 37261 net.cpp:434] rnn1_W_xh_x_slice <- W_xh_x
I0330 13:43:29.001327 37261 net.cpp:408] rnn1_W_xh_x_slice -> W_xh_x_1
I0330 13:43:29.001348 37261 net.cpp:408] rnn1_W_xh_x_slice -> W_xh_x_2
…
I0330 13:43:29.002267 37261 net.cpp:408] rnn1_W_xh_x_slice -> W_xh_x_58
I0330 13:43:29.002282 37261 net.cpp:408] rnn1_W_xh_x_slice -> W_xh_x_59
I0330 13:43:29.002297 37261 net.cpp:408] rnn1_W_xh_x_slice -> W_xh_x_60
I0330 13:43:29.002312 37261 net.cpp:408] rnn1_W_xh_x_slice -> W_xh_x_61
I0330 13:43:29.002344 37261 net.cpp:408] rnn1_W_xh_x_slice -> W_xh_x_62
I0330 13:43:29.002360 37261 net.cpp:408] rnn1_W_xh_x_slice -> W_xh_x_63
I0330 13:43:29.002377 37261 net.cpp:408] rnn1_W_xh_x_slice -> W_xh_x_64
I0330 13:43:29.002651 37261 net.cpp:150] Setting up rnn1_W_xh_x_slice
I0330 13:43:29.002660 37261 net.cpp:157] Top shape: 1 1 30 (30)
I0330 13:43:29.002667 37261 net.cpp:157] Top shape: 1 1 30 (30)
I0330 13:43:29.002672 37261 net.cpp:157] Top shape: 1 1 30 (30)
I0330 13:43:29.002677 37261 net.cpp:157] Top shape: 1 1 30 (30)
I0330 13:43:29.002682 37261 net.cpp:157] Top shape: 1 1 30 (30)
I0330 13:43:29.002687 37261 net.cpp:157] Top shape: 1 1 30 (30)
I0330 13:43:29.002692 37261 net.cpp:157] Top shape: 1 1 30 (30)
I0330 13:43:29.002697 37261 net.cpp:157] Top shape: 1 1 30 (30)
I0330 13:43:29.002702 37261 net.cpp:157] Top shape: 1 1 30 (30)
I0330 13:43:29.002707 37261 net.cpp:157] Top shape: 1 1 30 (30)
I0330 13:43:29.002712 37261 net.cpp:157] Top shape: 1 1 30 (30)
I0330 13:43:29.002717 37261 net.cpp:157] Top shape: 1 1 30 (30)
I0330 13:43:29.002722 37261 net.cpp:157] Top shape: 1 1 30 (30)
I0330 13:43:29.002727 37261 net.cpp:157] Top shape: 1 1 30 (30)
I0330 13:43:29.002732 37261 net.cpp:157] Top shape: 1 1 30 (30)
I0330 13:43:29.002737 37261 net.cpp:157] Top shape: 1 1 30 (30)
I0330 13:43:29.002741 37261 net.cpp:157] Top shape: 1 1 30 (30)
I0330 13:43:29.002746 37261 net.cpp:157] Top shape: 1 1 30 (30)
I0330 13:43:29.002751 37261 net.cpp:157] Top shape: 1 1 30 (30)
I0330 13:43:29.002756 37261 net.cpp:157] Top shape: 1 1 30 (30)
I0330 13:43:29.002761 37261 net.cpp:157] Top shape: 1 1 30 (30)
I0330 13:43:29.002766 37261 net.cpp:157] Top shape: 1 1 30 (30)
I0330 13:43:29.002771 37261 net.cpp:157] Top shape: 1 1 30 (30)
I0330 13:43:29.002776 37261 net.cpp:157] Top shape: 1 1 30 (30)
I0330 13:43:29.002781 37261 net.cpp:157] Top shape: 1 1 30 (30)
I0330 13:43:29.002786 37261 net.cpp:157] Top shape: 1 1 30 (30)
I0330 13:43:29.002790 37261 net.cpp:157] Top shape: 1 1 30 (30)
I0330 13:43:29.002795 37261 net.cpp:157] Top shape: 1 1 30 (30)
I0330 13:43:29.002800 37261 net.cpp:157] Top shape: 1 1 30 (30)
I0330 13:43:29.002805 37261 net.cpp:157] Top shape: 1 1 30 (30)
I0330 13:43:29.002810 37261 net.cpp:157] Top shape: 1 1 30 (30)
I0330 13:43:29.002815 37261 net.cpp:157] Top shape: 1 1 30 (30)
I0330 13:43:29.002820 37261 net.cpp:157] Top shape: 1 1 30 (30)
I0330 13:43:29.002825 37261 net.cpp:157] Top shape: 1 1 30 (30)
I0330 13:43:29.002830 37261 net.cpp:157] Top shape: 1 1 30 (30)
I0330 13:43:29.002835 37261 net.cpp:157] Top shape: 1 1 30 (30)
I0330 13:43:29.002840 37261 net.cpp:157] Top shape: 1 1 30 (30)
I0330 13:43:29.002846 37261 net.cpp:157] Top shape: 1 1 30 (30)
I0330 13:43:29.002851 37261 net.cpp:157] Top shape: 1 1 30 (30)
I0330 13:43:29.002856 37261 net.cpp:157] Top shape: 1 1 30 (30)
I0330 13:43:29.002859 37261 net.cpp:157] Top shape: 1 1 30 (30)
I0330 13:43:29.002864 37261 net.cpp:157] Top shape: 1 1 30 (30)
I0330 13:43:29.002869 37261 net.cpp:157] Top shape: 1 1 30 (30)
I0330 13:43:29.002874 37261 net.cpp:157] Top shape: 1 1 30 (30)
I0330 13:43:29.002879 37261 net.cpp:157] Top shape: 1 1 30 (30)
I0330 13:43:29.002884 37261 net.cpp:157] Top shape: 1 1 30 (30)
I0330 13:43:29.002889 37261 net.cpp:157] Top shape: 1 1 30 (30)
I0330 13:43:29.002894 37261 net.cpp:157] Top shape: 1 1 30 (30)
I0330 13:43:29.002899 37261 net.cpp:157] Top shape: 1 1 30 (30)
I0330 13:43:29.002904 37261 net.cpp:157] Top shape: 1 1 30 (30)
I0330 13:43:29.002909 37261 net.cpp:157] Top shape: 1 1 30 (30)
I0330 13:43:29.002914 37261 net.cpp:157] Top shape: 1 1 30 (30)
I0330 13:43:29.002919 37261 net.cpp:157] Top shape: 1 1 30 (30)
I0330 13:43:29.002926 37261 net.cpp:157] Top shape: 1 1 30 (30)
I0330 13:43:29.002934 37261 net.cpp:157] Top shape: 1 1 30 (30)
I0330 13:43:29.002940 37261 net.cpp:157] Top shape: 1 1 30 (30)
I0330 13:43:29.002945 37261 net.cpp:157] Top shape: 1 1 30 (30)
I0330 13:43:29.002949 37261 net.cpp:157] Top shape: 1 1 30 (30)
I0330 13:43:29.002954 37261 net.cpp:157] Top shape: 1 1 30 (30)
I0330 13:43:29.002959 37261 net.cpp:157] Top shape: 1 1 30 (30)
I0330 13:43:29.002965 37261 net.cpp:157] Top shape: 1 1 30 (30)
I0330 13:43:29.002970 37261 net.cpp:157] Top shape: 1 1 30 (30)
I0330 13:43:29.002975 37261 net.cpp:157] Top shape: 1 1 30 (30)
I0330 13:43:29.002980 37261 net.cpp:157] Top shape: 1 1 30 (30)
I0330 13:43:29.002985 37261 net.cpp:165] Memory required for data: 216696
I0330 13:43:29.002993 37261 layer_factory.hpp:77] Creating layer rnn1_h_conted_0
I0330 13:43:29.003012 37261 net.cpp:100] Creating Layer rnn1_h_conted_0
I0330 13:43:29.003021 37261 net.cpp:434] rnn1_h_conted_0 <- h_0
I0330 13:43:29.003033 37261 net.cpp:434] rnn1_h_conted_0 <- cont_1
I0330 13:43:29.003046 37261 net.cpp:408] rnn1_h_conted_0 -> h_conted_0
I0330 13:43:29.003094 37261 net.cpp:150] Setting up rnn1_h_conted_0
I0330 13:43:29.003103 37261 net.cpp:157] Top shape: 1 1 30 (30)
I0330 13:43:29.003108 37261 net.cpp:165] Memory required for data: 216816
I0330 13:43:29.003115 37261 layer_factory.hpp:77] Creating layer rnn1_W_hh_h_0
I0330 13:43:29.003129 37261 net.cpp:100] Creating Layer rnn1_W_hh_h_0
I0330 13:43:29.003137 37261 net.cpp:434] rnn1_W_hh_h_0 <- h_conted_0
I0330 13:43:29.003152 37261 net.cpp:408] rnn1_W_hh_h_0 -> W_hh_h_0
I0330 13:43:29.003238 37261 net.cpp:150] Setting up rnn1_W_hh_h_0
I0330 13:43:29.003247 37261 net.cpp:157] Top shape: 1 1 30 (30)
I0330 13:43:29.003253 37261 net.cpp:165] Memory required for data: 216936
I0330 13:43:29.003273 37261 layer_factory.hpp:77] Creating layer rnn1_h_input_sum_1
I0330 13:43:29.003293 37261 net.cpp:100] Creating Layer rnn1_h_input_sum_1
I0330 13:43:29.003300 37261 net.cpp:434] rnn1_h_input_sum_1 <- W_hh_h_0
I0330 13:43:29.003311 37261 net.cpp:434] rnn1_h_input_sum_1 <- W_xh_x_1
I0330 13:43:29.003322 37261 net.cpp:408] rnn1_h_input_sum_1 -> h_neuron_input_1
I0330 13:43:29.003369 37261 net.cpp:150] Setting up rnn1_h_input_sum_1
I0330 13:43:29.003378 37261 net.cpp:157] Top shape: 1 1 30 (30)
I0330 13:43:29.003384 37261 net.cpp:165] Memory required for data: 217056
I0330 13:43:29.003391 37261 layer_factory.hpp:77] Creating layer rnn1_h_neuron_1
I0330 13:43:29.003412 37261 net.cpp:100] Creating Layer rnn1_h_neuron_1
I0330 13:43:29.003419 37261 net.cpp:434] rnn1_h_neuron_1 <- h_neuron_input_1
I0330 13:43:29.003434 37261 net.cpp:408] rnn1_h_neuron_1 -> h_1
I0330 13:43:29.229445 37261 net.cpp:150] Setting up rnn1_h_neuron_1
I0330 13:43:29.229480 37261 net.cpp:157] Top shape: 1 1 30 (30)
I0330 13:43:29.229490 37261 net.cpp:165] Memory required for data: 217176
I0330 13:43:29.229506 37261 layer_factory.hpp:77] Creating layer h_1_rnn1_h_neuron_1_0_split
I0330 13:43:29.229544 37261 net.cpp:100] Creating Layer h_1_rnn1_h_neuron_1_0_split
I0330 13:43:29.229559 37261 net.cpp:434] h_1_rnn1_h_neuron_1_0_split <- h_1
I0330 13:43:29.229586 37261 net.cpp:408] h_1_rnn1_h_neuron_1_0_split -> h_1_rnn1_h_neuron_1_0_split_0
I0330 13:43:29.229612 37261 net.cpp:408] h_1_rnn1_h_neuron_1_0_split -> h_1_rnn1_h_neuron_1_0_split_1
I0330 13:43:29.229650 37261 net.cpp:150] Setting up h_1_rnn1_h_neuron_1_0_split
I0330 13:43:29.229657 37261 net.cpp:157] Top shape: 1 1 30 (30)
I0330 13:43:29.229665 37261 net.cpp:157] Top shape: 1 1 30 (30)
I0330 13:43:29.229668 37261 net.cpp:165] Memory required for data: 217416
I0330 13:43:29.229676 37261 layer_factory.hpp:77] Creating layer rnn1_W_ho_h_1
I0330 13:43:29.229692 37261 net.cpp:100] Creating Layer rnn1_W_ho_h_1
I0330 13:43:29.229701 37261 net.cpp:434] rnn1_W_ho_h_1 <- h_1_rnn1_h_neuron_1_0_split_0
I0330 13:43:29.229717 37261 net.cpp:408] rnn1_W_ho_h_1 -> W_ho_h_1
I0330 13:43:29.229840 37261 net.cpp:150] Setting up rnn1_W_ho_h_1
I0330 13:43:29.229849 37261 net.cpp:157] Top shape: 1 1 30 (30)
I0330 13:43:29.229861 37261 net.cpp:165] Memory required for data: 217536
I0330 13:43:29.229897 37261 layer_factory.hpp:77] Creating layer rnn1_o_neuron_1
I0330 13:43:29.229912 37261 net.cpp:100] Creating Layer rnn1_o_neuron_1
I0330 13:43:29.229920 37261 net.cpp:434] rnn1_o_neuron_1 <- W_ho_h_1
I0330 13:43:29.229934 37261 net.cpp:408] rnn1_o_neuron_1 -> o_1
I0330 13:43:29.230230 37261 net.cpp:150] Setting up rnn1_o_neuron_1
I0330 13:43:29.230242 37261 net.cpp:157] Top shape: 1 1 30 (30)
I0330 13:43:29.230248 37261 net.cpp:165] Memory required for data: 217656
I0330 13:43:29.230255 37261 layer_factory.hpp:77] Creating layer rnn1_h_conted_1
I0330 13:43:29.230273 37261 net.cpp:100] Creating Layer rnn1_h_conted_1
I0330 13:43:29.230281 37261 net.cpp:434] rnn1_h_conted_1 <- h_1_rnn1_h_neuron_1_0_split_1
I0330 13:43:29.230294 37261 net.cpp:434] rnn1_h_conted_1 <- cont_2
I0330 13:43:29.230307 37261 net.cpp:408] rnn1_h_conted_1 -> h_conted_1
I0330 13:43:29.230353 37261 net.cpp:150] Setting up rnn1_h_conted_1
I0330 13:43:29.230362 37261 net.cpp:157] Top shape: 1 1 30 (30)
I0330 13:43:29.230368 37261 net.cpp:165] Memory required for data: 217776
I0330 13:43:29.230374 37261 layer_factory.hpp:77] Creating layer rnn1_W_hh_h_1
I0330 13:43:29.230389 37261 net.cpp:100] Creating Layer rnn1_W_hh_h_1
I0330 13:43:29.230397 37261 net.cpp:434] rnn1_W_hh_h_1 <- h_conted_1
I0330 13:43:29.230412 37261 net.cpp:408] rnn1_W_hh_h_1 -> W_hh_h_1
I0330 13:43:29.230499 37261 net.cpp:150] Setting up rnn1_W_hh_h_1
I0330 13:43:29.230509 37261 net.cpp:157] Top shape: 1 1 30 (30)
I0330 13:43:29.230515 37261 net.cpp:165] Memory required for data: 217896
I0330 13:43:29.230525 37261 net.cpp:493] Sharing parameters 'W_hh' owned by layer 'rnn1_W_hh_h_0', param index 0
I0330 13:43:29.230535 37261 layer_factory.hpp:77] Creating layer rnn1_h_input_sum_2
I0330 13:43:29.230548 37261 net.cpp:100] Creating Layer rnn1_h_input_sum_2
I0330 13:43:29.230556 37261 net.cpp:434] rnn1_h_input_sum_2 <- W_hh_h_1
I0330 13:43:29.230568 37261 net.cpp:434] rnn1_h_input_sum_2 <- W_xh_x_2
I0330 13:43:29.230579 37261 net.cpp:408] rnn1_h_input_sum_2 -> h_neuron_input_2
I0330 13:43:29.230610 37261 net.cpp:150] Setting up rnn1_h_input_sum_2
I0330 13:43:29.230618 37261 net.cpp:157] Top shape: 1 1 30 (30)
I0330 13:43:29.230624 37261 net.cpp:165] Memory required for data: 218016
I0330 13:43:29.230631 37261 layer_factory.hpp:77] Creating layer rnn1_h_neuron_2
I0330 13:43:29.230662 37261 net.cpp:100] Creating Layer rnn1_h_neuron_2
I0330 13:43:29.230670 37261 net.cpp:434] rnn1_h_neuron_2 <- h_neuron_input_2
I0330 13:43:29.230700 37261 net.cpp:408] rnn1_h_neuron_2 -> h_2
I0330 13:43:29.231097 37261 net.cpp:150] Setting up rnn1_h_neuron_2
I0330 13:43:29.231109 37261 net.cpp:157] Top shape: 1 1 30 (30)
I0330 13:43:29.231115 37261 net.cpp:165] Memory required for data: 218136
I0330 13:43:29.231123 37261 layer_factory.hpp:77] Creating layer h_2_rnn1_h_neuron_2_0_split
I0330 13:43:29.231143 37261 net.cpp:100] Creating Layer h_2_rnn1_h_neuron_2_0_split
I0330 13:43:29.231151 37261 net.cpp:434] h_2_rnn1_h_neuron_2_0_split <- h_2
I0330 13:43:29.231168 37261 net.cpp:408] h_2_rnn1_h_neuron_2_0_split -> h_2_rnn1_h_neuron_2_0_split_0
I0330 13:43:29.231187 37261 net.cpp:408] h_2_rnn1_h_neuron_2_0_split -> h_2_rnn1_h_neuron_2_0_split_1
I0330 13:43:29.231217 37261 net.cpp:150] Setting up h_2_rnn1_h_neuron_2_0_split
I0330 13:43:29.231225 37261 net.cpp:157] Top shape: 1 1 30 (30)
I0330 13:43:29.231231 37261 net.cpp:157] Top shape: 1 1 30 (30)
I0330 13:43:29.231236 37261 net.cpp:165] Memory required for data: 218376
I0330 13:43:29.231243 37261 layer_factory.hpp:77] Creating layer rnn1_W_ho_h_2
I0330 13:43:29.231257 37261 net.cpp:100] Creating Layer rnn1_W_ho_h_2
I0330 13:43:29.231266 37261 net.cpp:434] rnn1_W_ho_h_2 <- h_2_rnn1_h_neuron_2_0_split_0
I0330 13:43:29.231281 37261 net.cpp:408] rnn1_W_ho_h_2 -> W_ho_h_2
I0330 13:43:29.231389 37261 net.cpp:150] Setting up rnn1_W_ho_h_2
I0330 13:43:29.231397 37261 net.cpp:157] Top shape: 1 1 30 (30)
I0330 13:43:29.231403 37261 net.cpp:165] Memory required for data: 218496
I0330 13:43:29.231418 37261 net.cpp:493] Sharing parameters 'W_ho' owned by layer 'rnn1_W_ho_h_1', param index 0
I0330 13:43:29.231433 37261 net.cpp:493] Sharing parameters 'b_o' owned by layer 'rnn1_W_ho_h_1', param index 1
I0330 13:43:29.231441 37261 layer_factory.hpp:77] Creating layer rnn1_o_neuron_2
I0330 13:43:29.231453 37261 net.cpp:100] Creating Layer rnn1_o_neuron_2
I0330 13:43:29.231462 37261 net.cpp:434] rnn1_o_neuron_2 <- W_ho_h_2
I0330 13:43:29.231477 37261 net.cpp:408] rnn1_o_neuron_2 -> o_2
I0330 13:43:29.231879 37261 net.cpp:150] Setting up rnn1_o_neuron_2
I0330 13:43:29.231894 37261 net.cpp:157] Top shape: 1 1 30 (30)
I0330 13:43:29.231900 37261 net.cpp:165] Memory required for data: 218616
I0330 13:43:29.231907 37261 layer_factory.hpp:77] Creating layer rnn1_h_conted_2
I0330 13:43:29.231923 37261 net.cpp:100] Creating Layer rnn1_h_conted_2
I0330 13:43:29.231931 37261 net.cpp:434] rnn1_h_conted_2 <- h_2_rnn1_h_neuron_2_0_split_1
I0330 13:43:29.231945 37261 net.cpp:434] rnn1_h_conted_2 <- cont_3
I0330 13:43:29.231957 37261 net.cpp:408] rnn1_h_conted_2 -> h_conted_2
I0330 13:43:29.232003 37261 net.cpp:150] Setting up rnn1_h_conted_2
I0330 13:43:29.232012 37261 net.cpp:157] Top shape: 1 1 30 (30)
I0330 13:43:29.232018 37261 net.cpp:165] Memory required for data: 218736
I0330 13:43:29.232024 37261 layer_factory.hpp:77] Creating layer rnn1_W_hh_h_2
I0330 13:43:29.232038 37261 net.cpp:100] Creating Layer rnn1_W_hh_h_2
I0330 13:43:29.232046 37261 net.cpp:434] rnn1_W_hh_h_2 <- h_conted_2
I0330 13:43:29.232061 37261 net.cpp:408] rnn1_W_hh_h_2 -> W_hh_h_2
I0330 13:43:29.232146 37261 net.cpp:150] Setting up rnn1_W_hh_h_2
I0330 13:43:29.232156 37261 net.cpp:157] Top shape: 1 1 30 (30)
I0330 13:43:29.232161 37261 net.cpp:165] Memory required for data: 218856
I0330 13:43:29.232175 37261 net.cpp:493] Sharing parameters 'W_hh' owned by layer 'rnn1_W_hh_h_0', param index 0
I0330 13:43:29.232183 37261 layer_factory.hpp:77] Creating layer rnn1_h_input_sum_3
I0330 13:43:29.232198 37261 net.cpp:100] Creating Layer rnn1_h_input_sum_3
I0330 13:43:29.232205 37261 net.cpp:434] rnn1_h_input_sum_3 <- W_hh_h_2
I0330 13:43:29.232218 37261 net.cpp:434] rnn1_h_input_sum_3 <- W_xh_x_3
I0330 13:43:29.232229 37261 net.cpp:408] rnn1_h_input_sum_3 -> h_neuron_input_3
I0330 13:43:29.232257 37261 net.cpp:150] Setting up rnn1_h_input_sum_3
I0330 13:43:29.232266 37261 net.cpp:157] Top shape: 1 1 30 (30)
I0330 13:43:29.232272 37261 net.cpp:165] Memory required for data: 218976
I0330 13:43:29.232278 37261 layer_factory.hpp:77] Creating layer rnn1_h_neuron_3
I0330 13:43:29.232291 37261 net.cpp:100] Creating Layer rnn1_h_neuron_3
I0330 13:43:29.232298 37261 net.cpp:434] rnn1_h_neuron_3 <- h_neuron_input_3
I0330 13:43:29.232313 37261 net.cpp:408] rnn1_h_neuron_3 -> h_3
I0330 13:43:29.232667 37261 net.cpp:150] Setting up rnn1_h_neuron_3
I0330 13:43:29.232678 37261 net.cpp:157] Top shape: 1 1 30 (30)
I0330 13:43:29.232684 37261 net.cpp:165] Memory required for data: 219096
I0330 13:43:29.232692 37261 layer_factory.hpp:77] Creating layer h_3_rnn1_h_neuron_3_0_split
I0330 13:43:29.232707 37261 net.cpp:100] Creating Layer h_3_rnn1_h_neuron_3_0_split
I0330 13:43:29.232714 37261 net.cpp:434] h_3_rnn1_h_neuron_3_0_split <- h_3
I0330 13:43:29.232731 37261 net.cpp:408] h_3_rnn1_h_neuron_3_0_split -> h_3_rnn1_h_neuron_3_0_split_0
I0330 13:43:29.232749 37261 net.cpp:408] h_3_rnn1_h_neuron_3_0_split -> h_3_rnn1_h_neuron_3_0_split_1
I0330 13:43:29.232780 37261 net.cpp:150] Setting up h_3_rnn1_h_neuron_3_0_split
I0330 13:43:29.232789 37261 net.cpp:157] Top shape: 1 1 30 (30)
I0330 13:43:29.232795 37261 net.cpp:157] Top shape: 1 1 30 (30)
I0330 13:43:29.232800 37261 net.cpp:165] Memory required for data: 219336
I0330 13:43:29.232805 37261 layer_factory.hpp:77] Creating layer rnn1_W_ho_h_3
I0330 13:43:29.232820 37261 net.cpp:100] Creating Layer rnn1_W_ho_h_3
I0330 13:43:29.232828 37261 net.cpp:434] rnn1_W_ho_h_3 <- h_3_rnn1_h_neuron_3_0_split_0
I0330 13:43:29.232844 37261 net.cpp:408] rnn1_W_ho_h_3 -> W_ho_h_3
I0330 13:43:29.232952 37261 net.cpp:150] Setting up rnn1_W_ho_h_3
I0330 13:43:29.232966 37261 net.cpp:157] Top shape: 1 1 30 (30)
I0330 13:43:29.232977 37261 net.cpp:165] Memory required for data: 219456
I0330 13:43:29.232987 37261 net.cpp:493] Sharing parameters 'W_ho' owned by layer 'rnn1_W_ho_h_1', param index 0
I0330 13:43:29.232995 37261 net.cpp:493] Sharing parameters 'b_o' owned by layer 'rnn1_W_ho_h_1', param index 1
I0330 13:43:29.233002 37261 layer_factory.hpp:77] Creating layer rnn1_o_neuron_3
I0330 13:43:29.233016 37261 net.cpp:100] Creating Layer rnn1_o_neuron_3
I0330 13:43:29.233023 37261 net.cpp:434] rnn1_o_neuron_3 <- W_ho_h_3
I0330 13:43:29.233038 37261 net.cpp:408] rnn1_o_neuron_3 -> o_3
I0330 13:43:29.233310 37261 net.cpp:150] Setting up rnn1_o_neuron_3
I0330 13:43:29.233321 37261 net.cpp:157] Top shape: 1 1 30 (30)
I0330 13:43:29.233327 37261 net.cpp:165] Memory required for data: 219576
I0330 13:43:29.233335 37261 layer_factory.hpp:77] Creating layer rnn1_h_conted_3
I0330 13:43:29.233350 37261 net.cpp:100] Creating Layer rnn1_h_conted_3
I0330 13:43:29.233359 37261 net.cpp:434] rnn1_h_conted_3 <- h_3_rnn1_h_neuron_3_0_split_1
I0330 13:43:29.233372 37261 net.cpp:434] rnn1_h_conted_3 <- cont_4
I0330 13:43:29.233384 37261 net.cpp:408] rnn1_h_conted_3 -> h_conted_3
I0330 13:43:29.233430 37261 net.cpp:150] Setting up rnn1_h_conted_3
I0330 13:43:29.233438 37261 net.cpp:157] Top shape: 1 1 30 (30)
I0330 13:43:29.233444 37261 net.cpp:165] Memory required for data: 219696
I0330 13:43:29.233451 37261 layer_factory.hpp:77] Creating layer rnn1_W_hh_h_3
I0330 13:43:29.233485 37261 net.cpp:100] Creating Layer rnn1_W_hh_h_3
I0330 13:43:29.233494 37261 net.cpp:434] rnn1_W_hh_h_3 <- h_conted_3
I0330 13:43:29.233510 37261 net.cpp:408] rnn1_W_hh_h_3 -> W_hh_h_3
I0330 13:43:29.233649 37261 net.cpp:150] Setting up rnn1_W_hh_h_3
I0330 13:43:29.233659 37261 net.cpp:157] Top shape: 1 1 30 (30)
I0330 13:43:29.233664 37261 net.cpp:165] Memory required for data: 219816
I0330 13:43:29.233686 37261 net.cpp:493] Sharing parameters 'W_hh' owned by layer 'rnn1_W_hh_h_0', param index 0
I0330 13:43:29.233695 37261 layer_factory.hpp:77] Creating layer rnn1_h_input_sum_4
I0330 13:43:29.233707 37261 net.cpp:100] Creating Layer rnn1_h_input_sum_4
I0330 13:43:29.233716 37261 net.cpp:434] rnn1_h_input_sum_4 <- W_hh_h_3
I0330 13:43:29.233727 37261 net.cpp:434] rnn1_h_input_sum_4 <- W_xh_x_4
I0330 13:43:29.233739 37261 net.cpp:408] rnn1_h_input_sum_4 -> h_neuron_input_4
I0330 13:43:29.233767 37261 net.cpp:150] Setting up rnn1_h_input_sum_4
I0330 13:43:29.233775 37261 net.cpp:157] Top shape: 1 1 30 (30)
I0330 13:43:29.233781 37261 net.cpp:165] Memory required for data: 219936
I0330 13:43:29.233788 37261 layer_factory.hpp:77] Creating layer rnn1_h_neuron_4
I0330 13:43:29.233800 37261 net.cpp:100] Creating Layer rnn1_h_neuron_4
I0330 13:43:29.233808 37261 net.cpp:434] rnn1_h_neuron_4 <- h_neuron_input_4
I0330 13:43:29.233821 37261 net.cpp:408] rnn1_h_neuron_4 -> h_4
I0330 13:43:29.234169 37261 net.cpp:150] Setting up rnn1_h_neuron_4
I0330 13:43:29.234181 37261 net.cpp:157] Top shape: 1 1 30 (30)
I0330 13:43:29.234187 37261 net.cpp:165] Memory required for data: 220056
I0330 13:43:29.234194 37261 layer_factory.hpp:77] Creating layer h_4_rnn1_h_neuron_4_0_split
I0330 13:43:29.234210 37261 net.cpp:100] Creating Layer h_4_rnn1_h_neuron_4_0_split
I0330 13:43:29.234217 37261 net.cpp:434] h_4_rnn1_h_neuron_4_0_split <- h_4
I0330 13:43:29.234234 37261 net.cpp:408] h_4_rnn1_h_neuron_4_0_split -> h_4_rnn1_h_neuron_4_0_split_0
I0330 13:43:29.234253 37261 net.cpp:408] h_4_rnn1_h_neuron_4_0_split -> h_4_rnn1_h_neuron_4_0_split_1
I0330 13:43:29.234282 37261 net.cpp:150] Setting up h_4_rnn1_h_neuron_4_0_split
I0330 13:43:29.234292 37261 net.cpp:157] Top shape: 1 1 30 (30)
I0330 13:43:29.234297 37261 net.cpp:157] Top shape: 1 1 30 (30)
I0330 13:43:29.234302 37261 net.cpp:165] Memory required for data: 220296
I0330 13:43:29.234308 37261 layer_factory.hpp:77] Creating layer rnn1_W_ho_h_4
I0330 13:43:29.234323 37261 net.cpp:100] Creating Layer rnn1_W_ho_h_4
I0330 13:43:29.234331 37261 net.cpp:434] rnn1_W_ho_h_4 <- h_4_rnn1_h_neuron_4_0_split_0
I0330 13:43:29.234354 37261 net.cpp:408] rnn1_W_ho_h_4 -> W_ho_h_4
I0330 13:43:29.234464 37261 net.cpp:150] Setting up rnn1_W_ho_h_4
I0330 13:43:29.234473 37261 net.cpp:157] Top shape: 1 1 30 (30)
I0330 13:43:29.234479 37261 net.cpp:165] Memory required for data: 220416
I0330 13:43:29.234489 37261 net.cpp:493] Sharing parameters 'W_ho' owned by layer 'rnn1_W_ho_h_1', param index 0
I0330 13:43:29.234498 37261 net.cpp:493] Sharing parameters 'b_o' owned by layer 'rnn1_W_ho_h_1', param index 1
I0330 13:43:29.234503 37261 layer_factory.hpp:77] Creating layer rnn1_o_neuron_4
I0330 13:43:29.234521 37261 net.cpp:100] Creating Layer rnn1_o_neuron_4
I0330 13:43:29.234529 37261 net.cpp:434] rnn1_o_neuron_4 <- W_ho_h_4
I0330 13:43:29.234544 37261 net.cpp:408] rnn1_o_neuron_4 -> o_4
I0330 13:43:29.234988 37261 net.cpp:150] Setting up rnn1_o_neuron_4
I0330 13:43:29.235002 37261 net.cpp:157] Top shape: 1 1 30 (30)
I0330 13:43:29.235008 37261 net.cpp:165] Memory required for data: 220536
I0330 13:43:29.235016 37261 layer_factory.hpp:77] Creating layer rnn1_h_conted_4
I0330 13:43:29.235031 37261 net.cpp:100] Creating Layer rnn1_h_conted_4
I0330 13:43:29.235040 37261 net.cpp:434] rnn1_h_conted_4 <- h_4_rnn1_h_neuron_4_0_split_1
I0330 13:43:29.235054 37261 net.cpp:434] rnn1_h_conted_4 <- cont_5
I0330 13:43:29.235065 37261 net.cpp:408] rnn1_h_conted_4 -> h_conted_4
I0330 13:43:29.235111 37261 net.cpp:150] Setting up rnn1_h_conted_4
I0330 13:43:29.235121 37261 net.cpp:157] Top shape: 1 1 30 (30)
I0330 13:43:29.235126 37261 net.cpp:165] Memory required for data: 220656
I0330 13:43:29.235132 37261 layer_factory.hpp:77] Creating layer rnn1_W_hh_h_4
I0330 13:43:29.235147 37261 net.cpp:100] Creating Layer rnn1_W_hh_h_4
I0330 13:43:29.235155 37261 net.cpp:434] rnn1_W_hh_h_4 <- h_conted_4
I0330 13:43:29.235170 37261 net.cpp:408] rnn1_W_hh_h_4 -> W_hh_h_4
I0330 13:43:29.235255 37261 net.cpp:150] Setting up rnn1_W_hh_h_4
I0330 13:43:29.235265 37261 net.cpp:157] Top shape: 1 1 30 (30)
I0330 13:43:29.235270 37261 net.cpp:165] Memory required for data: 220776
I0330 13:43:29.235280 37261 net.cpp:493] Sharing parameters 'W_hh' owned by layer 'rnn1_W_hh_h_0', param index 0
I0330 13:43:29.235287 37261 layer_factory.hpp:77] Creating layer rnn1_h_input_sum_5
I0330 13:43:29.235301 37261 net.cpp:100] Creating Layer rnn1_h_input_sum_5
I0330 13:43:29.235308 37261 net.cpp:434] rnn1_h_input_sum_5 <- W_hh_h_4
I0330 13:43:29.235321 37261 net.cpp:434] rnn1_h_input_sum_5 <- W_xh_x_5
I0330 13:43:29.235332 37261 net.cpp:408] rnn1_h_input_sum_5 -> h_neuron_input_5
I0330 13:43:29.235361 37261 net.cpp:150] Setting up rnn1_h_input_sum_5
I0330 13:43:29.235369 37261 net.cpp:157] Top shape: 1 1 30 (30)
I0330 13:43:29.235375 37261 net.cpp:165] Memory required for data: 220896
I0330 13:43:29.235381 37261 layer_factory.hpp:77] Creating layer rnn1_h_neuron_5
I0330 13:43:29.235394 37261 net.cpp:100] Creating Layer rnn1_h_neuron_5
I0330 13:43:29.235401 37261 net.cpp:434] rnn1_h_neuron_5 <- h_neuron_input_5
I0330 13:43:29.235415 37261 net.cpp:408] rnn1_h_neuron_5 -> h_5
I0330 13:43:29.235756 37261 net.cpp:150] Setting up rnn1_h_neuron_5
I0330 13:43:29.235767 37261 net.cpp:157] Top shape: 1 1 30 (30)
I0330 13:43:29.235774 37261 net.cpp:165] Memory required for data: 221016
I0330 13:43:29.235781 37261 layer_factory.hpp:77] Creating layer h_5_rnn1_h_neuron_5_0_split
I0330 13:43:29.235796 37261 net.cpp:100] Creating Layer h_5_rnn1_h_neuron_5_0_split
I0330 13:43:29.235805 37261 net.cpp:434] h_5_rnn1_h_neuron_5_0_split <- h_5
I0330 13:43:29.235821 37261 net.cpp:408] h_5_rnn1_h_neuron_5_0_split -> h_5_rnn1_h_neuron_5_0_split_0
I0330 13:43:29.235839 37261 net.cpp:408] h_5_rnn1_h_neuron_5_0_split -> h_5_rnn1_h_neuron_5_0_split_1
I0330 13:43:29.235869 37261 net.cpp:150] Setting up h_5_rnn1_h_neuron_5_0_split
I0330 13:43:29.235878 37261 net.cpp:157] Top shape: 1 1 30 (30)
I0330 13:43:29.235884 37261 net.cpp:157] Top shape: 1 1 30 (30)
I0330 13:43:29.235889 37261 net.cpp:165] Memory required for data: 221256
I0330 13:43:29.235895 37261 layer_factory.hpp:77] Creating layer rnn1_W_ho_h_5
I0330 13:43:29.235918 37261 net.cpp:100] Creating Layer rnn1_W_ho_h_5
I0330 13:43:29.235925 37261 net.cpp:434] rnn1_W_ho_h_5 <- h_5_rnn1_h_neuron_5_0_split_0
I0330 13:43:29.235942 37261 net.cpp:408] rnn1_W_ho_h_5 -> W_ho_h_5
I0330 13:43:29.236052 37261 net.cpp:150] Setting up rnn1_W_ho_h_5
I0330 13:43:29.236060 37261 net.cpp:157] Top shape: 1 1 30 (30)
I0330 13:43:29.236068 37261 net.cpp:165] Memory required for data: 221376
I0330 13:43:29.236076 37261 net.cpp:493] Sharing parameters 'W_ho' owned by layer 'rnn1_W_ho_h_1', param index 0
I0330 13:43:29.236090 37261 net.cpp:493] Sharing parameters 'b_o' owned by layer 'rnn1_W_ho_h_1', param index 1
I0330 13:43:29.236097 37261 layer_factory.hpp:77] Creating layer rnn1_o_neuron_5
I0330 13:43:29.236111 37261 net.cpp:100] Creating Layer rnn1_o_neuron_5
I0330 13:43:29.236119 37261 net.cpp:434] rnn1_o_neuron_5 <- W_ho_h_5
I0330 13:43:29.236135 37261 net.cpp:408] rnn1_o_neuron_5 -> o_5
I0330 13:43:29.236408 37261 net.cpp:150] Setting up rnn1_o_neuron_5
I0330 13:43:29.236419 37261 net.cpp:157] Top shape: 1 1 30 (30)
I0330 13:43:29.236425 37261 net.cpp:165] Memory required for data: 221496
I0330 13:43:29.236433 37261 layer_factory.hpp:77] Creating layer rnn1_h_conted_5
I0330 13:43:29.236449 37261 net.cpp:100] Creating Layer rnn1_h_conted_5
I0330 13:43:29.236457 37261 net.cpp:434] rnn1_h_conted_5 <- h_5_rnn1_h_neuron_5_0_split_1
I0330 13:43:29.236470 37261 net.cpp:434] rnn1_h_conted_5 <- cont_6
I0330 13:43:29.236482 37261 net.cpp:408] rnn1_h_conted_5 -> h_conted_5
I0330 13:43:29.236528 37261 net.cpp:150] Setting up rnn1_h_conted_5
I0330 13:43:29.236536 37261 net.cpp:157] Top shape: 1 1 30 (30)
I0330 13:43:29.236542 37261 net.cpp:165] Memory required for data: 221616
I0330 13:43:29.236549 37261 layer_factory.hpp:77] Creating layer rnn1_W_hh_h_5
I0330 13:43:29.236563 37261 net.cpp:100] Creating Layer rnn1_W_hh_h_5
I0330 13:43:29.236572 37261 net.cpp:434] rnn1_W_hh_h_5 <- h_conted_5
I0330 13:43:29.236586 37261 net.cpp:408] rnn1_W_hh_h_5 -> W_hh_h_5
I0330 13:43:29.236671 37261 net.cpp:150] Setting up rnn1_W_hh_h_5
I0330 13:43:29.236680 37261 net.cpp:157] Top shape: 1 1 30 (30)
I0330 13:43:29.236686 37261 net.cpp:165] Memory required for data: 221736
I0330 13:43:29.236696 37261 net.cpp:493] Sharing parameters 'W_hh' owned by layer 'rnn1_W_hh_h_0', param index 0
I0330 13:43:29.236702 37261 layer_factory.hpp:77] Creating layer rnn1_h_input_sum_6
I0330 13:43:29.236716 37261 net.cpp:100] Creating Layer rnn1_h_input_sum_6
I0330 13:43:29.236724 37261 net.cpp:434] rnn1_h_input_sum_6 <- W_hh_h_5
I0330 13:43:29.236737 37261 net.cpp:434] rnn1_h_input_sum_6 <- W_xh_x_6
I0330 13:43:29.236748 37261 net.cpp:408] rnn1_h_input_sum_6 -> h_neuron_input_6
I0330 13:43:29.236778 37261 net.cpp:150] Setting up rnn1_h_input_sum_6
I0330 13:43:29.236785 37261 net.cpp:157] Top shape: 1 1 30 (30)
I0330 13:43:29.236791 37261 net.cpp:165] Memory required for data: 221856
I0330 13:43:29.236797 37261 layer_factory.hpp:77] Creating layer rnn1_h_neuron_6
I0330 13:43:29.236809 37261 net.cpp:100] Creating Layer rnn1_h_neuron_6
I0330 13:43:29.236817 37261 net.cpp:434] rnn1_h_neuron_6 <- h_neuron_input_6
I0330 13:43:29.236831 37261 net.cpp:408] rnn1_h_neuron_6 -> h_6
I0330 13:43:29.237413 37261 net.cpp:150] Setting up rnn1_h_neuron_6
I0330 13:43:29.237426 37261 net.cpp:157] Top shape: 1 1 30 (30)
I0330 13:43:29.237445 37261 net.cpp:165] Memory required for data: 221976
I0330 13:43:29.237452 37261 layer_factory.hpp:77] Creating layer h_6_rnn1_h_neuron_6_0_split
I0330 13:43:29.237468 37261 net.cpp:100] Creating Layer h_6_rnn1_h_neuron_6_0_split
I0330 13:43:29.237475 37261 net.cpp:434] h_6_rnn1_h_neuron_6_0_split <- h_6
I0330 13:43:29.237493 37261 net.cpp:408] h_6_rnn1_h_neuron_6_0_split -> h_6_rnn1_h_neuron_6_0_split_0
I0330 13:43:29.237511 37261 net.cpp:408] h_6_rnn1_h_neuron_6_0_split -> h_6_rnn1_h_neuron_6_0_split_1
I0330 13:43:29.237541 37261 net.cpp:150] Setting up h_6_rnn1_h_neuron_6_0_split
I0330 13:43:29.237550 37261 net.cpp:157] Top shape: 1 1 30 (30)
I0330 13:43:29.237556 37261 net.cpp:157] Top shape: 1 1 30 (30)
I0330 13:43:29.237563 37261 net.cpp:165] Memory required for data: 222216
I0330 13:43:29.237573 37261 layer_factory.hpp:77] Creating layer rnn1_W_ho_h_6
I0330 13:43:29.237589 37261 net.cpp:100] Creating Layer rnn1_W_ho_h_6
I0330 13:43:29.237597 37261 net.cpp:434] rnn1_W_ho_h_6 <- h_6_rnn1_h_neuron_6_0_split_0
I0330 13:43:29.237613 37261 net.cpp:408] rnn1_W_ho_h_6 -> W_ho_h_6
I0330 13:43:29.237725 37261 net.cpp:150] Setting up rnn1_W_ho_h_6
I0330 13:43:29.237733 37261 net.cpp:157] Top shape: 1 1 30 (30)
I0330 13:43:29.237740 37261 net.cpp:165] Memory required for data: 222336
I0330 13:43:29.237749 37261 net.cpp:493] Sharing parameters 'W_ho' owned by layer 'rnn1_W_ho_h_1', param index 0
I0330 13:43:29.237757 37261 net.cpp:493] Sharing parameters 'b_o' owned by layer 'rnn1_W_ho_h_1', param index 1
I0330 13:43:29.237763 37261 layer_factory.hpp:77] Creating layer rnn1_o_neuron_6
I0330 13:43:29.237777 37261 net.cpp:100] Creating Layer rnn1_o_neuron_6
I0330 13:43:29.237784 37261 net.cpp:434] rnn1_o_neuron_6 <- W_ho_h_6
I0330 13:43:29.237799 37261 net.cpp:408] rnn1_o_neuron_6 -> o_6
I0330 13:43:29.238258 37261 net.cpp:150] Setting up rnn1_o_neuron_6
I0330 13:43:29.238299 37261 net.cpp:157] Top shape: 1 1 30 (30)
I0330 13:43:29.238306 37261 net.cpp:165] Memory required for data: 222456
I0330 13:43:29.238314 37261 layer_factory.hpp:77] Creating layer rnn1_h_conted_6
I0330 13:43:29.238332 37261 net.cpp:100] Creating Layer rnn1_h_conted_6
I0330 13:43:29.238340 37261 net.cpp:434] rnn1_h_conted_6 <- h_6_rnn1_h_neuron_6_0_split_1
I0330 13:43:29.238368 37261 net.cpp:434] rnn1_h_conted_6 <- cont_7
I0330 13:43:29.238380 37261 net.cpp:408] rnn1_h_conted_6 -> h_conted_6
I0330 13:43:29.238430 37261 net.cpp:150] Setting up rnn1_h_conted_6
I0330 13:43:29.238438 37261 net.cpp:157] Top shape: 1 1 30 (30)
I0330 13:43:29.238445 37261 net.cpp:165] Memory required for data: 222576
I0330 13:43:29.238467 37261 layer_factory.hpp:77] Creating layer rnn1_W_hh_h_6
I0330 13:43:29.238482 37261 net.cpp:100] Creating Layer rnn1_W_hh_h_6
I0330 13:43:29.238489 37261 net.cpp:434] rnn1_W_hh_h_6 <- h_conted_6
I0330 13:43:29.238505 37261 net.cpp:408] rnn1_W_hh_h_6 -> W_hh_h_6
I0330 13:43:29.238590 37261 net.cpp:150] Setting up rnn1_W_hh_h_6
I0330 13:43:29.238598 37261 net.cpp:157] Top shape: 1 1 30 (30)
I0330 13:43:29.238605 37261 net.cpp:165] Memory required for data: 222696
I0330 13:43:29.238615 37261 net.cpp:493] Sharing parameters 'W_hh' owned by layer 'rnn1_W_hh_h_0', param index 0
I0330 13:43:29.238621 37261 layer_factory.hpp:77] Creating layer rnn1_h_input_sum_7
I0330 13:43:29.238636 37261 net.cpp:100] Creating Layer rnn1_h_input_sum_7
I0330 13:43:29.238642 37261 net.cpp:434] rnn1_h_input_sum_7 <- W_hh_h_6
I0330 13:43:29.238654 37261 net.cpp:434] rnn1_h_input_sum_7 <- W_xh_x_7
I0330 13:43:29.238667 37261 net.cpp:408] rnn1_h_input_sum_7 -> h_neuron_input_7
I0330 13:43:29.238694 37261 net.cpp:150] Setting up rnn1_h_input_sum_7
I0330 13:43:29.238703 37261 net.cpp:157] Top shape: 1 1 30 (30)
I0330 13:43:29.238708 37261 net.cpp:165] Memory required for data: 222816
I0330 13:43:29.238715 37261 layer_factory.hpp:77] Creating layer rnn1_h_neuron_7
I0330 13:43:29.238727 37261 net.cpp:100] Creating Layer rnn1_h_neuron_7
I0330 13:43:29.238734 37261 net.cpp:434] rnn1_h_neuron_7 <- h_neuron_input_7
I0330 13:43:29.238749 37261 net.cpp:408] rnn1_h_neuron_7 -> h_7
I0330 13:43:29.239089 37261 net.cpp:150] Setting up rnn1_h_neuron_7
I0330 13:43:29.239101 37261 net.cpp:157] Top shape: 1 1 30 (30)
I0330 13:43:29.239107 37261 net.cpp:165] Memory required for data: 222936
I0330 13:43:29.239114 37261 layer_factory.hpp:77] Creating layer h_7_rnn1_h_neuron_7_0_split
I0330 13:43:29.239130 37261 net.cpp:100] Creating Layer h_7_rnn1_h_neuron_7_0_split
I0330 13:43:29.239137 37261 net.cpp:434] h_7_rnn1_h_neuron_7_0_split <- h_7
I0330 13:43:29.239154 37261 net.cpp:408] h_7_rnn1_h_neuron_7_0_split -> h_7_rnn1_h_neuron_7_0_split_0
I0330 13:43:29.239173 37261 net.cpp:408] h_7_rnn1_h_neuron_7_0_split -> h_7_rnn1_h_neuron_7_0_split_1
I0330 13:43:29.239203 37261 net.cpp:150] Setting up h_7_rnn1_h_neuron_7_0_split
I0330 13:43:29.239217 37261 net.cpp:157] Top shape: 1 1 30 (30)
I0330 13:43:29.239224 37261 net.cpp:157] Top shape: 1 1 30 (30)
I0330 13:43:29.239228 37261 net.cpp:165] Memory required for data: 223176
I0330 13:43:29.239235 37261 layer_factory.hpp:77] Creating layer rnn1_W_ho_h_7
I0330 13:43:29.239250 37261 net.cpp:100] Creating Layer rnn1_W_ho_h_7
I0330 13:43:29.239259 37261 net.cpp:434] rnn1_W_ho_h_7 <- h_7_rnn1_h_neuron_7_0_split_0
I0330 13:43:29.239274 37261 net.cpp:408] rnn1_W_ho_h_7 -> W_ho_h_7
I0330 13:43:29.239382 37261 net.cpp:150] Setting up rnn1_W_ho_h_7
I0330 13:43:29.239392 37261 net.cpp:157] Top shape: 1 1 30 (30)
I0330 13:43:29.239398 37261 net.cpp:165] Memory required for data: 223296
I0330 13:43:29.239406 37261 net.cpp:493] Sharing parameters 'W_ho' owned by layer 'rnn1_W_ho_h_1', param index 0
I0330 13:43:29.239415 37261 net.cpp:493] Sharing parameters 'b_o' owned by layer 'rnn1_W_ho_h_1', param index 1
I0330 13:43:29.239421 37261 layer_factory.hpp:77] Creating layer rnn1_o_neuron_7
I0330 13:43:29.239434 37261 net.cpp:100] Creating Layer rnn1_o_neuron_7
I0330 13:43:29.239442 37261 net.cpp:434] rnn1_o_neuron_7 <- W_ho_h_7
I0330 13:43:29.239456 37261 net.cpp:408] rnn1_o_neuron_7 -> o_7
I0330 13:43:29.239729 37261 net.cpp:150] Setting up rnn1_o_neuron_7
I0330 13:43:29.239740 37261 net.cpp:157] Top shape: 1 1 30 (30)
I0330 13:43:29.239748 37261 net.cpp:165] Memory required for data: 223416
I0330 13:43:29.239754 37261 layer_factory.hpp:77] Creating layer rnn1_h_conted_7
I0330 13:43:29.239769 37261 net.cpp:100] Creating Layer rnn1_h_conted_7
I0330 13:43:29.239778 37261 net.cpp:434] rnn1_h_conted_7 <- h_7_rnn1_h_neuron_7_0_split_1
I0330 13:43:29.239791 37261 net.cpp:434] rnn1_h_conted_7 <- cont_8
I0330 13:43:29.239804 37261 net.cpp:408] rnn1_h_conted_7 -> h_conted_7
I0330 13:43:29.239848 37261 net.cpp:150] Setting up rnn1_h_conted_7
I0330 13:43:29.239857 37261 net.cpp:157] Top shape: 1 1 30 (30)
I0330 13:43:29.239863 37261 net.cpp:165] Memory required for data: 223536
I0330 13:43:29.239871 37261 layer_factory.hpp:77] Creating layer rnn1_W_hh_h_7
I0330 13:43:29.239884 37261 net.cpp:100] Creating Layer rnn1_W_hh_h_7
I0330 13:43:29.239892 37261 net.cpp:434] rnn1_W_hh_h_7 <- h_conted_7
I0330 13:43:29.239907 37261 net.cpp:408] rnn1_W_hh_h_7 -> W_hh_h_7
I0330 13:43:29.239995 37261 net.cpp:150] Setting up rnn1_W_hh_h_7
I0330 13:43:29.240003 37261 net.cpp:157] Top shape: 1 1 30 (30)
I0330 13:43:29.240010 37261 net.cpp:165] Memory required for data: 223656
I0330 13:43:29.240018 37261 net.cpp:493] Sharing parameters 'W_hh' owned by layer 'rnn1_W_hh_h_0', param index 0
I0330 13:43:29.240026 37261 layer_factory.hpp:77] Creating layer rnn1_h_input_sum_8
I0330 13:43:29.240041 37261 net.cpp:100] Creating Layer rnn1_h_input_sum_8
I0330 13:43:29.240047 37261 net.cpp:434] rnn1_h_input_sum_8 <- W_hh_h_7
I0330 13:43:29.240058 37261 net.cpp:434] rnn1_h_input_sum_8 <- W_xh_x_8
I0330 13:43:29.240072 37261 net.cpp:408] rnn1_h_input_sum_8 -> h_neuron_input_8
I0330 13:43:29.240099 37261 net.cpp:150] Setting up rnn1_h_input_sum_8
I0330 13:43:29.240108 37261 net.cpp:157] Top shape: 1 1 30 (30)
I0330 13:43:29.240113 37261 net.cpp:165] Memory required for data: 223776
I0330 13:43:29.240119 37261 layer_factory.hpp:77] Creating layer rnn1_h_neuron_8
I0330 13:43:29.240131 37261 net.cpp:100] Creating Layer rnn1_h_neuron_8
I0330 13:43:29.240139 37261 net.cpp:434] rnn1_h_neuron_8 <- h_neuron_input_8
I0330 13:43:29.240154 37261 net.cpp:408] rnn1_h_neuron_8 -> h_8
I0330 13:43:29.240494 37261 net.cpp:150] Setting up rnn1_h_neuron_8
I0330 13:43:29.240505 37261 net.cpp:157] Top shape: 1 1 30 (30)
I0330 13:43:29.240511 37261 net.cpp:165] Memory required for data: 223896
I0330 13:43:29.240518 37261 layer_factory.hpp:77] Creating layer h_8_rnn1_h_neuron_8_0_split
I0330 13:43:29.240533 37261 net.cpp:100] Creating Layer h_8_rnn1_h_neuron_8_0_split
I0330 13:43:29.240541 37261 net.cpp:434] h_8_rnn1_h_neuron_8_0_split <- h_8
I0330 13:43:29.240558 37261 net.cpp:408] h_8_rnn1_h_neuron_8_0_split -> h_8_rnn1_h_neuron_8_0_split_0
I0330 13:43:29.240579 37261 net.cpp:408] h_8_rnn1_h_neuron_8_0_split -> h_8_rnn1_h_neuron_8_0_split_1
I0330 13:43:29.240633 37261 net.cpp:150] Setting up h_8_rnn1_h_neuron_8_0_split
I0330 13:43:29.240643 37261 net.cpp:157] Top shape: 1 1 30 (30)
I0330 13:43:29.240664 37261 net.cpp:157] Top shape: 1 1 30 (30)
I0330 13:43:29.240669 37261 net.cpp:165] Memory required for data: 224136
I0330 13:43:29.240674 37261 layer_factory.hpp:77] Creating layer rnn1_W_ho_h_8
I0330 13:43:29.240691 37261 net.cpp:100] Creating Layer rnn1_W_ho_h_8
I0330 13:43:29.240700 37261 net.cpp:434] rnn1_W_ho_h_8 <- h_8_rnn1_h_neuron_8_0_split_0
I0330 13:43:29.240716 37261 net.cpp:408] rnn1_W_ho_h_8 -> W_ho_h_8
I0330 13:43:29.240836 37261 net.cpp:150] Setting up rnn1_W_ho_h_8
I0330 13:43:29.240845 37261 net.cpp:157] Top shape: 1 1 30 (30)
I0330 13:43:29.240851 37261 net.cpp:165] Memory required for data: 224256
I0330 13:43:29.240861 37261 net.cpp:493] Sharing parameters 'W_ho' owned by layer 'rnn1_W_ho_h_1', param index 0
I0330 13:43:29.240869 37261 net.cpp:493] Sharing parameters 'b_o' owned by layer 'rnn1_W_ho_h_1', param index 1
I0330 13:43:29.240875 37261 layer_factory.hpp:77] Creating layer rnn1_o_neuron_8
I0330 13:43:29.240888 37261 net.cpp:100] Creating Layer rnn1_o_neuron_8
I0330 13:43:29.240896 37261 net.cpp:434] rnn1_o_neuron_8 <- W_ho_h_8
I0330 13:43:29.240911 37261 net.cpp:408] rnn1_o_neuron_8 -> o_8
I0330 13:43:29.241339 37261 net.cpp:150] Setting up rnn1_o_neuron_8
I0330 13:43:29.241350 37261 net.cpp:157] Top shape: 1 1 30 (30)
I0330 13:43:29.241358 37261 net.cpp:165] Memory required for data: 224376
I0330 13:43:29.241364 37261 layer_factory.hpp:77] Creating layer rnn1_h_conted_8
I0330 13:43:29.241379 37261 net.cpp:100] Creating Layer rnn1_h_conted_8
I0330 13:43:29.241389 37261 net.cpp:434] rnn1_h_conted_8 <- h_8_rnn1_h_neuron_8_0_split_1
I0330 13:43:29.241401 37261 net.cpp:434] rnn1_h_conted_8 <- cont_9
I0330 13:43:29.241413 37261 net.cpp:408] rnn1_h_conted_8 -> h_conted_8
I0330 13:43:29.241459 37261 net.cpp:150] Setting up rnn1_h_conted_8
I0330 13:43:29.241468 37261 net.cpp:157] Top shape: 1 1 30 (30)
I0330 13:43:29.241474 37261 net.cpp:165] Memory required for data: 224496
I0330 13:43:29.241480 37261 layer_factory.hpp:77] Creating layer rnn1_W_hh_h_8
I0330 13:43:29.241495 37261 net.cpp:100] Creating Layer rnn1_W_hh_h_8
I0330 13:43:29.241503 37261 net.cpp:434] rnn1_W_hh_h_8 <- h_conted_8
I0330 13:43:29.241518 37261 net.cpp:408] rnn1_W_hh_h_8 -> W_hh_h_8
I0330 13:43:29.241629 37261 net.cpp:150] Setting up rnn1_W_hh_h_8
I0330 13:43:29.241657 37261 net.cpp:157] Top shape: 1 1 30 (30)
I0330 13:43:29.241663 37261 net.cpp:165] Memory required for data: 224616
I0330 13:43:29.241672 37261 net.cpp:493] Sharing parameters 'W_hh' owned by layer 'rnn1_W_hh_h_0', param index 0
I0330 13:43:29.241680 37261 layer_factory.hpp:77] Creating layer rnn1_h_input_sum_9
I0330 13:43:29.241694 37261 net.cpp:100] Creating Layer rnn1_h_input_sum_9
I0330 13:43:29.241701 37261 net.cpp:434] rnn1_h_input_sum_9 <- W_hh_h_8
I0330 13:43:29.241714 37261 net.cpp:434] rnn1_h_input_sum_9 <- W_xh_x_9
I0330 13:43:29.241726 37261 net.cpp:408] rnn1_h_input_sum_9 -> h_neuron_input_9
I0330 13:43:29.241755 37261 net.cpp:150] Setting up rnn1_h_input_sum_9
I0330 13:43:29.241762 37261 net.cpp:157] Top shape: 1 1 30 (30)
I0330 13:43:29.241768 37261 net.cpp:165] Memory required for data: 224736
I0330 13:43:29.241775 37261 layer_factory.hpp:77] Creating layer rnn1_h_neuron_9
I0330 13:43:29.241796 37261 net.cpp:100] Creating Layer rnn1_h_neuron_9
I0330 13:43:29.241803 37261 net.cpp:434] rnn1_h_neuron_9 <- h_neuron_input_9
I0330 13:43:29.241817 37261 net.cpp:408] rnn1_h_neuron_9 -> h_9
I0330 13:43:29.242208 37261 net.cpp:150] Setting up rnn1_h_neuron_9
I0330 13:43:29.242219 37261 net.cpp:157] Top shape: 1 1 30 (30)
I0330 13:43:29.242226 37261 net.cpp:165] Memory required for data: 224856
I0330 13:43:29.242235 37261 layer_factory.hpp:77] Creating layer h_9_rnn1_h_neuron_9_0_split
I0330 13:43:29.242250 37261 net.cpp:100] Creating Layer h_9_rnn1_h_neuron_9_0_split
I0330 13:43:29.242260 37261 net.cpp:434] h_9_rnn1_h_neuron_9_0_split <- h_9
I0330 13:43:29.242281 37261 net.cpp:408] h_9_rnn1_h_neuron_9_0_split -> h_9_rnn1_h_neuron_9_0_split_0
I0330 13:43:29.242300 37261 net.cpp:408] h_9_rnn1_h_neuron_9_0_split -> h_9_rnn1_h_neuron_9_0_split_1
I0330 13:43:29.242331 37261 net.cpp:150] Setting up h_9_rnn1_h_neuron_9_0_split
I0330 13:43:29.242338 37261 net.cpp:157] Top shape: 1 1 30 (30)
I0330 13:43:29.242345 37261 net.cpp:157] Top shape: 1 1 30 (30)
I0330 13:43:29.242350 37261 net.cpp:165] Memory required for data: 225096
I0330 13:43:29.242357 37261 layer_factory.hpp:77] Creating layer rnn1_W_ho_h_9
I0330 13:43:29.242372 37261 net.cpp:100] Creating Layer rnn1_W_ho_h_9
I0330 13:43:29.242379 37261 net.cpp:434] rnn1_W_ho_h_9 <- h_9_rnn1_h_neuron_9_0_split_0
I0330 13:43:29.242394 37261 net.cpp:408] rnn1_W_ho_h_9 -> W_ho_h_9
I0330 13:43:29.242501 37261 net.cpp:150] Setting up rnn1_W_ho_h_9
I0330 13:43:29.242511 37261 net.cpp:157] Top shape: 1 1 30 (30)
I0330 13:43:29.242517 37261 net.cpp:165] Memory required for data: 225216
I0330 13:43:29.242527 37261 net.cpp:493] Sharing parameters 'W_ho' owned by layer 'rnn1_W_ho_h_1', param index 0
I0330 13:43:29.242534 37261 net.cpp:493] Sharing parameters 'b_o' owned by layer 'rnn1_W_ho_h_1', param index 1
I0330 13:43:29.242542 37261 layer_factory.hpp:77] Creating layer rnn1_o_neuron_9
I0330 13:43:29.242554 37261 net.cpp:100] Creating Layer rnn1_o_neuron_9
I0330 13:43:29.242561 37261 net.cpp:434] rnn1_o_neuron_9 <- W_ho_h_9
I0330 13:43:29.242576 37261 net.cpp:408] rnn1_o_neuron_9 -> o_9
I0330 13:43:29.242848 37261 net.cpp:150] Setting up rnn1_o_neuron_9
I0330 13:43:29.242859 37261 net.cpp:157] Top shape: 1 1 30 (30)
I0330 13:43:29.242866 37261 net.cpp:165] Memory required for data: 225336
I0330 13:43:29.242873 37261 layer_factory.hpp:77] Creating layer rnn1_h_conted_9
I0330 13:43:29.242888 37261 net.cpp:100] Creating Layer rnn1_h_conted_9
I0330 13:43:29.242897 37261 net.cpp:434] rnn1_h_conted_9 <- h_9_rnn1_h_neuron_9_0_split_1
I0330 13:43:29.242909 37261 net.cpp:434] rnn1_h_conted_9 <- cont_10
I0330 13:43:29.242921 37261 net.cpp:408] rnn1_h_conted_9 -> h_conted_9
I0330 13:43:29.242966 37261 net.cpp:150] Setting up rnn1_h_conted_9
I0330 13:43:29.242974 37261 net.cpp:157] Top shape: 1 1 30 (30)
I0330 13:43:29.242980 37261 net.cpp:165] Memory required for data: 225456
I0330 13:43:29.242987 37261 layer_factory.hpp:77] Creating layer rnn1_W_hh_h_9
I0330 13:43:29.243002 37261 net.cpp:100] Creating Layer rnn1_W_hh_h_9
I0330 13:43:29.243010 37261 net.cpp:434] rnn1_W_hh_h_9 <- h_conted_9
I0330 13:43:29.243026 37261 net.cpp:408] rnn1_W_hh_h_9 -> W_hh_h_9
I0330 13:43:29.243111 37261 net.cpp:150] Setting up rnn1_W_hh_h_9
I0330 13:43:29.243120 37261 net.cpp:157] Top shape: 1 1 30 (30)
I0330 13:43:29.243126 37261 net.cpp:165] Memory required for data: 225576
I0330 13:43:29.243135 37261 net.cpp:493] Sharing parameters 'W_hh' owned by layer 'rnn1_W_hh_h_0', param index 0
I0330 13:43:29.243142 37261 layer_factory.hpp:77] Creating layer rnn1_h_input_sum_10
I0330 13:43:29.243156 37261 net.cpp:100] Creating Layer rnn1_h_input_sum_10
I0330 13:43:29.243163 37261 net.cpp:434] rnn1_h_input_sum_10 <- W_hh_h_9
I0330 13:43:29.243175 37261 net.cpp:434] rnn1_h_input_sum_10 <- W_xh_x_10
I0330 13:43:29.243187 37261 net.cpp:408] rnn1_h_input_sum_10 -> h_neuron_input_10
I0330 13:43:29.243216 37261 net.cpp:150] Setting up rnn1_h_input_sum_10
I0330 13:43:29.243223 37261 net.cpp:157] Top shape: 1 1 30 (30)
I0330 13:43:29.243229 37261 net.cpp:165] Memory required for data: 225696
I0330 13:43:29.243235 37261 layer_factory.hpp:77] Creating layer rnn1_h_neuron_10
I0330 13:43:29.243248 37261 net.cpp:100] Creating Layer rnn1_h_neuron_10
I0330 13:43:29.243255 37261 net.cpp:434] rnn1_h_neuron_10 <- h_neuron_input_10
I0330 13:43:29.243270 37261 net.cpp:408] rnn1_h_neuron_10 -> h_10
I0330 13:43:29.243620 37261 net.cpp:150] Setting up rnn1_h_neuron_10
I0330 13:43:29.243631 37261 net.cpp:157] Top shape: 1 1 30 (30)
I0330 13:43:29.243638 37261 net.cpp:165] Memory required for data: 225816
I0330 13:43:29.243649 37261 layer_factory.hpp:77] Creating layer h_10_rnn1_h_neuron_10_0_split
I0330 13:43:29.243667 37261 net.cpp:100] Creating Layer h_10_rnn1_h_neuron_10_0_split
I0330 13:43:29.243676 37261 net.cpp:434] h_10_rnn1_h_neuron_10_0_split <- h_10
I0330 13:43:29.243692 37261 net.cpp:408] h_10_rnn1_h_neuron_10_0_split -> h_10_rnn1_h_neuron_10_0_split_0
I0330 13:43:29.243711 37261 net.cpp:408] h_10_rnn1_h_neuron_10_0_split -> h_10_rnn1_h_neuron_10_0_split_1
I0330 13:43:29.243741 37261 net.cpp:150] Setting up h_10_rnn1_h_neuron_10_0_split
I0330 13:43:29.243749 37261 net.cpp:157] Top shape: 1 1 30 (30)
I0330 13:43:29.243755 37261 net.cpp:157] Top shape: 1 1 30 (30)
I0330 13:43:29.243760 37261 net.cpp:165] Memory required for data: 226056
I0330 13:43:29.243767 37261 layer_factory.hpp:77] Creating layer rnn1_W_ho_h_10
I0330 13:43:29.243782 37261 net.cpp:100] Creating Layer rnn1_W_ho_h_10
I0330 13:43:29.243789 37261 net.cpp:434] rnn1_W_ho_h_10 <- h_10_rnn1_h_neuron_10_0_split_0
I0330 13:43:29.243805 37261 net.cpp:408] rnn1_W_ho_h_10 -> W_ho_h_10
I0330 13:43:29.243912 37261 net.cpp:150] Setting up rnn1_W_ho_h_10
I0330 13:43:29.243921 37261 net.cpp:157] Top shape: 1 1 30 (30)
I0330 13:43:29.243927 37261 net.cpp:165] Memory required for data: 226176
I0330 13:43:29.243937 37261 net.cpp:493] Sharing parameters 'W_ho' owned by layer 'rnn1_W_ho_h_1', param index 0
I0330 13:43:29.243944 37261 net.cpp:493] Sharing parameters 'b_o' owned by layer 'rnn1_W_ho_h_1', param index 1
I0330 13:43:29.243952 37261 layer_factory.hpp:77] Creating layer rnn1_o_neuron_10
I0330 13:43:29.243964 37261 net.cpp:100] Creating Layer rnn1_o_neuron_10
I0330 13:43:29.243973 37261 net.cpp:434] rnn1_o_neuron_10 <- W_ho_h_10
I0330 13:43:29.243986 37261 net.cpp:408] rnn1_o_neuron_10 -> o_10
I0330 13:43:29.244329 37261 net.cpp:150] Setting up rnn1_o_neuron_10
I0330 13:43:29.244340 37261 net.cpp:157] Top shape: 1 1 30 (30)
I0330 13:43:29.244347 37261 net.cpp:165] Memory required for data: 226296
I0330 13:43:29.244354 37261 layer_factory.hpp:77] Creating layer rnn1_h_conted_10
I0330 13:43:29.244370 37261 net.cpp:100] Creating Layer rnn1_h_conted_10
I0330 13:43:29.244379 37261 net.cpp:434] rnn1_h_conted_10 <- h_10_rnn1_h_neuron_10_0_split_1
I0330 13:43:29.244391 37261 net.cpp:434] rnn1_h_conted_10 <- cont_11
I0330 13:43:29.244403 37261 net.cpp:408] rnn1_h_conted_10 -> h_conted_10
I0330 13:43:29.244449 37261 net.cpp:150] Setting up rnn1_h_conted_10
I0330 13:43:29.244457 37261 net.cpp:157] Top shape: 1 1 30 (30)
I0330 13:43:29.244463 37261 net.cpp:165] Memory required for data: 226416
I0330 13:43:29.244470 37261 layer_factory.hpp:77] Creating layer rnn1_W_hh_h_10
I0330 13:43:29.244484 37261 net.cpp:100] Creating Layer rnn1_W_hh_h_10
I0330 13:43:29.244493 37261 net.cpp:434] rnn1_W_hh_h_10 <- h_conted_10
I0330 13:43:29.244508 37261 net.cpp:408] rnn1_W_hh_h_10 -> W_hh_h_10
I0330 13:43:29.244591 37261 net.cpp:150] Setting up rnn1_W_hh_h_10
I0330 13:43:29.244601 37261 net.cpp:157] Top shape: 1 1 30 (30)
I0330 13:43:29.244606 37261 net.cpp:165] Memory required for data: 226536
I0330 13:43:29.244623 37261 net.cpp:493] Sharing parameters 'W_hh' owned by layer 'rnn1_W_hh_h_0', param index 0
I0330 13:43:29.244632 37261 layer_factory.hpp:77] Creating layer rnn1_h_input_sum_11
I0330 13:43:29.244645 37261 net.cpp:100] Creating Layer rnn1_h_input_sum_11
I0330 13:43:29.244653 37261 net.cpp:434] rnn1_h_input_sum_11 <- W_hh_h_10
I0330 13:43:29.244664 37261 net.cpp:434] rnn1_h_input_sum_11 <- W_xh_x_11
I0330 13:43:29.244676 37261 net.cpp:408] rnn1_h_input_sum_11 -> h_neuron_input_11
I0330 13:43:29.244705 37261 net.cpp:150] Setting up rnn1_h_input_sum_11
I0330 13:43:29.244714 37261 net.cpp:157] Top shape: 1 1 30 (30)
I0330 13:43:29.244719 37261 net.cpp:165] Memory required for data: 226656
I0330 13:43:29.244725 37261 layer_factory.hpp:77] Creating layer rnn1_h_neuron_11
I0330 13:43:29.244738 37261 net.cpp:100] Creating Layer rnn1_h_neuron_11
I0330 13:43:29.244745 37261 net.cpp:434] rnn1_h_neuron_11 <- h_neuron_input_11
I0330 13:43:29.244760 37261 net.cpp:408] rnn1_h_neuron_11 -> h_11
I0330 13:43:29.245362 37261 net.cpp:150] Setting up rnn1_h_neuron_11
I0330 13:43:29.245379 37261 net.cpp:157] Top shape: 1 1 30 (30)
I0330 13:43:29.245386 37261 net.cpp:165] Memory required for data: 226776
I0330 13:43:29.245394 37261 layer_factory.hpp:77] Creating layer h_11_rnn1_h_neuron_11_0_split
I0330 13:43:29.245409 37261 net.cpp:100] Creating Layer h_11_rnn1_h_neuron_11_0_split
I0330 13:43:29.245417 37261 net.cpp:434] h_11_rnn1_h_neuron_11_0_split <- h_11
I0330 13:43:29.245434 37261 net.cpp:408] h_11_rnn1_h_neuron_11_0_split -> h_11_rnn1_h_neuron_11_0_split_0
I0330 13:43:29.245452 37261 net.cpp:408] h_11_rnn1_h_neuron_11_0_split -> h_11_rnn1_h_neuron_11_0_split_1
I0330 13:43:29.245486 37261 net.cpp:150] Setting up h_11_rnn1_h_neuron_11_0_split
I0330 13:43:29.245493 37261 net.cpp:157] Top shape: 1 1 30 (30)
I0330 13:43:29.245499 37261 net.cpp:157] Top shape: 1 1 30 (30)
I0330 13:43:29.245504 37261 net.cpp:165] Memory required for data: 227016
I0330 13:43:29.245510 37261 layer_factory.hpp:77] Creating layer rnn1_W_ho_h_11
I0330 13:43:29.245528 37261 net.cpp:100] Creating Layer rnn1_W_ho_h_11
I0330 13:43:29.245537 37261 net.cpp:434] rnn1_W_ho_h_11 <- h_11_rnn1_h_neuron_11_0_split_0
I0330 13:43:29.245553 37261 net.cpp:408] rnn1_W_ho_h_11 -> W_ho_h_11
I0330 13:43:29.245664 37261 net.cpp:150] Setting up rnn1_W_ho_h_11
I0330 13:43:29.245674 37261 net.cpp:157] Top shape: 1 1 30 (30)
I0330 13:43:29.245680 37261 net.cpp:165] Memory required for data: 227136
I0330 13:43:29.245690 37261 net.cpp:493] Sharing parameters 'W_ho' owned by layer 'rnn1_W_ho_h_1', param index 0
I0330 13:43:29.245698 37261 net.cpp:493] Sharing parameters 'b_o' owned by layer 'rnn1_W_ho_h_1', param index 1
I0330 13:43:29.245704 37261 layer_factory.hpp:77] Creating layer rnn1_o_neuron_11
I0330 13:43:29.245718 37261 net.cpp:100] Creating Layer rnn1_o_neuron_11
I0330 13:43:29.245725 37261 net.cpp:434] rnn1_o_neuron_11 <- W_ho_h_11
I0330 13:43:29.245740 37261 net.cpp:408] rnn1_o_neuron_11 -> o_11
I0330 13:43:29.246052 37261 net.cpp:150] Setting up rnn1_o_neuron_11
I0330 13:43:29.246063 37261 net.cpp:157] Top shape: 1 1 30 (30)
I0330 13:43:29.246069 37261 net.cpp:165] Memory required for data: 227256
I0330 13:43:29.246078 37261 layer_factory.hpp:77] Creating layer rnn1_h_conted_11
I0330 13:43:29.246094 37261 net.cpp:100] Creating Layer rnn1_h_conted_11
I0330 13:43:29.246102 37261 net.cpp:434] rnn1_h_conted_11 <- h_11_rnn1_h_neuron_11_0_split_1
I0330 13:43:29.246115 37261 net.cpp:434] rnn1_h_conted_11 <- cont_12
I0330 13:43:29.246130 37261 net.cpp:408] rnn1_h_conted_11 -> h_conted_11
I0330 13:43:29.246179 37261 net.cpp:150] Setting up rnn1_h_conted_11
I0330 13:43:29.246188 37261 net.cpp:157] Top shape: 1 1 30 (30)
I0330 13:43:29.246194 37261 net.cpp:165] Memory required for data: 227376
I0330 13:43:29.246201 37261 layer_factory.hpp:77] Creating layer rnn1_W_hh_h_11
I0330 13:43:29.246217 37261 net.cpp:100] Creating Layer rnn1_W_hh_h_11
I0330 13:43:29.246225 37261 net.cpp:434] rnn1_W_hh_h_11 <- h_conted_11
I0330 13:43:29.246241 37261 net.cpp:408] rnn1_W_hh_h_11 -> W_hh_h_11
I0330 13:43:29.246331 37261 net.cpp:150] Setting up rnn1_W_hh_h_11
I0330 13:43:29.246340 37261 net.cpp:157] Top shape: 1 1 30 (30)
I0330 13:43:29.246346 37261 net.cpp:165] Memory required for data: 227496
I0330 13:43:29.246356 37261 net.cpp:493] Sharing parameters 'W_hh' owned by layer 'rnn1_W_hh_h_0', param index 0
I0330 13:43:29.246362 37261 layer_factory.hpp:77] Creating layer rnn1_h_input_sum_12
I0330 13:43:29.246376 37261 net.cpp:100] Creating Layer rnn1_h_input_sum_12
I0330 13:43:29.246384 37261 net.cpp:434] rnn1_h_input_sum_12 <- W_hh_h_11
I0330 13:43:29.246397 37261 net.cpp:434] rnn1_h_input_sum_12 <- W_xh_x_12
I0330 13:43:29.246410 37261 net.cpp:408] rnn1_h_input_sum_12 -> h_neuron_input_12
I0330 13:43:29.246440 37261 net.cpp:150] Setting up rnn1_h_input_sum_12
I0330 13:43:29.246448 37261 net.cpp:157] Top shape: 1 1 30 (30)
I0330 13:43:29.246454 37261 net.cpp:165] Memory required for data: 227616
I0330 13:43:29.246460 37261 layer_factory.hpp:77] Creating layer rnn1_h_neuron_12
I0330 13:43:29.246477 37261 net.cpp:100] Creating Layer rnn1_h_neuron_12
I0330 13:43:29.246488 37261 net.cpp:434] rnn1_h_neuron_12 <- h_neuron_input_12
I0330 13:43:29.246505 37261 net.cpp:408] rnn1_h_neuron_12 -> h_12
I0330 13:43:29.246965 37261 net.cpp:150] Setting up rnn1_h_neuron_12
I0330 13:43:29.246976 37261 net.cpp:157] Top shape: 1 1 30 (30)
I0330 13:43:29.246984 37261 net.cpp:165] Memory required for data: 227736
I0330 13:43:29.246990 37261 layer_factory.hpp:77] Creating layer h_12_rnn1_h_neuron_12_0_split
I0330 13:43:29.247006 37261 net.cpp:100] Creating Layer h_12_rnn1_h_neuron_12_0_split
I0330 13:43:29.247015 37261 net.cpp:434] h_12_rnn1_h_neuron_12_0_split <- h_12
I0330 13:43:29.247033 37261 net.cpp:408] h_12_rnn1_h_neuron_12_0_split -> h_12_rnn1_h_neuron_12_0_split_0
I0330 13:43:29.247052 37261 net.cpp:408] h_12_rnn1_h_neuron_12_0_split -> h_12_rnn1_h_neuron_12_0_split_1
I0330 13:43:29.247087 37261 net.cpp:150] Setting up h_12_rnn1_h_neuron_12_0_split
I0330 13:43:29.247094 37261 net.cpp:157] Top shape: 1 1 30 (30)
I0330 13:43:29.247102 37261 net.cpp:157] Top shape: 1 1 30 (30)
I0330 13:43:29.247105 37261 net.cpp:165] Memory required for data: 227976
I0330 13:43:29.247112 37261 layer_factory.hpp:77] Creating layer rnn1_W_ho_h_12
I0330 13:43:29.247128 37261 net.cpp:100] Creating Layer rnn1_W_ho_h_12
I0330 13:43:29.247135 37261 net.cpp:434] rnn1_W_ho_h_12 <- h_12_rnn1_h_neuron_12_0_split_0
I0330 13:43:29.247153 37261 net.cpp:408] rnn1_W_ho_h_12 -> W_ho_h_12
I0330 13:43:29.247269 37261 net.cpp:150] Setting up rnn1_W_ho_h_12
I0330 13:43:29.247279 37261 net.cpp:157] Top shape: 1 1 30 (30)
I0330 13:43:29.247285 37261 net.cpp:165] Memory required for data: 228096
I0330 13:43:29.247295 37261 net.cpp:493] Sharing parameters 'W_ho' owned by layer 'rnn1_W_ho_h_1', param index 0
I0330 13:43:29.247303 37261 net.cpp:493] Sharing parameters 'b_o' owned by layer 'rnn1_W_ho_h_1', param index 1
I0330 13:43:29.247309 37261 layer_factory.hpp:77] Creating layer rnn1_o_neuron_12
I0330 13:43:29.247323 37261 net.cpp:100] Creating Layer rnn1_o_neuron_12
I0330 13:43:29.247330 37261 net.cpp:434] rnn1_o_neuron_12 <- W_ho_h_12
I0330 13:43:29.247347 37261 net.cpp:408] rnn1_o_neuron_12 -> o_12
I0330 13:43:29.247736 37261 net.cpp:150] Setting up rnn1_o_neuron_12
I0330 13:43:29.247747 37261 net.cpp:157] Top shape: 1 1 30 (30)
I0330 13:43:29.247753 37261 net.cpp:165] Memory required for data: 228216
I0330 13:43:29.247761 37261 layer_factory.hpp:77] Creating layer rnn1_h_conted_12
I0330 13:43:29.247778 37261 net.cpp:100] Creating Layer rnn1_h_conted_12
I0330 13:43:29.247787 37261 net.cpp:434] rnn1_h_conted_12 <- h_12_rnn1_h_neuron_12_0_split_1
I0330 13:43:29.247799 37261 net.cpp:434] rnn1_h_conted_12 <- cont_13
I0330 13:43:29.247812 37261 net.cpp:408] rnn1_h_conted_12 -> h_conted_12
I0330 13:43:29.247864 37261 net.cpp:150] Setting up rnn1_h_conted_12
I0330 13:43:29.247872 37261 net.cpp:157] Top shape: 1 1 30 (30)
I0330 13:43:29.247879 37261 net.cpp:165] Memory required for data: 228336
I0330 13:43:29.247885 37261 layer_factory.hpp:77] Creating layer rnn1_W_hh_h_12
I0330 13:43:29.247900 37261 net.cpp:100] Creating Layer rnn1_W_hh_h_12
I0330 13:43:29.247907 37261 net.cpp:434] rnn1_W_hh_h_12 <- h_conted_12
I0330 13:43:29.247925 37261 net.cpp:408] rnn1_W_hh_h_12 -> W_hh_h_12
I0330 13:43:29.248016 37261 net.cpp:150] Setting up rnn1_W_hh_h_12
I0330 13:43:29.248025 37261 net.cpp:157] Top shape: 1 1 30 (30)
I0330 13:43:29.248031 37261 net.cpp:165] Memory required for data: 228456
I0330 13:43:29.248041 37261 net.cpp:493] Sharing parameters 'W_hh' owned by layer 'rnn1_W_hh_h_0', param index 0
I0330 13:43:29.248049 37261 layer_factory.hpp:77] Creating layer rnn1_h_input_sum_13
I0330 13:43:29.248062 37261 net.cpp:100] Creating Layer rnn1_h_input_sum_13
I0330 13:43:29.248070 37261 net.cpp:434] rnn1_h_input_sum_13 <- W_hh_h_12
I0330 13:43:29.248081 37261 net.cpp:434] rnn1_h_input_sum_13 <- W_xh_x_13
I0330 13:43:29.248093 37261 net.cpp:408] rnn1_h_input_sum_13 -> h_neuron_input_13
I0330 13:43:29.248124 37261 net.cpp:150] Setting up rnn1_h_input_sum_13
I0330 13:43:29.248133 37261 net.cpp:157] Top shape: 1 1 30 (30)
I0330 13:43:29.248143 37261 net.cpp:165] Memory required for data: 228576
I0330 13:43:29.248152 37261 layer_factory.hpp:77] Creating layer rnn1_h_neuron_13
I0330 13:43:29.248165 37261 net.cpp:100] Creating Layer rnn1_h_neuron_13
I0330 13:43:29.248173 37261 net.cpp:434] rnn1_h_neuron_13 <- h_neuron_input_13
I0330 13:43:29.248188 37261 net.cpp:408] rnn1_h_neuron_13 -> h_13
I0330 13:43:29.248582 37261 net.cpp:150] Setting up rnn1_h_neuron_13
I0330 13:43:29.248595 37261 net.cpp:157] Top shape: 1 1 30 (30)
I0330 13:43:29.248602 37261 net.cpp:165] Memory required for data: 228696
I0330 13:43:29.248610 37261 layer_factory.hpp:77] Creating layer h_13_rnn1_h_neuron_13_0_split
I0330 13:43:29.248625 37261 net.cpp:100] Creating Layer h_13_rnn1_h_neuron_13_0_split
I0330 13:43:29.248632 37261 net.cpp:434] h_13_rnn1_h_neuron_13_0_split <- h_13
I0330 13:43:29.248651 37261 net.cpp:408] h_13_rnn1_h_neuron_13_0_split -> h_13_rnn1_h_neuron_13_0_split_0
I0330 13:43:29.248670 37261 net.cpp:408] h_13_rnn1_h_neuron_13_0_split -> h_13_rnn1_h_neuron_13_0_split_1
I0330 13:43:29.248703 37261 net.cpp:150] Setting up h_13_rnn1_h_neuron_13_0_split
I0330 13:43:29.248713 37261 net.cpp:157] Top shape: 1 1 30 (30)
I0330 13:43:29.248718 37261 net.cpp:157] Top shape: 1 1 30 (30)
I0330 13:43:29.248723 37261 net.cpp:165] Memory required for data: 228936
I0330 13:43:29.248729 37261 layer_factory.hpp:77] Creating layer rnn1_W_ho_h_13
I0330 13:43:29.248745 37261 net.cpp:100] Creating Layer rnn1_W_ho_h_13
I0330 13:43:29.248754 37261 net.cpp:434] rnn1_W_ho_h_13 <- h_13_rnn1_h_neuron_13_0_split_0
I0330 13:43:29.248771 37261 net.cpp:408] rnn1_W_ho_h_13 -> W_ho_h_13
I0330 13:43:29.248888 37261 net.cpp:150] Setting up rnn1_W_ho_h_13
I0330 13:43:29.248898 37261 net.cpp:157] Top shape: 1 1 30 (30)
I0330 13:43:29.248903 37261 net.cpp:165] Memory required for data: 229056
I0330 13:43:29.248914 37261 net.cpp:493] Sharing parameters 'W_ho' owned by layer 'rnn1_W_ho_h_1', param index 0
I0330 13:43:29.248921 37261 net.cpp:493] Sharing parameters 'b_o' owned by layer 'rnn1_W_ho_h_1', param index 1
I0330 13:43:29.248927 37261 layer_factory.hpp:77] Creating layer rnn1_o_neuron_13
I0330 13:43:29.248941 37261 net.cpp:100] Creating Layer rnn1_o_neuron_13
I0330 13:43:29.248948 37261 net.cpp:434] rnn1_o_neuron_13 <- W_ho_h_13
I0330 13:43:29.248967 37261 net.cpp:408] rnn1_o_neuron_13 -> o_13
I0330 13:43:29.249277 37261 net.cpp:150] Setting up rnn1_o_neuron_13
I0330 13:43:29.249289 37261 net.cpp:157] Top shape: 1 1 30 (30)
I0330 13:43:29.249294 37261 net.cpp:165] Memory required for data: 229176
I0330 13:43:29.249301 37261 layer_factory.hpp:77] Creating layer rnn1_h_conted_13
I0330 13:43:29.249320 37261 net.cpp:100] Creating Layer rnn1_h_conted_13
I0330 13:43:29.249328 37261 net.cpp:434] rnn1_h_conted_13 <- h_13_rnn1_h_neuron_13_0_split_1
I0330 13:43:29.249341 37261 net.cpp:434] rnn1_h_conted_13 <- cont_14
I0330 13:43:29.249353 37261 net.cpp:408] rnn1_h_conted_13 -> h_conted_13
I0330 13:43:29.249442 37261 net.cpp:150] Setting up rnn1_h_conted_13
I0330 13:43:29.249451 37261 net.cpp:157] Top shape: 1 1 30 (30)
I0330 13:43:29.249457 37261 net.cpp:165] Memory required for data: 229296
I0330 13:43:29.249464 37261 layer_factory.hpp:77] Creating layer rnn1_W_hh_h_13
I0330 13:43:29.249480 37261 net.cpp:100] Creating Layer rnn1_W_hh_h_13
I0330 13:43:29.249488 37261 net.cpp:434] rnn1_W_hh_h_13 <- h_conted_13
I0330 13:43:29.249505 37261 net.cpp:408] rnn1_W_hh_h_13 -> W_hh_h_13
I0330 13:43:29.249598 37261 net.cpp:150] Setting up rnn1_W_hh_h_13
I0330 13:43:29.249606 37261 net.cpp:157] Top shape: 1 1 30 (30)
I0330 13:43:29.249612 37261 net.cpp:165] Memory required for data: 229416
I0330 13:43:29.249621 37261 net.cpp:493] Sharing parameters 'W_hh' owned by layer 'rnn1_W_hh_h_0', param index 0
I0330 13:43:29.249629 37261 layer_factory.hpp:77] Creating layer rnn1_h_input_sum_14
I0330 13:43:29.249644 37261 net.cpp:100] Creating Layer rnn1_h_input_sum_14
I0330 13:43:29.249652 37261 net.cpp:434] rnn1_h_input_sum_14 <- W_hh_h_13
I0330 13:43:29.249665 37261 net.cpp:434] rnn1_h_input_sum_14 <- W_xh_x_14
I0330 13:43:29.249682 37261 net.cpp:408] rnn1_h_input_sum_14 -> h_neuron_input_14
I0330 13:43:29.249714 37261 net.cpp:150] Setting up rnn1_h_input_sum_14
I0330 13:43:29.249723 37261 net.cpp:157] Top shape: 1 1 30 (30)
I0330 13:43:29.249729 37261 net.cpp:165] Memory required for data: 229536
I0330 13:43:29.249735 37261 layer_factory.hpp:77] Creating layer rnn1_h_neuron_14
I0330 13:43:29.249748 37261 net.cpp:100] Creating Layer rnn1_h_neuron_14
I0330 13:43:29.249755 37261 net.cpp:434] rnn1_h_neuron_14 <- h_neuron_input_14
I0330 13:43:29.249773 37261 net.cpp:408] rnn1_h_neuron_14 -> h_14
I0330 13:43:29.250159 37261 net.cpp:150] Setting up rnn1_h_neuron_14
I0330 13:43:29.250170 37261 net.cpp:157] Top shape: 1 1 30 (30)
I0330 13:43:29.250176 37261 net.cpp:165] Memory required for data: 229656
I0330 13:43:29.250183 37261 layer_factory.hpp:77] Creating layer h_14_rnn1_h_neuron_14_0_split
I0330 13:43:29.250200 37261 net.cpp:100] Creating Layer h_14_rnn1_h_neuron_14_0_split
I0330 13:43:29.250208 37261 net.cpp:434] h_14_rnn1_h_neuron_14_0_split <- h_14
I0330 13:43:29.250224 37261 net.cpp:408] h_14_rnn1_h_neuron_14_0_split -> h_14_rnn1_h_neuron_14_0_split_0
I0330 13:43:29.250243 37261 net.cpp:408] h_14_rnn1_h_neuron_14_0_split -> h_14_rnn1_h_neuron_14_0_split_1
I0330 13:43:29.250277 37261 net.cpp:150] Setting up h_14_rnn1_h_neuron_14_0_split
I0330 13:43:29.250285 37261 net.cpp:157] Top shape: 1 1 30 (30)
I0330 13:43:29.250293 37261 net.cpp:157] Top shape: 1 1 30 (30)
I0330 13:43:29.250296 37261 net.cpp:165] Memory required for data: 229896
I0330 13:43:29.250303 37261 layer_factory.hpp:77] Creating layer rnn1_W_ho_h_14
I0330 13:43:29.250321 37261 net.cpp:100] Creating Layer rnn1_W_ho_h_14
I0330 13:43:29.250329 37261 net.cpp:434] rnn1_W_ho_h_14 <- h_14_rnn1_h_neuron_14_0_split_0
I0330 13:43:29.250349 37261 net.cpp:408] rnn1_W_ho_h_14 -> W_ho_h_14
I0330 13:43:29.250466 37261 net.cpp:150] Setting up rnn1_W_ho_h_14
I0330 13:43:29.250476 37261 net.cpp:157] Top shape: 1 1 30 (30)
I0330 13:43:29.250483 37261 net.cpp:165] Memory required for data: 230016
I0330 13:43:29.250491 37261 net.cpp:493] Sharing parameters 'W_ho' owned by layer 'rnn1_W_ho_h_1', param index 0
I0330 13:43:29.250500 37261 net.cpp:493] Sharing parameters 'b_o' owned by layer 'rnn1_W_ho_h_1', param index 1
I0330 13:43:29.250506 37261 layer_factory.hpp:77] Creating layer rnn1_o_neuron_14
I0330 13:43:29.250521 37261 net.cpp:100] Creating Layer rnn1_o_neuron_14
I0330 13:43:29.250530 37261 net.cpp:434] rnn1_o_neuron_14 <- W_ho_h_14
I0330 13:43:29.250545 37261 net.cpp:408] rnn1_o_neuron_14 -> o_14
I0330 13:43:29.250931 37261 net.cpp:150] Setting up rnn1_o_neuron_14
I0330 13:43:29.250941 37261 net.cpp:157] Top shape: 1 1 30 (30)
I0330 13:43:29.250948 37261 net.cpp:165] Memory required for data: 230136
I0330 13:43:29.250955 37261 layer_factory.hpp:77] Creating layer rnn1_h_conted_14
I0330 13:43:29.250970 37261 net.cpp:100] Creating Layer rnn1_h_conted_14
I0330 13:43:29.250979 37261 net.cpp:434] rnn1_h_conted_14 <- h_14_rnn1_h_neuron_14_0_split_1
I0330 13:43:29.250993 37261 net.cpp:434] rnn1_h_conted_14 <- cont_15
I0330 13:43:29.251008 37261 net.cpp:408] rnn1_h_conted_14 -> h_conted_14
I0330 13:43:29.251060 37261 net.cpp:150] Setting up rnn1_h_conted_14
I0330 13:43:29.251068 37261 net.cpp:157] Top shape: 1 1 30 (30)
I0330 13:43:29.251075 37261 net.cpp:165] Memory required for data: 230256
I0330 13:43:29.251080 37261 layer_factory.hpp:77] Creating layer rnn1_W_hh_h_14
I0330 13:43:29.251097 37261 net.cpp:100] Creating Layer rnn1_W_hh_h_14
I0330 13:43:29.251106 37261 net.cpp:434] rnn1_W_hh_h_14 <- h_conted_14
I0330 13:43:29.251121 37261 net.cpp:408] rnn1_W_hh_h_14 -> W_hh_h_14
I0330 13:43:29.251211 37261 net.cpp:150] Setting up rnn1_W_hh_h_14
I0330 13:43:29.251220 37261 net.cpp:157] Top shape: 1 1 30 (30)
I0330 13:43:29.251227 37261 net.cpp:165] Memory required for data: 230376
I0330 13:43:29.251236 37261 net.cpp:493] Sharing parameters 'W_hh' owned by layer 'rnn1_W_hh_h_0', param index 0
I0330 13:43:29.251243 37261 layer_factory.hpp:77] Creating layer rnn1_h_input_sum_15
I0330 13:43:29.251260 37261 net.cpp:100] Creating Layer rnn1_h_input_sum_15
I0330 13:43:29.251271 37261 net.cpp:434] rnn1_h_input_sum_15 <- W_hh_h_14
I0330 13:43:29.251283 37261 net.cpp:434] rnn1_h_input_sum_15 <- W_xh_x_15
I0330 13:43:29.251297 37261 net.cpp:408] rnn1_h_input_sum_15 -> h_neuron_input_15
I0330 13:43:29.251328 37261 net.cpp:150] Setting up rnn1_h_input_sum_15
I0330 13:43:29.251338 37261 net.cpp:157] Top shape: 1 1 30 (30)
I0330 13:43:29.251343 37261 net.cpp:165] Memory required for data: 230496
I0330 13:43:29.251349 37261 layer_factory.hpp:77] Creating layer rnn1_h_neuron_15
I0330 13:43:29.251363 37261 net.cpp:100] Creating Layer rnn1_h_neuron_15
I0330 13:43:29.251370 37261 net.cpp:434] rnn1_h_neuron_15 <- h_neuron_input_15
I0330 13:43:29.251384 37261 net.cpp:408] rnn1_h_neuron_15 -> h_15
I0330 13:43:29.251816 37261 net.cpp:150] Setting up rnn1_h_neuron_15
I0330 13:43:29.251829 37261 net.cpp:157] Top shape: 1 1 30 (30)
I0330 13:43:29.251837 37261 net.cpp:165] Memory required for data: 230616
I0330 13:43:29.251844 37261 layer_factory.hpp:77] Creating layer h_15_rnn1_h_neuron_15_0_split
I0330 13:43:29.251860 37261 net.cpp:100] Creating Layer h_15_rnn1_h_neuron_15_0_split
I0330 13:43:29.251868 37261 net.cpp:434] h_15_rnn1_h_neuron_15_0_split <- h_15
I0330 13:43:29.251885 37261 net.cpp:408] h_15_rnn1_h_neuron_15_0_split -> h_15_rnn1_h_neuron_15_0_split_0
I0330 13:43:29.251904 37261 net.cpp:408] h_15_rnn1_h_neuron_15_0_split -> h_15_rnn1_h_neuron_15_0_split_1
I0330 13:43:29.251938 37261 net.cpp:150] Setting up h_15_rnn1_h_neuron_15_0_split
I0330 13:43:29.251947 37261 net.cpp:157] Top shape: 1 1 30 (30)
I0330 13:43:29.251953 37261 net.cpp:157] Top shape: 1 1 30 (30)
I0330 13:43:29.251958 37261 net.cpp:165] Memory required for data: 230856
I0330 13:43:29.251965 37261 layer_factory.hpp:77] Creating layer rnn1_W_ho_h_15
I0330 13:43:29.251981 37261 net.cpp:100] Creating Layer rnn1_W_ho_h_15
I0330 13:43:29.251989 37261 net.cpp:434] rnn1_W_ho_h_15 <- h_15_rnn1_h_neuron_15_0_split_0
I0330 13:43:29.252005 37261 net.cpp:408] rnn1_W_ho_h_15 -> W_ho_h_15
I0330 13:43:29.252121 37261 net.cpp:150] Setting up rnn1_W_ho_h_15
I0330 13:43:29.252131 37261 net.cpp:157] Top shape: 1 1 30 (30)
I0330 13:43:29.252137 37261 net.cpp:165] Memory required for data: 230976
I0330 13:43:29.252147 37261 net.cpp:493] Sharing parameters 'W_ho' owned by layer 'rnn1_W_ho_h_1', param index 0
I0330 13:43:29.252154 37261 net.cpp:493] Sharing parameters 'b_o' owned by layer 'rnn1_W_ho_h_1', param index 1
I0330 13:43:29.252161 37261 layer_factory.hpp:77] Creating layer rnn1_o_neuron_15
I0330 13:43:29.252177 37261 net.cpp:100] Creating Layer rnn1_o_neuron_15
I0330 13:43:29.252184 37261 net.cpp:434] rnn1_o_neuron_15 <- W_ho_h_15
I0330 13:43:29.252199 37261 net.cpp:408] rnn1_o_neuron_15 -> o_15
I0330 13:43:29.252578 37261 net.cpp:150] Setting up rnn1_o_neuron_15
I0330 13:43:29.252589 37261 net.cpp:157] Top shape: 1 1 30 (30)
I0330 13:43:29.252596 37261 net.cpp:165] Memory required for data: 231096
I0330 13:43:29.252604 37261 layer_factory.hpp:77] Creating layer rnn1_h_conted_15
I0330 13:43:29.252620 37261 net.cpp:100] Creating Layer rnn1_h_conted_15
I0330 13:43:29.252629 37261 net.cpp:434] rnn1_h_conted_15 <- h_15_rnn1_h_neuron_15_0_split_1
I0330 13:43:29.252642 37261 net.cpp:434] rnn1_h_conted_15 <- cont_16
I0330 13:43:29.252655 37261 net.cpp:408] rnn1_h_conted_15 -> h_conted_15
I0330 13:43:29.252707 37261 net.cpp:150] Setting up rnn1_h_conted_15
I0330 13:43:29.252715 37261 net.cpp:157] Top shape: 1 1 30 (30)
I0330 13:43:29.252722 37261 net.cpp:165] Memory required for data: 231216
I0330 13:43:29.252727 37261 layer_factory.hpp:77] Creating layer rnn1_W_hh_h_15
I0330 13:43:29.252743 37261 net.cpp:100] Creating Layer rnn1_W_hh_h_15
I0330 13:43:29.252750 37261 net.cpp:434] rnn1_W_hh_h_15 <- h_conted_15
I0330 13:43:29.252768 37261 net.cpp:408] rnn1_W_hh_h_15 -> W_hh_h_15
I0330 13:43:29.253234 37261 net.cpp:150] Setting up rnn1_W_hh_h_15
I0330 13:43:29.253259 37261 net.cpp:157] Top shape: 1 1 30 (30)
I0330 13:43:29.253266 37261 net.cpp:165] Memory required for data: 231336
I0330 13:43:29.253283 37261 net.cpp:493] Sharing parameters 'W_hh' owned by layer 'rnn1_W_hh_h_0', param index 0
I0330 13:43:29.253291 37261 layer_factory.hpp:77] Creating layer rnn1_h_input_sum_16
I0330 13:43:29.253309 37261 net.cpp:100] Creating Layer rnn1_h_input_sum_16
I0330 13:43:29.253330 37261 net.cpp:434] rnn1_h_input_sum_16 <- W_hh_h_15
I0330 13:43:29.253343 37261 net.cpp:434] rnn1_h_input_sum_16 <- W_xh_x_16
I0330 13:43:29.253355 37261 net.cpp:408] rnn1_h_input_sum_16 -> h_neuron_input_16
I0330 13:43:29.253389 37261 net.cpp:150] Setting up rnn1_h_input_sum_16
I0330 13:43:29.253397 37261 net.cpp:157] Top shape: 1 1 30 (30)
I0330 13:43:29.253404 37261 net.cpp:165] Memory required for data: 231456
I0330 13:43:29.253410 37261 layer_factory.hpp:77] Creating layer rnn1_h_neuron_16
I0330 13:43:29.253423 37261 net.cpp:100] Creating Layer rnn1_h_neuron_16
I0330 13:43:29.253432 37261 net.cpp:434] rnn1_h_neuron_16 <- h_neuron_input_16
I0330 13:43:29.253445 37261 net.cpp:408] rnn1_h_neuron_16 -> h_16
I0330 13:43:29.253844 37261 net.cpp:150] Setting up rnn1_h_neuron_16
I0330 13:43:29.253854 37261 net.cpp:157] Top shape: 1 1 30 (30)
I0330 13:43:29.253861 37261 net.cpp:165] Memory required for data: 231576
I0330 13:43:29.253868 37261 layer_factory.hpp:77] Creating layer h_16_rnn1_h_neuron_16_0_split
I0330 13:43:29.253885 37261 net.cpp:100] Creating Layer h_16_rnn1_h_neuron_16_0_split
I0330 13:43:29.253893 37261 net.cpp:434] h_16_rnn1_h_neuron_16_0_split <- h_16
I0330 13:43:29.253909 37261 net.cpp:408] h_16_rnn1_h_neuron_16_0_split -> h_16_rnn1_h_neuron_16_0_split_0
I0330 13:43:29.253962 37261 net.cpp:408] h_16_rnn1_h_neuron_16_0_split -> h_16_rnn1_h_neuron_16_0_split_1
I0330 13:43:29.253995 37261 net.cpp:150] Setting up h_16_rnn1_h_neuron_16_0_split
I0330 13:43:29.254004 37261 net.cpp:157] Top shape: 1 1 30 (30)
I0330 13:43:29.254011 37261 net.cpp:157] Top shape: 1 1 30 (30)
I0330 13:43:29.254016 37261 net.cpp:165] Memory required for data: 231816
I0330 13:43:29.254022 37261 layer_factory.hpp:77] Creating layer rnn1_W_ho_h_16
I0330 13:43:29.254037 37261 net.cpp:100] Creating Layer rnn1_W_ho_h_16
I0330 13:43:29.254045 37261 net.cpp:434] rnn1_W_ho_h_16 <- h_16_rnn1_h_neuron_16_0_split_0
I0330 13:43:29.254061 37261 net.cpp:408] rnn1_W_ho_h_16 -> W_ho_h_16
I0330 13:43:29.254175 37261 net.cpp:150] Setting up rnn1_W_ho_h_16
I0330 13:43:29.254184 37261 net.cpp:157] Top shape: 1 1 30 (30)
I0330 13:43:29.254190 37261 net.cpp:165] Memory required for data: 231936
I0330 13:43:29.254200 37261 net.cpp:493] Sharing parameters 'W_ho' owned by layer 'rnn1_W_ho_h_1', param index 0
I0330 13:43:29.254209 37261 net.cpp:493] Sharing parameters 'b_o' owned by layer 'rnn1_W_ho_h_1', param index 1
I0330 13:43:29.254215 37261 layer_factory.hpp:77] Creating layer rnn1_o_neuron_16
I0330 13:43:29.254230 37261 net.cpp:100] Creating Layer rnn1_o_neuron_16
I0330 13:43:29.254238 37261 net.cpp:434] rnn1_o_neuron_16 <- W_ho_h_16
I0330 13:43:29.254253 37261 net.cpp:408] rnn1_o_neuron_16 -> o_16
I0330 13:43:29.254905 37261 net.cpp:150] Setting up rnn1_o_neuron_16
I0330 13:43:29.254917 37261 net.cpp:157] Top shape: 1 1 30 (30)
I0330 13:43:29.254930 37261 net.cpp:165] Memory required for data: 232056
I0330 13:43:29.254938 37261 layer_factory.hpp:77] Creating layer rnn1_h_conted_16
I0330 13:43:29.254956 37261 net.cpp:100] Creating Layer rnn1_h_conted_16
I0330 13:43:29.254964 37261 net.cpp:434] rnn1_h_conted_16 <- h_16_rnn1_h_neuron_16_0_split_1
I0330 13:43:29.254977 37261 net.cpp:434] rnn1_h_conted_16 <- cont_17
I0330 13:43:29.254990 37261 net.cpp:408] rnn1_h_conted_16 -> h_conted_16
I0330 13:43:29.255043 37261 net.cpp:150] Setting up rnn1_h_conted_16
I0330 13:43:29.255051 37261 net.cpp:157] Top shape: 1 1 30 (30)
I0330 13:43:29.255057 37261 net.cpp:165] Memory required for data: 232176
I0330 13:43:29.255064 37261 layer_factory.hpp:77] Creating layer rnn1_W_hh_h_16
I0330 13:43:29.255080 37261 net.cpp:100] Creating Layer rnn1_W_hh_h_16
I0330 13:43:29.255089 37261 net.cpp:434] rnn1_W_hh_h_16 <- h_conted_16
I0330 13:43:29.255107 37261 net.cpp:408] rnn1_W_hh_h_16 -> W_hh_h_16
I0330 13:43:29.255204 37261 net.cpp:150] Setting up rnn1_W_hh_h_16
I0330 13:43:29.255213 37261 net.cpp:157] Top shape: 1 1 30 (30)
I0330 13:43:29.255219 37261 net.cpp:165] Memory required for data: 232296
I0330 13:43:29.255229 37261 net.cpp:493] Sharing parameters 'W_hh' owned by layer 'rnn1_W_hh_h_0', param index 0
I0330 13:43:29.255236 37261 layer_factory.hpp:77] Creating layer rnn1_h_input_sum_17
I0330 13:43:29.255251 37261 net.cpp:100] Creating Layer rnn1_h_input_sum_17
I0330 13:43:29.255259 37261 net.cpp:434] rnn1_h_input_sum_17 <- W_hh_h_16
I0330 13:43:29.255271 37261 net.cpp:434] rnn1_h_input_sum_17 <- W_xh_x_17
I0330 13:43:29.255283 37261 net.cpp:408] rnn1_h_input_sum_17 -> h_neuron_input_17
I0330 13:43:29.255317 37261 net.cpp:150] Setting up rnn1_h_input_sum_17
I0330 13:43:29.255326 37261 net.cpp:157] Top shape: 1 1 30 (30)
I0330 13:43:29.255331 37261 net.cpp:165] Memory required for data: 232416
I0330 13:43:29.255338 37261 layer_factory.hpp:77] Creating layer rnn1_h_neuron_17
I0330 13:43:29.255352 37261 net.cpp:100] Creating Layer rnn1_h_neuron_17
I0330 13:43:29.255358 37261 net.cpp:434] rnn1_h_neuron_17 <- h_neuron_input_17
I0330 13:43:29.255375 37261 net.cpp:408] rnn1_h_neuron_17 -> h_17
I0330 13:43:29.255769 37261 net.cpp:150] Setting up rnn1_h_neuron_17
I0330 13:43:29.255779 37261 net.cpp:157] Top shape: 1 1 30 (30)
I0330 13:43:29.255785 37261 net.cpp:165] Memory required for data: 232536
I0330 13:43:29.255792 37261 layer_factory.hpp:77] Creating layer h_17_rnn1_h_neuron_17_0_split
I0330 13:43:29.255808 37261 net.cpp:100] Creating Layer h_17_rnn1_h_neuron_17_0_split
I0330 13:43:29.255817 37261 net.cpp:434] h_17_rnn1_h_neuron_17_0_split <- h_17
I0330 13:43:29.255833 37261 net.cpp:408] h_17_rnn1_h_neuron_17_0_split -> h_17_rnn1_h_neuron_17_0_split_0
I0330 13:43:29.255852 37261 net.cpp:408] h_17_rnn1_h_neuron_17_0_split -> h_17_rnn1_h_neuron_17_0_split_1
I0330 13:43:29.255887 37261 net.cpp:150] Setting up h_17_rnn1_h_neuron_17_0_split
I0330 13:43:29.255894 37261 net.cpp:157] Top shape: 1 1 30 (30)
I0330 13:43:29.255901 37261 net.cpp:157] Top shape: 1 1 30 (30)
I0330 13:43:29.255905 37261 net.cpp:165] Memory required for data: 232776
I0330 13:43:29.255913 37261 layer_factory.hpp:77] Creating layer rnn1_W_ho_h_17
I0330 13:43:29.255929 37261 net.cpp:100] Creating Layer rnn1_W_ho_h_17
I0330 13:43:29.255936 37261 net.cpp:434] rnn1_W_ho_h_17 <- h_17_rnn1_h_neuron_17_0_split_0
I0330 13:43:29.255954 37261 net.cpp:408] rnn1_W_ho_h_17 -> W_ho_h_17
I0330 13:43:29.256068 37261 net.cpp:150] Setting up rnn1_W_ho_h_17
I0330 13:43:29.256078 37261 net.cpp:157] Top shape: 1 1 30 (30)
I0330 13:43:29.256084 37261 net.cpp:165] Memory required for data: 232896
I0330 13:43:29.256094 37261 net.cpp:493] Sharing parameters 'W_ho' owned by layer 'rnn1_W_ho_h_1', param index 0
I0330 13:43:29.256103 37261 net.cpp:493] Sharing parameters 'b_o' owned by layer 'rnn1_W_ho_h_1', param index 1
I0330 13:43:29.256108 37261 layer_factory.hpp:77] Creating layer rnn1_o_neuron_17
I0330 13:43:29.256124 37261 net.cpp:100] Creating Layer rnn1_o_neuron_17
I0330 13:43:29.256131 37261 net.cpp:434] rnn1_o_neuron_17 <- W_ho_h_17
I0330 13:43:29.256147 37261 net.cpp:408] rnn1_o_neuron_17 -> o_17
I0330 13:43:29.256458 37261 net.cpp:150] Setting up rnn1_o_neuron_17
I0330 13:43:29.256469 37261 net.cpp:157] Top shape: 1 1 30 (30)
I0330 13:43:29.256474 37261 net.cpp:165] Memory required for data: 233016
I0330 13:43:29.256482 37261 layer_factory.hpp:77] Creating layer rnn1_h_conted_17
I0330 13:43:29.256500 37261 net.cpp:100] Creating Layer rnn1_h_conted_17
I0330 13:43:29.256508 37261 net.cpp:434] rnn1_h_conted_17 <- h_17_rnn1_h_neuron_17_0_split_1
I0330 13:43:29.256520 37261 net.cpp:434] rnn1_h_conted_17 <- cont_18
I0330 13:43:29.256532 37261 net.cpp:408] rnn1_h_conted_17 -> h_conted_17
I0330 13:43:29.256584 37261 net.cpp:150] Setting up rnn1_h_conted_17
I0330 13:43:29.256592 37261 net.cpp:157] Top shape: 1 1 30 (30)
I0330 13:43:29.256599 37261 net.cpp:165] Memory required for data: 233136
I0330 13:43:29.256605 37261 layer_factory.hpp:77] Creating layer rnn1_W_hh_h_17
I0330 13:43:29.256628 37261 net.cpp:100] Creating Layer rnn1_W_hh_h_17
I0330 13:43:29.256635 37261 net.cpp:434] rnn1_W_hh_h_17 <- h_conted_17
I0330 13:43:29.256651 37261 net.cpp:408] rnn1_W_hh_h_17 -> W_hh_h_17
I0330 13:43:29.256747 37261 net.cpp:150] Setting up rnn1_W_hh_h_17
I0330 13:43:29.256774 37261 net.cpp:157] Top shape: 1 1 30 (30)
I0330 13:43:29.256780 37261 net.cpp:165] Memory required for data: 233256
I0330 13:43:29.256790 37261 net.cpp:493] Sharing parameters 'W_hh' owned by layer 'rnn1_W_hh_h_0', param index 0
I0330 13:43:29.256811 37261 layer_factory.hpp:77] Creating layer rnn1_h_input_sum_18
I0330 13:43:29.256826 37261 net.cpp:100] Creating Layer rnn1_h_input_sum_18
I0330 13:43:29.256834 37261 net.cpp:434] rnn1_h_input_sum_18 <- W_hh_h_17
I0330 13:43:29.256846 37261 net.cpp:434] rnn1_h_input_sum_18 <- W_xh_x_18
I0330 13:43:29.256860 37261 net.cpp:408] rnn1_h_input_sum_18 -> h_neuron_input_18
I0330 13:43:29.256906 37261 net.cpp:150] Setting up rnn1_h_input_sum_18
I0330 13:43:29.256913 37261 net.cpp:157] Top shape: 1 1 30 (30)
I0330 13:43:29.256919 37261 net.cpp:165] Memory required for data: 233376
I0330 13:43:29.256927 37261 layer_factory.hpp:77] Creating layer rnn1_h_neuron_18
I0330 13:43:29.256939 37261 net.cpp:100] Creating Layer rnn1_h_neuron_18
I0330 13:43:29.256947 37261 net.cpp:434] rnn1_h_neuron_18 <- h_neuron_input_18
I0330 13:43:29.256961 37261 net.cpp:408] rnn1_h_neuron_18 -> h_18
I0330 13:43:29.257400 37261 net.cpp:150] Setting up rnn1_h_neuron_18
I0330 13:43:29.257411 37261 net.cpp:157] Top shape: 1 1 30 (30)
I0330 13:43:29.257418 37261 net.cpp:165] Memory required for data: 233496
I0330 13:43:29.257426 37261 layer_factory.hpp:77] Creating layer h_18_rnn1_h_neuron_18_0_split
I0330 13:43:29.257458 37261 net.cpp:100] Creating Layer h_18_rnn1_h_neuron_18_0_split
I0330 13:43:29.257467 37261 net.cpp:434] h_18_rnn1_h_neuron_18_0_split <- h_18
I0330 13:43:29.257484 37261 net.cpp:408] h_18_rnn1_h_neuron_18_0_split -> h_18_rnn1_h_neuron_18_0_split_0
I0330 13:43:29.257503 37261 net.cpp:408] h_18_rnn1_h_neuron_18_0_split -> h_18_rnn1_h_neuron_18_0_split_1
I0330 13:43:29.257534 37261 net.cpp:150] Setting up h_18_rnn1_h_neuron_18_0_split
I0330 13:43:29.257542 37261 net.cpp:157] Top shape: 1 1 30 (30)
I0330 13:43:29.257548 37261 net.cpp:157] Top shape: 1 1 30 (30)
I0330 13:43:29.257553 37261 net.cpp:165] Memory required for data: 233736
I0330 13:43:29.257561 37261 layer_factory.hpp:77] Creating layer rnn1_W_ho_h_18
I0330 13:43:29.257580 37261 net.cpp:100] Creating Layer rnn1_W_ho_h_18
I0330 13:43:29.257587 37261 net.cpp:434] rnn1_W_ho_h_18 <- h_18_rnn1_h_neuron_18_0_split_0
I0330 13:43:29.257603 37261 net.cpp:408] rnn1_W_ho_h_18 -> W_ho_h_18
I0330 13:43:29.257717 37261 net.cpp:150] Setting up rnn1_W_ho_h_18
I0330 13:43:29.257727 37261 net.cpp:157] Top shape: 1 1 30 (30)
I0330 13:43:29.257733 37261 net.cpp:165] Memory required for data: 233856
I0330 13:43:29.257742 37261 net.cpp:493] Sharing parameters 'W_ho' owned by layer 'rnn1_W_ho_h_1', param index 0
I0330 13:43:29.257750 37261 net.cpp:493] Sharing parameters 'b_o' owned by layer 'rnn1_W_ho_h_1', param index 1
I0330 13:43:29.257757 37261 layer_factory.hpp:77] Creating layer rnn1_o_neuron_18
I0330 13:43:29.257771 37261 net.cpp:100] Creating Layer rnn1_o_neuron_18
I0330 13:43:29.257778 37261 net.cpp:434] rnn1_o_neuron_18 <- W_ho_h_18
I0330 13:43:29.257797 37261 net.cpp:408] rnn1_o_neuron_18 -> o_18
I0330 13:43:29.258283 37261 net.cpp:150] Setting up rnn1_o_neuron_18
I0330 13:43:29.258297 37261 net.cpp:157] Top shape: 1 1 30 (30)
I0330 13:43:29.258303 37261 net.cpp:165] Memory required for data: 233976
I0330 13:43:29.258311 37261 layer_factory.hpp:77] Creating layer rnn1_h_conted_18
I0330 13:43:29.258328 37261 net.cpp:100] Creating Layer rnn1_h_conted_18
I0330 13:43:29.258337 37261 net.cpp:434] rnn1_h_conted_18 <- h_18_rnn1_h_neuron_18_0_split_1
I0330 13:43:29.258350 37261 net.cpp:434] rnn1_h_conted_18 <- cont_19
I0330 13:43:29.258363 37261 net.cpp:408] rnn1_h_conted_18 -> h_conted_18
I0330 13:43:29.258420 37261 net.cpp:150] Setting up rnn1_h_conted_18
I0330 13:43:29.258432 37261 net.cpp:157] Top shape: 1 1 30 (30)
I0330 13:43:29.258440 37261 net.cpp:165] Memory required for data: 234096
I0330 13:43:29.258445 37261 layer_factory.hpp:77] Creating layer rnn1_W_hh_h_18
I0330 13:43:29.258462 37261 net.cpp:100] Creating Layer rnn1_W_hh_h_18
I0330 13:43:29.258471 37261 net.cpp:434] rnn1_W_hh_h_18 <- h_conted_18
I0330 13:43:29.258486 37261 net.cpp:408] rnn1_W_hh_h_18 -> W_hh_h_18
I0330 13:43:29.258579 37261 net.cpp:150] Setting up rnn1_W_hh_h_18
I0330 13:43:29.258589 37261 net.cpp:157] Top shape: 1 1 30 (30)
I0330 13:43:29.258595 37261 net.cpp:165] Memory required for data: 234216
I0330 13:43:29.258605 37261 net.cpp:493] Sharing parameters 'W_hh' owned by layer 'rnn1_W_hh_h_0', param index 0
I0330 13:43:29.258611 37261 layer_factory.hpp:77] Creating layer rnn1_h_input_sum_19
I0330 13:43:29.258625 37261 net.cpp:100] Creating Layer rnn1_h_input_sum_19
I0330 13:43:29.258633 37261 net.cpp:434] rnn1_h_input_sum_19 <- W_hh_h_18
I0330 13:43:29.258644 37261 net.cpp:434] rnn1_h_input_sum_19 <- W_xh_x_19
I0330 13:43:29.258658 37261 net.cpp:408] rnn1_h_input_sum_19 -> h_neuron_input_19
I0330 13:43:29.258688 37261 net.cpp:150] Setting up rnn1_h_input_sum_19
I0330 13:43:29.258697 37261 net.cpp:157] Top shape: 1 1 30 (30)
I0330 13:43:29.258702 37261 net.cpp:165] Memory required for data: 234336
I0330 13:43:29.258708 37261 layer_factory.hpp:77] Creating layer rnn1_h_neuron_19
I0330 13:43:29.258723 37261 net.cpp:100] Creating Layer rnn1_h_neuron_19
I0330 13:43:29.258730 37261 net.cpp:434] rnn1_h_neuron_19 <- h_neuron_input_19
I0330 13:43:29.258745 37261 net.cpp:408] rnn1_h_neuron_19 -> h_19
I0330 13:43:29.259140 37261 net.cpp:150] Setting up rnn1_h_neuron_19
I0330 13:43:29.259152 37261 net.cpp:157] Top shape: 1 1 30 (30)
I0330 13:43:29.259160 37261 net.cpp:165] Memory required for data: 234456
I0330 13:43:29.259166 37261 layer_factory.hpp:77] Creating layer h_19_rnn1_h_neuron_19_0_split
I0330 13:43:29.259181 37261 net.cpp:100] Creating Layer h_19_rnn1_h_neuron_19_0_split
I0330 13:43:29.259189 37261 net.cpp:434] h_19_rnn1_h_neuron_19_0_split <- h_19
I0330 13:43:29.259205 37261 net.cpp:408] h_19_rnn1_h_neuron_19_0_split -> h_19_rnn1_h_neuron_19_0_split_0
I0330 13:43:29.259227 37261 net.cpp:408] h_19_rnn1_h_neuron_19_0_split -> h_19_rnn1_h_neuron_19_0_split_1
I0330 13:43:29.259259 37261 net.cpp:150] Setting up h_19_rnn1_h_neuron_19_0_split
I0330 13:43:29.259268 37261 net.cpp:157] Top shape: 1 1 30 (30)
I0330 13:43:29.259274 37261 net.cpp:157] Top shape: 1 1 30 (30)
I0330 13:43:29.259279 37261 net.cpp:165] Memory required for data: 234696
I0330 13:43:29.259285 37261 layer_factory.hpp:77] Creating layer rnn1_W_ho_h_19
I0330 13:43:29.259305 37261 net.cpp:100] Creating Layer rnn1_W_ho_h_19
I0330 13:43:29.259312 37261 net.cpp:434] rnn1_W_ho_h_19 <- h_19_rnn1_h_neuron_19_0_split_0
I0330 13:43:29.259330 37261 net.cpp:408] rnn1_W_ho_h_19 -> W_ho_h_19
I0330 13:43:29.259446 37261 net.cpp:150] Setting up rnn1_W_ho_h_19
I0330 13:43:29.259456 37261 net.cpp:157] Top shape: 1 1 30 (30)
I0330 13:43:29.259462 37261 net.cpp:165] Memory required for data: 234816
I0330 13:43:29.259472 37261 net.cpp:493] Sharing parameters 'W_ho' owned by layer 'rnn1_W_ho_h_1', param index 0
I0330 13:43:29.259480 37261 net.cpp:493] Sharing parameters 'b_o' owned by layer 'rnn1_W_ho_h_1', param index 1
I0330 13:43:29.259486 37261 layer_factory.hpp:77] Creating layer rnn1_o_neuron_19
I0330 13:43:29.259500 37261 net.cpp:100] Creating Layer rnn1_o_neuron_19
I0330 13:43:29.259508 37261 net.cpp:434] rnn1_o_neuron_19 <- W_ho_h_19
I0330 13:43:29.259523 37261 net.cpp:408] rnn1_o_neuron_19 -> o_19
I0330 13:43:29.259905 37261 net.cpp:150] Setting up rnn1_o_neuron_19
I0330 13:43:29.259917 37261 net.cpp:157] Top shape: 1 1 30 (30)
I0330 13:43:29.259922 37261 net.cpp:165] Memory required for data: 234936
I0330 13:43:29.259930 37261 layer_factory.hpp:77] Creating layer rnn1_h_conted_19
I0330 13:43:29.259945 37261 net.cpp:100] Creating Layer rnn1_h_conted_19
I0330 13:43:29.259954 37261 net.cpp:434] rnn1_h_conted_19 <- h_19_rnn1_h_neuron_19_0_split_1
I0330 13:43:29.259972 37261 net.cpp:434] rnn1_h_conted_19 <- cont_20
I0330 13:43:29.259987 37261 net.cpp:408] rnn1_h_conted_19 -> h_conted_19
I0330 13:43:29.260040 37261 net.cpp:150] Setting up rnn1_h_conted_19
I0330 13:43:29.260049 37261 net.cpp:157] Top shape: 1 1 30 (30)
I0330 13:43:29.260056 37261 net.cpp:165] Memory required for data: 235056
I0330 13:43:29.260061 37261 layer_factory.hpp:77] Creating layer rnn1_W_hh_h_19
I0330 13:43:29.260078 37261 net.cpp:100] Creating Layer rnn1_W_hh_h_19
I0330 13:43:29.260087 37261 net.cpp:434] rnn1_W_hh_h_19 <- h_conted_19
I0330 13:43:29.260102 37261 net.cpp:408] rnn1_W_hh_h_19 -> W_hh_h_19
I0330 13:43:29.260195 37261 net.cpp:150] Setting up rnn1_W_hh_h_19
I0330 13:43:29.260205 37261 net.cpp:157] Top shape: 1 1 30 (30)
I0330 13:43:29.260210 37261 net.cpp:165] Memory required for data: 235176
I0330 13:43:29.260219 37261 net.cpp:493] Sharing parameters 'W_hh' owned by layer 'rnn1_W_hh_h_0', param index 0
I0330 13:43:29.260227 37261 layer_factory.hpp:77] Creating layer rnn1_h_input_sum_20
I0330 13:43:29.260241 37261 net.cpp:100] Creating Layer rnn1_h_input_sum_20
I0330 13:43:29.260248 37261 net.cpp:434] rnn1_h_input_sum_20 <- W_hh_h_19
I0330 13:43:29.260260 37261 net.cpp:434] rnn1_h_input_sum_20 <- W_xh_x_20
I0330 13:43:29.260274 37261 net.cpp:408] rnn1_h_input_sum_20 -> h_neuron_input_20
I0330 13:43:29.260305 37261 net.cpp:150] Setting up rnn1_h_input_sum_20
I0330 13:43:29.260313 37261 net.cpp:157] Top shape: 1 1 30 (30)
I0330 13:43:29.260319 37261 net.cpp:165] Memory required for data: 235296
I0330 13:43:29.260326 37261 layer_factory.hpp:77] Creating layer rnn1_h_neuron_20
I0330 13:43:29.260339 37261 net.cpp:100] Creating Layer rnn1_h_neuron_20
I0330 13:43:29.260346 37261 net.cpp:434] rnn1_h_neuron_20 <- h_neuron_input_20
I0330 13:43:29.260361 37261 net.cpp:408] rnn1_h_neuron_20 -> h_20
I0330 13:43:29.260752 37261 net.cpp:150] Setting up rnn1_h_neuron_20
I0330 13:43:29.260763 37261 net.cpp:157] Top shape: 1 1 30 (30)
I0330 13:43:29.260771 37261 net.cpp:165] Memory required for data: 235416
I0330 13:43:29.260777 37261 layer_factory.hpp:77] Creating layer h_20_rnn1_h_neuron_20_0_split
I0330 13:43:29.260792 37261 net.cpp:100] Creating Layer h_20_rnn1_h_neuron_20_0_split
I0330 13:43:29.260800 37261 net.cpp:434] h_20_rnn1_h_neuron_20_0_split <- h_20
I0330 13:43:29.260818 37261 net.cpp:408] h_20_rnn1_h_neuron_20_0_split -> h_20_rnn1_h_neuron_20_0_split_0
I0330 13:43:29.260838 37261 net.cpp:408] h_20_rnn1_h_neuron_20_0_split -> h_20_rnn1_h_neuron_20_0_split_1
I0330 13:43:29.260871 37261 net.cpp:150] Setting up h_20_rnn1_h_neuron_20_0_split
I0330 13:43:29.260879 37261 net.cpp:157] Top shape: 1 1 30 (30)
I0330 13:43:29.260886 37261 net.cpp:157] Top shape: 1 1 30 (30)
I0330 13:43:29.260891 37261 net.cpp:165] Memory required for data: 235656
I0330 13:43:29.260897 37261 layer_factory.hpp:77] Creating layer rnn1_W_ho_h_20
I0330 13:43:29.260915 37261 net.cpp:100] Creating Layer rnn1_W_ho_h_20
I0330 13:43:29.260922 37261 net.cpp:434] rnn1_W_ho_h_20 <- h_20_rnn1_h_neuron_20_0_split_0
I0330 13:43:29.260938 37261 net.cpp:408] rnn1_W_ho_h_20 -> W_ho_h_20
I0330 13:43:29.261056 37261 net.cpp:150] Setting up rnn1_W_ho_h_20
I0330 13:43:29.261065 37261 net.cpp:157] Top shape: 1 1 30 (30)
I0330 13:43:29.261072 37261 net.cpp:165] Memory required for data: 235776
I0330 13:43:29.261081 37261 net.cpp:493] Sharing parameters 'W_ho' owned by layer 'rnn1_W_ho_h_1', param index 0
I0330 13:43:29.261090 37261 net.cpp:493] Sharing parameters 'b_o' owned by layer 'rnn1_W_ho_h_1', param index 1
I0330 13:43:29.261096 37261 layer_factory.hpp:77] Creating layer rnn1_o_neuron_20
I0330 13:43:29.261111 37261 net.cpp:100] Creating Layer rnn1_o_neuron_20
I0330 13:43:29.261119 37261 net.cpp:434] rnn1_o_neuron_20 <- W_ho_h_20
I0330 13:43:29.261133 37261 net.cpp:408] rnn1_o_neuron_20 -> o_20
I0330 13:43:29.261567 37261 net.cpp:150] Setting up rnn1_o_neuron_20
I0330 13:43:29.261579 37261 net.cpp:157] Top shape: 1 1 30 (30)
I0330 13:43:29.261584 37261 net.cpp:165] Memory required for data: 235896
I0330 13:43:29.261600 37261 layer_factory.hpp:77] Creating layer rnn1_h_conted_20
I0330 13:43:29.261622 37261 net.cpp:100] Creating Layer rnn1_h_conted_20
I0330 13:43:29.261631 37261 net.cpp:434] rnn1_h_conted_20 <- h_20_rnn1_h_neuron_20_0_split_1
I0330 13:43:29.261643 37261 net.cpp:434] rnn1_h_conted_20 <- cont_21
I0330 13:43:29.261656 37261 net.cpp:408] rnn1_h_conted_20 -> h_conted_20
I0330 13:43:29.261708 37261 net.cpp:150] Setting up rnn1_h_conted_20
I0330 13:43:29.261718 37261 net.cpp:157] Top shape: 1 1 30 (30)
I0330 13:43:29.261723 37261 net.cpp:165] Memory required for data: 236016
I0330 13:43:29.261729 37261 layer_factory.hpp:77] Creating layer rnn1_W_hh_h_20
I0330 13:43:29.261746 37261 net.cpp:100] Creating Layer rnn1_W_hh_h_20
I0330 13:43:29.261754 37261 net.cpp:434] rnn1_W_hh_h_20 <- h_conted_20
I0330 13:43:29.261770 37261 net.cpp:408] rnn1_W_hh_h_20 -> W_hh_h_20
I0330 13:43:29.261862 37261 net.cpp:150] Setting up rnn1_W_hh_h_20
I0330 13:43:29.261871 37261 net.cpp:157] Top shape: 1 1 30 (30)
I0330 13:43:29.261878 37261 net.cpp:165] Memory required for data: 236136
I0330 13:43:29.261888 37261 net.cpp:493] Sharing parameters 'W_hh' owned by layer 'rnn1_W_hh_h_0', param index 0
I0330 13:43:29.261894 37261 layer_factory.hpp:77] Creating layer rnn1_h_input_sum_21
I0330 13:43:29.261909 37261 net.cpp:100] Creating Layer rnn1_h_input_sum_21
I0330 13:43:29.261916 37261 net.cpp:434] rnn1_h_input_sum_21 <- W_hh_h_20
I0330 13:43:29.261927 37261 net.cpp:434] rnn1_h_input_sum_21 <- W_xh_x_21
I0330 13:43:29.261940 37261 net.cpp:408] rnn1_h_input_sum_21 -> h_neuron_input_21
I0330 13:43:29.261971 37261 net.cpp:150] Setting up rnn1_h_input_sum_21
I0330 13:43:29.261979 37261 net.cpp:157] Top shape: 1 1 30 (30)
I0330 13:43:29.261986 37261 net.cpp:165] Memory required for data: 236256
I0330 13:43:29.261992 37261 layer_factory.hpp:77] Creating layer rnn1_h_neuron_21
I0330 13:43:29.262006 37261 net.cpp:100] Creating Layer rnn1_h_neuron_21
I0330 13:43:29.262012 37261 net.cpp:434] rnn1_h_neuron_21 <- h_neuron_input_21
I0330 13:43:29.262027 37261 net.cpp:408] rnn1_h_neuron_21 -> h_21
I0330 13:43:29.262459 37261 net.cpp:150] Setting up rnn1_h_neuron_21
I0330 13:43:29.262470 37261 net.cpp:157] Top shape: 1 1 30 (30)
I0330 13:43:29.262477 37261 net.cpp:165] Memory required for data: 236376
I0330 13:43:29.262485 37261 layer_factory.hpp:77] Creating layer h_21_rnn1_h_neuron_21_0_split
I0330 13:43:29.262498 37261 net.cpp:100] Creating Layer h_21_rnn1_h_neuron_21_0_split
I0330 13:43:29.262507 37261 net.cpp:434] h_21_rnn1_h_neuron_21_0_split <- h_21
I0330 13:43:29.262526 37261 net.cpp:408] h_21_rnn1_h_neuron_21_0_split -> h_21_rnn1_h_neuron_21_0_split_0
I0330 13:43:29.262545 37261 net.cpp:408] h_21_rnn1_h_neuron_21_0_split -> h_21_rnn1_h_neuron_21_0_split_1
I0330 13:43:29.262578 37261 net.cpp:150] Setting up h_21_rnn1_h_neuron_21_0_split
I0330 13:43:29.262586 37261 net.cpp:157] Top shape: 1 1 30 (30)
I0330 13:43:29.262593 37261 net.cpp:157] Top shape: 1 1 30 (30)
I0330 13:43:29.262598 37261 net.cpp:165] Memory required for data: 236616
I0330 13:43:29.262604 37261 layer_factory.hpp:77] Creating layer rnn1_W_ho_h_21
I0330 13:43:29.262621 37261 net.cpp:100] Creating Layer rnn1_W_ho_h_21
I0330 13:43:29.262629 37261 net.cpp:434] rnn1_W_ho_h_21 <- h_21_rnn1_h_neuron_21_0_split_0
I0330 13:43:29.262645 37261 net.cpp:408] rnn1_W_ho_h_21 -> W_ho_h_21
I0330 13:43:29.262763 37261 net.cpp:150] Setting up rnn1_W_ho_h_21
I0330 13:43:29.262773 37261 net.cpp:157] Top shape: 1 1 30 (30)
I0330 13:43:29.262778 37261 net.cpp:165] Memory required for data: 236736
I0330 13:43:29.262789 37261 net.cpp:493] Sharing parameters 'W_ho' owned by layer 'rnn1_W_ho_h_1', param index 0
I0330 13:43:29.262812 37261 net.cpp:493] Sharing parameters 'b_o' owned by layer 'rnn1_W_ho_h_1', param index 1
I0330 13:43:29.262820 37261 layer_factory.hpp:77] Creating layer rnn1_o_neuron_21
I0330 13:43:29.262835 37261 net.cpp:100] Creating Layer rnn1_o_neuron_21
I0330 13:43:29.262842 37261 net.cpp:434] rnn1_o_neuron_21 <- W_ho_h_21
I0330 13:43:29.262857 37261 net.cpp:408] rnn1_o_neuron_21 -> o_21
I0330 13:43:29.263170 37261 net.cpp:150] Setting up rnn1_o_neuron_21
I0330 13:43:29.263185 37261 net.cpp:157] Top shape: 1 1 30 (30)
I0330 13:43:29.263190 37261 net.cpp:165] Memory required for data: 236856
I0330 13:43:29.263198 37261 layer_factory.hpp:77] Creating layer rnn1_h_conted_21
I0330 13:43:29.263216 37261 net.cpp:100] Creating Layer rnn1_h_conted_21
I0330 13:43:29.263224 37261 net.cpp:434] rnn1_h_conted_21 <- h_21_rnn1_h_neuron_21_0_split_1
I0330 13:43:29.263236 37261 net.cpp:434] rnn1_h_conted_21 <- cont_22
I0330 13:43:29.263249 37261 net.cpp:408] rnn1_h_conted_21 -> h_conted_21
I0330 13:43:29.263301 37261 net.cpp:150] Setting up rnn1_h_conted_21
I0330 13:43:29.263310 37261 net.cpp:157] Top shape: 1 1 30 (30)
I0330 13:43:29.263316 37261 net.cpp:165] Memory required for data: 236976
I0330 13:43:29.263324 37261 layer_factory.hpp:77] Creating layer rnn1_W_hh_h_21
I0330 13:43:29.263339 37261 net.cpp:100] Creating Layer rnn1_W_hh_h_21
I0330 13:43:29.263347 37261 net.cpp:434] rnn1_W_hh_h_21 <- h_conted_21
I0330 13:43:29.263365 37261 net.cpp:408] rnn1_W_hh_h_21 -> W_hh_h_21
I0330 13:43:29.263454 37261 net.cpp:150] Setting up rnn1_W_hh_h_21
I0330 13:43:29.263464 37261 net.cpp:157] Top shape: 1 1 30 (30)
I0330 13:43:29.263470 37261 net.cpp:165] Memory required for data: 237096
I0330 13:43:29.263479 37261 net.cpp:493] Sharing parameters 'W_hh' owned by layer 'rnn1_W_hh_h_0', param index 0
I0330 13:43:29.263486 37261 layer_factory.hpp:77] Creating layer rnn1_h_input_sum_22
I0330 13:43:29.263504 37261 net.cpp:100] Creating Layer rnn1_h_input_sum_22
I0330 13:43:29.263510 37261 net.cpp:434] rnn1_h_input_sum_22 <- W_hh_h_21
I0330 13:43:29.263522 37261 net.cpp:434] rnn1_h_input_sum_22 <- W_xh_x_22
I0330 13:43:29.263535 37261 net.cpp:408] rnn1_h_input_sum_22 -> h_neuron_input_22
I0330 13:43:29.263566 37261 net.cpp:150] Setting up rnn1_h_input_sum_22
I0330 13:43:29.263573 37261 net.cpp:157] Top shape: 1 1 30 (30)
I0330 13:43:29.263579 37261 net.cpp:165] Memory required for data: 237216
I0330 13:43:29.263586 37261 layer_factory.hpp:77] Creating layer rnn1_h_neuron_22
I0330 13:43:29.263602 37261 net.cpp:100] Creating Layer rnn1_h_neuron_22
I0330 13:43:29.263608 37261 net.cpp:434] rnn1_h_neuron_22 <- h_neuron_input_22
I0330 13:43:29.263623 37261 net.cpp:408] rnn1_h_neuron_22 -> h_22
I0330 13:43:29.264274 37261 net.cpp:150] Setting up rnn1_h_neuron_22
I0330 13:43:29.264286 37261 net.cpp:157] Top shape: 1 1 30 (30)
I0330 13:43:29.264292 37261 net.cpp:165] Memory required for data: 237336
I0330 13:43:29.264299 37261 layer_factory.hpp:77] Creating layer h_22_rnn1_h_neuron_22_0_split
I0330 13:43:29.264317 37261 net.cpp:100] Creating Layer h_22_rnn1_h_neuron_22_0_split
I0330 13:43:29.264324 37261 net.cpp:434] h_22_rnn1_h_neuron_22_0_split <- h_22
I0330 13:43:29.264341 37261 net.cpp:408] h_22_rnn1_h_neuron_22_0_split -> h_22_rnn1_h_neuron_22_0_split_0
I0330 13:43:29.264360 37261 net.cpp:408] h_22_rnn1_h_neuron_22_0_split -> h_22_rnn1_h_neuron_22_0_split_1
I0330 13:43:29.264395 37261 net.cpp:150] Setting up h_22_rnn1_h_neuron_22_0_split
I0330 13:43:29.264405 37261 net.cpp:157] Top shape: 1 1 30 (30)
I0330 13:43:29.264410 37261 net.cpp:157] Top shape: 1 1 30 (30)
I0330 13:43:29.264415 37261 net.cpp:165] Memory required for data: 237576
I0330 13:43:29.264421 37261 layer_factory.hpp:77] Creating layer rnn1_W_ho_h_22
I0330 13:43:29.264441 37261 net.cpp:100] Creating Layer rnn1_W_ho_h_22
I0330 13:43:29.264449 37261 net.cpp:434] rnn1_W_ho_h_22 <- h_22_rnn1_h_neuron_22_0_split_0
I0330 13:43:29.264467 37261 net.cpp:408] rnn1_W_ho_h_22 -> W_ho_h_22
I0330 13:43:29.264587 37261 net.cpp:150] Setting up rnn1_W_ho_h_22
I0330 13:43:29.264596 37261 net.cpp:157] Top shape: 1 1 30 (30)
I0330 13:43:29.264603 37261 net.cpp:165] Memory required for data: 237696
I0330 13:43:29.264612 37261 net.cpp:493] Sharing parameters 'W_ho' owned by layer 'rnn1_W_ho_h_1', param index 0
I0330 13:43:29.264621 37261 net.cpp:493] Sharing parameters 'b_o' owned by layer 'rnn1_W_ho_h_1', param index 1
I0330 13:43:29.264626 37261 layer_factory.hpp:77] Creating layer rnn1_o_neuron_22
I0330 13:43:29.264642 37261 net.cpp:100] Creating Layer rnn1_o_neuron_22
I0330 13:43:29.264653 37261 net.cpp:434] rnn1_o_neuron_22 <- W_ho_h_22
I0330 13:43:29.264670 37261 net.cpp:408] rnn1_o_neuron_22 -> o_22
I0330 13:43:29.265110 37261 net.cpp:150] Setting up rnn1_o_neuron_22
I0330 13:43:29.265125 37261 net.cpp:157] Top shape: 1 1 30 (30)
I0330 13:43:29.265130 37261 net.cpp:165] Memory required for data: 237816
I0330 13:43:29.265138 37261 layer_factory.hpp:77] Creating layer rnn1_h_conted_22
I0330 13:43:29.265156 37261 net.cpp:100] Creating Layer rnn1_h_conted_22
I0330 13:43:29.265164 37261 net.cpp:434] rnn1_h_conted_22 <- h_22_rnn1_h_neuron_22_0_split_1
I0330 13:43:29.265177 37261 net.cpp:434] rnn1_h_conted_22 <- cont_23
I0330 13:43:29.265190 37261 net.cpp:408] rnn1_h_conted_22 -> h_conted_22
I0330 13:43:29.265241 37261 net.cpp:150] Setting up rnn1_h_conted_22
I0330 13:43:29.265250 37261 net.cpp:157] Top shape: 1 1 30 (30)
I0330 13:43:29.265256 37261 net.cpp:165] Memory required for data: 237936
I0330 13:43:29.265264 37261 layer_factory.hpp:77] Creating layer rnn1_W_hh_h_22
I0330 13:43:29.265280 37261 net.cpp:100] Creating Layer rnn1_W_hh_h_22
I0330 13:43:29.265287 37261 net.cpp:434] rnn1_W_hh_h_22 <- h_conted_22
I0330 13:43:29.265305 37261 net.cpp:408] rnn1_W_hh_h_22 -> W_hh_h_22
I0330 13:43:29.265395 37261 net.cpp:150] Setting up rnn1_W_hh_h_22
I0330 13:43:29.265408 37261 net.cpp:157] Top shape: 1 1 30 (30)
I0330 13:43:29.265415 37261 net.cpp:165] Memory required for data: 238056
I0330 13:43:29.265429 37261 net.cpp:493] Sharing parameters 'W_hh' owned by layer 'rnn1_W_hh_h_0', param index 0
I0330 13:43:29.265436 37261 layer_factory.hpp:77] Creating layer rnn1_h_input_sum_23
I0330 13:43:29.265453 37261 net.cpp:100] Creating Layer rnn1_h_input_sum_23
I0330 13:43:29.265460 37261 net.cpp:434] rnn1_h_input_sum_23 <- W_hh_h_22
I0330 13:43:29.265472 37261 net.cpp:434] rnn1_h_input_sum_23 <- W_xh_x_23
I0330 13:43:29.265486 37261 net.cpp:408] rnn1_h_input_sum_23 -> h_neuron_input_23
I0330 13:43:29.265516 37261 net.cpp:150] Setting up rnn1_h_input_sum_23
I0330 13:43:29.265525 37261 net.cpp:157] Top shape: 1 1 30 (30)
I0330 13:43:29.265532 37261 net.cpp:165] Memory required for data: 238176
I0330 13:43:29.265537 37261 layer_factory.hpp:77] Creating layer rnn1_h_neuron_23
I0330 13:43:29.265552 37261 net.cpp:100] Creating Layer rnn1_h_neuron_23
I0330 13:43:29.265560 37261 net.cpp:434] rnn1_h_neuron_23 <- h_neuron_input_23
I0330 13:43:29.265574 37261 net.cpp:408] rnn1_h_neuron_23 -> h_23
I0330 13:43:29.266055 37261 net.cpp:150] Setting up rnn1_h_neuron_23
I0330 13:43:29.266067 37261 net.cpp:157] Top shape: 1 1 30 (30)
I0330 13:43:29.266073 37261 net.cpp:165] Memory required for data: 238296
I0330 13:43:29.266080 37261 layer_factory.hpp:77] Creating layer h_23_rnn1_h_neuron_23_0_split
I0330 13:43:29.266098 37261 net.cpp:100] Creating Layer h_23_rnn1_h_neuron_23_0_split
I0330 13:43:29.266105 37261 net.cpp:434] h_23_rnn1_h_neuron_23_0_split <- h_23
I0330 13:43:29.266122 37261 net.cpp:408] h_23_rnn1_h_neuron_23_0_split -> h_23_rnn1_h_neuron_23_0_split_0
I0330 13:43:29.266141 37261 net.cpp:408] h_23_rnn1_h_neuron_23_0_split -> h_23_rnn1_h_neuron_23_0_split_1
I0330 13:43:29.266175 37261 net.cpp:150] Setting up h_23_rnn1_h_neuron_23_0_split
I0330 13:43:29.266183 37261 net.cpp:157] Top shape: 1 1 30 (30)
I0330 13:43:29.266189 37261 net.cpp:157] Top shape: 1 1 30 (30)
I0330 13:43:29.266194 37261 net.cpp:165] Memory required for data: 238536
I0330 13:43:29.266201 37261 layer_factory.hpp:77] Creating layer rnn1_W_ho_h_23
I0330 13:43:29.266217 37261 net.cpp:100] Creating Layer rnn1_W_ho_h_23
I0330 13:43:29.266225 37261 net.cpp:434] rnn1_W_ho_h_23 <- h_23_rnn1_h_neuron_23_0_split_0
I0330 13:43:29.266242 37261 net.cpp:408] rnn1_W_ho_h_23 -> W_ho_h_23
I0330 13:43:29.266360 37261 net.cpp:150] Setting up rnn1_W_ho_h_23
I0330 13:43:29.266371 37261 net.cpp:157] Top shape: 1 1 30 (30)
I0330 13:43:29.266376 37261 net.cpp:165] Memory required for data: 238656
I0330 13:43:29.266386 37261 net.cpp:493] Sharing parameters 'W_ho' owned by layer 'rnn1_W_ho_h_1', param index 0
I0330 13:43:29.266399 37261 net.cpp:493] Sharing parameters 'b_o' owned by layer 'rnn1_W_ho_h_1', param index 1
I0330 13:43:29.266407 37261 layer_factory.hpp:77] Creating layer rnn1_o_neuron_23
I0330 13:43:29.266423 37261 net.cpp:100] Creating Layer rnn1_o_neuron_23
I0330 13:43:29.266431 37261 net.cpp:434] rnn1_o_neuron_23 <- W_ho_h_23
I0330 13:43:29.266448 37261 net.cpp:408] rnn1_o_neuron_23 -> o_23
I0330 13:43:29.266757 37261 net.cpp:150] Setting up rnn1_o_neuron_23
I0330 13:43:29.266768 37261 net.cpp:157] Top shape: 1 1 30 (30)
I0330 13:43:29.266775 37261 net.cpp:165] Memory required for data: 238776
I0330 13:43:29.266782 37261 layer_factory.hpp:77] Creating layer rnn1_h_conted_23
I0330 13:43:29.266798 37261 net.cpp:100] Creating Layer rnn1_h_conted_23
I0330 13:43:29.266806 37261 net.cpp:434] rnn1_h_conted_23 <- h_23_rnn1_h_neuron_23_0_split_1
I0330 13:43:29.266819 37261 net.cpp:434] rnn1_h_conted_23 <- cont_24
I0330 13:43:29.266834 37261 net.cpp:408] rnn1_h_conted_23 -> h_conted_23
I0330 13:43:29.266887 37261 net.cpp:150] Setting up rnn1_h_conted_23
I0330 13:43:29.266896 37261 net.cpp:157] Top shape: 1 1 30 (30)
I0330 13:43:29.266902 37261 net.cpp:165] Memory required for data: 238896
I0330 13:43:29.266908 37261 layer_factory.hpp:77] Creating layer rnn1_W_hh_h_23
I0330 13:43:29.266927 37261 net.cpp:100] Creating Layer rnn1_W_hh_h_23
I0330 13:43:29.266935 37261 net.cpp:434] rnn1_W_hh_h_23 <- h_conted_23
I0330 13:43:29.266952 37261 net.cpp:408] rnn1_W_hh_h_23 -> W_hh_h_23
I0330 13:43:29.267042 37261 net.cpp:150] Setting up rnn1_W_hh_h_23
I0330 13:43:29.267051 37261 net.cpp:157] Top shape: 1 1 30 (30)
I0330 13:43:29.267057 37261 net.cpp:165] Memory required for data: 239016
I0330 13:43:29.267067 37261 net.cpp:493] Sharing parameters 'W_hh' owned by layer 'rnn1_W_hh_h_0', param index 0
I0330 13:43:29.267074 37261 layer_factory.hpp:77] Creating layer rnn1_h_input_sum_24
I0330 13:43:29.267088 37261 net.cpp:100] Creating Layer rnn1_h_input_sum_24
I0330 13:43:29.267096 37261 net.cpp:434] rnn1_h_input_sum_24 <- W_hh_h_23
I0330 13:43:29.267107 37261 net.cpp:434] rnn1_h_input_sum_24 <- W_xh_x_24
I0330 13:43:29.267122 37261 net.cpp:408] rnn1_h_input_sum_24 -> h_neuron_input_24
I0330 13:43:29.267153 37261 net.cpp:150] Setting up rnn1_h_input_sum_24
I0330 13:43:29.267160 37261 net.cpp:157] Top shape: 1 1 30 (30)
I0330 13:43:29.267166 37261 net.cpp:165] Memory required for data: 239136
I0330 13:43:29.267174 37261 layer_factory.hpp:77] Creating layer rnn1_h_neuron_24
I0330 13:43:29.267186 37261 net.cpp:100] Creating Layer rnn1_h_neuron_24
I0330 13:43:29.267194 37261 net.cpp:434] rnn1_h_neuron_24 <- h_neuron_input_24
I0330 13:43:29.267207 37261 net.cpp:408] rnn1_h_neuron_24 -> h_24
I0330 13:43:29.267601 37261 net.cpp:150] Setting up rnn1_h_neuron_24
I0330 13:43:29.267611 37261 net.cpp:157] Top shape: 1 1 30 (30)
I0330 13:43:29.267617 37261 net.cpp:165] Memory required for data: 239256
I0330 13:43:29.267625 37261 layer_factory.hpp:77] Creating layer h_24_rnn1_h_neuron_24_0_split
I0330 13:43:29.267639 37261 net.cpp:100] Creating Layer h_24_rnn1_h_neuron_24_0_split
I0330 13:43:29.267650 37261 net.cpp:434] h_24_rnn1_h_neuron_24_0_split <- h_24
I0330 13:43:29.267668 37261 net.cpp:408] h_24_rnn1_h_neuron_24_0_split -> h_24_rnn1_h_neuron_24_0_split_0
I0330 13:43:29.267686 37261 net.cpp:408] h_24_rnn1_h_neuron_24_0_split -> h_24_rnn1_h_neuron_24_0_split_1
I0330 13:43:29.267721 37261 net.cpp:150] Setting up h_24_rnn1_h_neuron_24_0_split
I0330 13:43:29.267729 37261 net.cpp:157] Top shape: 1 1 30 (30)
I0330 13:43:29.267735 37261 net.cpp:157] Top shape: 1 1 30 (30)
I0330 13:43:29.267740 37261 net.cpp:165] Memory required for data: 239496
I0330 13:43:29.267747 37261 layer_factory.hpp:77] Creating layer rnn1_W_ho_h_24
I0330 13:43:29.267763 37261 net.cpp:100] Creating Layer rnn1_W_ho_h_24
I0330 13:43:29.267771 37261 net.cpp:434] rnn1_W_ho_h_24 <- h_24_rnn1_h_neuron_24_0_split_0
I0330 13:43:29.267788 37261 net.cpp:408] rnn1_W_ho_h_24 -> W_ho_h_24
I0330 13:43:29.267904 37261 net.cpp:150] Setting up rnn1_W_ho_h_24
I0330 13:43:29.267915 37261 net.cpp:157] Top shape: 1 1 30 (30)
I0330 13:43:29.267925 37261 net.cpp:165] Memory required for data: 239616
I0330 13:43:29.267935 37261 net.cpp:493] Sharing parameters 'W_ho' owned by layer 'rnn1_W_ho_h_1', param index 0
I0330 13:43:29.267943 37261 net.cpp:493] Sharing parameters 'b_o' owned by layer 'rnn1_W_ho_h_1', param index 1
I0330 13:43:29.267949 37261 layer_factory.hpp:77] Creating layer rnn1_o_neuron_24
I0330 13:43:29.267966 37261 net.cpp:100] Creating Layer rnn1_o_neuron_24
I0330 13:43:29.267973 37261 net.cpp:434] rnn1_o_neuron_24 <- W_ho_h_24
I0330 13:43:29.267988 37261 net.cpp:408] rnn1_o_neuron_24 -> o_24
I0330 13:43:29.268417 37261 net.cpp:150] Setting up rnn1_o_neuron_24
I0330 13:43:29.268433 37261 net.cpp:157] Top shape: 1 1 30 (30)
I0330 13:43:29.268440 37261 net.cpp:165] Memory required for data: 239736
I0330 13:43:29.268448 37261 layer_factory.hpp:77] Creating layer rnn1_h_conted_24
I0330 13:43:29.268463 37261 net.cpp:100] Creating Layer rnn1_h_conted_24
I0330 13:43:29.268472 37261 net.cpp:434] rnn1_h_conted_24 <- h_24_rnn1_h_neuron_24_0_split_1
I0330 13:43:29.268484 37261 net.cpp:434] rnn1_h_conted_24 <- cont_25
I0330 13:43:29.268497 37261 net.cpp:408] rnn1_h_conted_24 -> h_conted_24
I0330 13:43:29.268549 37261 net.cpp:150] Setting up rnn1_h_conted_24
I0330 13:43:29.268558 37261 net.cpp:157] Top shape: 1 1 30 (30)
I0330 13:43:29.268564 37261 net.cpp:165] Memory required for data: 239856
I0330 13:43:29.268570 37261 layer_factory.hpp:77] Creating layer rnn1_W_hh_h_24
I0330 13:43:29.268587 37261 net.cpp:100] Creating Layer rnn1_W_hh_h_24
I0330 13:43:29.268595 37261 net.cpp:434] rnn1_W_hh_h_24 <- h_conted_24
I0330 13:43:29.268611 37261 net.cpp:408] rnn1_W_hh_h_24 -> W_hh_h_24
I0330 13:43:29.268704 37261 net.cpp:150] Setting up rnn1_W_hh_h_24
I0330 13:43:29.268713 37261 net.cpp:157] Top shape: 1 1 30 (30)
I0330 13:43:29.268719 37261 net.cpp:165] Memory required for data: 239976
I0330 13:43:29.268729 37261 net.cpp:493] Sharing parameters 'W_hh' owned by layer 'rnn1_W_hh_h_0', param index 0
I0330 13:43:29.268736 37261 layer_factory.hpp:77] Creating layer rnn1_h_input_sum_25
I0330 13:43:29.268750 37261 net.cpp:100] Creating Layer rnn1_h_input_sum_25
I0330 13:43:29.268757 37261 net.cpp:434] rnn1_h_input_sum_25 <- W_hh_h_24
I0330 13:43:29.268769 37261 net.cpp:434] rnn1_h_input_sum_25 <- W_xh_x_25
I0330 13:43:29.268783 37261 net.cpp:408] rnn1_h_input_sum_25 -> h_neuron_input_25
I0330 13:43:29.268815 37261 net.cpp:150] Setting up rnn1_h_input_sum_25
I0330 13:43:29.268823 37261 net.cpp:157] Top shape: 1 1 30 (30)
I0330 13:43:29.268829 37261 net.cpp:165] Memory required for data: 240096
I0330 13:43:29.268836 37261 layer_factory.hpp:77] Creating layer rnn1_h_neuron_25
I0330 13:43:29.268848 37261 net.cpp:100] Creating Layer rnn1_h_neuron_25
I0330 13:43:29.268857 37261 net.cpp:434] rnn1_h_neuron_25 <- h_neuron_input_25
I0330 13:43:29.268870 37261 net.cpp:408] rnn1_h_neuron_25 -> h_25
I0330 13:43:29.269269 37261 net.cpp:150] Setting up rnn1_h_neuron_25
I0330 13:43:29.269280 37261 net.cpp:157] Top shape: 1 1 30 (30)
I0330 13:43:29.269286 37261 net.cpp:165] Memory required for data: 240216
I0330 13:43:29.269294 37261 layer_factory.hpp:77] Creating layer h_25_rnn1_h_neuron_25_0_split
I0330 13:43:29.269327 37261 net.cpp:100] Creating Layer h_25_rnn1_h_neuron_25_0_split
…
I0330 13:43:29.331229 37261 net.cpp:100] Creating Layer h_61_rnn1_h_neuron_61_0_split
I0330 13:43:29.331238 37261 net.cpp:434] h_61_rnn1_h_neuron_61_0_split <- h_61
I0330 13:43:29.331256 37261 net.cpp:408] h_61_rnn1_h_neuron_61_0_split -> h_61_rnn1_h_neuron_61_0_split_0
I0330 13:43:29.331275 37261 net.cpp:408] h_61_rnn1_h_neuron_61_0_split -> h_61_rnn1_h_neuron_61_0_split_1
I0330 13:43:29.331308 37261 net.cpp:150] Setting up h_61_rnn1_h_neuron_61_0_split
I0330 13:43:29.331317 37261 net.cpp:157] Top shape: 1 1 30 (30)
I0330 13:43:29.331324 37261 net.cpp:157] Top shape: 1 1 30 (30)
I0330 13:43:29.331328 37261 net.cpp:165] Memory required for data: 275016
I0330 13:43:29.331336 37261 layer_factory.hpp:77] Creating layer rnn1_W_ho_h_61
I0330 13:43:29.331352 37261 net.cpp:100] Creating Layer rnn1_W_ho_h_61
I0330 13:43:29.331360 37261 net.cpp:434] rnn1_W_ho_h_61 <- h_61_rnn1_h_neuron_61_0_split_0
I0330 13:43:29.331377 37261 net.cpp:408] rnn1_W_ho_h_61 -> W_ho_h_61
I0330 13:43:29.331492 37261 net.cpp:150] Setting up rnn1_W_ho_h_61
I0330 13:43:29.331502 37261 net.cpp:157] Top shape: 1 1 30 (30)
I0330 13:43:29.331508 37261 net.cpp:165] Memory required for data: 275136
I0330 13:43:29.331518 37261 net.cpp:493] Sharing parameters 'W_ho' owned by layer 'rnn1_W_ho_h_1', param index 0
I0330 13:43:29.331528 37261 net.cpp:493] Sharing parameters 'b_o' owned by layer 'rnn1_W_ho_h_1', param index 1
I0330 13:43:29.331539 37261 layer_factory.hpp:77] Creating layer rnn1_o_neuron_61
I0330 13:43:29.331553 37261 net.cpp:100] Creating Layer rnn1_o_neuron_61
I0330 13:43:29.331560 37261 net.cpp:434] rnn1_o_neuron_61 <- W_ho_h_61
I0330 13:43:29.331578 37261 net.cpp:408] rnn1_o_neuron_61 -> o_61
I0330 13:43:29.331897 37261 net.cpp:150] Setting up rnn1_o_neuron_61
I0330 13:43:29.331909 37261 net.cpp:157] Top shape: 1 1 30 (30)
I0330 13:43:29.331915 37261 net.cpp:165] Memory required for data: 275256
I0330 13:43:29.331923 37261 layer_factory.hpp:77] Creating layer rnn1_h_conted_61
I0330 13:43:29.331940 37261 net.cpp:100] Creating Layer rnn1_h_conted_61
I0330 13:43:29.331949 37261 net.cpp:434] rnn1_h_conted_61 <- h_61_rnn1_h_neuron_61_0_split_1
I0330 13:43:29.331962 37261 net.cpp:434] rnn1_h_conted_61 <- cont_62
I0330 13:43:29.331974 37261 net.cpp:408] rnn1_h_conted_61 -> h_conted_61
I0330 13:43:29.332026 37261 net.cpp:150] Setting up rnn1_h_conted_61
I0330 13:43:29.332036 37261 net.cpp:157] Top shape: 1 1 30 (30)
I0330 13:43:29.332042 37261 net.cpp:165] Memory required for data: 275376
I0330 13:43:29.332048 37261 layer_factory.hpp:77] Creating layer rnn1_W_hh_h_61
I0330 13:43:29.332063 37261 net.cpp:100] Creating Layer rnn1_W_hh_h_61
I0330 13:43:29.332072 37261 net.cpp:434] rnn1_W_hh_h_61 <- h_conted_61
I0330 13:43:29.332087 37261 net.cpp:408] rnn1_W_hh_h_61 -> W_hh_h_61
I0330 13:43:29.332180 37261 net.cpp:150] Setting up rnn1_W_hh_h_61
I0330 13:43:29.332188 37261 net.cpp:157] Top shape: 1 1 30 (30)
I0330 13:43:29.332195 37261 net.cpp:165] Memory required for data: 275496
I0330 13:43:29.332203 37261 net.cpp:493] Sharing parameters 'W_hh' owned by layer 'rnn1_W_hh_h_0', param index 0
I0330 13:43:29.332211 37261 layer_factory.hpp:77] Creating layer rnn1_h_input_sum_62
I0330 13:43:29.332227 37261 net.cpp:100] Creating Layer rnn1_h_input_sum_62
I0330 13:43:29.332235 37261 net.cpp:434] rnn1_h_input_sum_62 <- W_hh_h_61
I0330 13:43:29.332247 37261 net.cpp:434] rnn1_h_input_sum_62 <- W_xh_x_62
I0330 13:43:29.332258 37261 net.cpp:408] rnn1_h_input_sum_62 -> h_neuron_input_62
I0330 13:43:29.332289 37261 net.cpp:150] Setting up rnn1_h_input_sum_62
I0330 13:43:29.332298 37261 net.cpp:157] Top shape: 1 1 30 (30)
I0330 13:43:29.332304 37261 net.cpp:165] Memory required for data: 275616
I0330 13:43:29.332310 37261 layer_factory.hpp:77] Creating layer rnn1_h_neuron_62
I0330 13:43:29.332325 37261 net.cpp:100] Creating Layer rnn1_h_neuron_62
I0330 13:43:29.332334 37261 net.cpp:434] rnn1_h_neuron_62 <- h_neuron_input_62
I0330 13:43:29.332348 37261 net.cpp:408] rnn1_h_neuron_62 -> h_62
I0330 13:43:29.332758 37261 net.cpp:150] Setting up rnn1_h_neuron_62
I0330 13:43:29.332769 37261 net.cpp:157] Top shape: 1 1 30 (30)
I0330 13:43:29.332775 37261 net.cpp:165] Memory required for data: 275736
I0330 13:43:29.332783 37261 layer_factory.hpp:77] Creating layer h_62_rnn1_h_neuron_62_0_split
I0330 13:43:29.332799 37261 net.cpp:100] Creating Layer h_62_rnn1_h_neuron_62_0_split
I0330 13:43:29.332808 37261 net.cpp:434] h_62_rnn1_h_neuron_62_0_split <- h_62
I0330 13:43:29.332824 37261 net.cpp:408] h_62_rnn1_h_neuron_62_0_split -> h_62_rnn1_h_neuron_62_0_split_0
I0330 13:43:29.332844 37261 net.cpp:408] h_62_rnn1_h_neuron_62_0_split -> h_62_rnn1_h_neuron_62_0_split_1
I0330 13:43:29.332877 37261 net.cpp:150] Setting up h_62_rnn1_h_neuron_62_0_split
I0330 13:43:29.332886 37261 net.cpp:157] Top shape: 1 1 30 (30)
I0330 13:43:29.332892 37261 net.cpp:157] Top shape: 1 1 30 (30)
I0330 13:43:29.332897 37261 net.cpp:165] Memory required for data: 275976
I0330 13:43:29.332903 37261 layer_factory.hpp:77] Creating layer rnn1_W_ho_h_62
I0330 13:43:29.332921 37261 net.cpp:100] Creating Layer rnn1_W_ho_h_62
I0330 13:43:29.332928 37261 net.cpp:434] rnn1_W_ho_h_62 <- h_62_rnn1_h_neuron_62_0_split_0
I0330 13:43:29.332947 37261 net.cpp:408] rnn1_W_ho_h_62 -> W_ho_h_62
I0330 13:43:29.333065 37261 net.cpp:150] Setting up rnn1_W_ho_h_62
I0330 13:43:29.333074 37261 net.cpp:157] Top shape: 1 1 30 (30)
I0330 13:43:29.333082 37261 net.cpp:165] Memory required for data: 276096
I0330 13:43:29.333096 37261 net.cpp:493] Sharing parameters 'W_ho' owned by layer 'rnn1_W_ho_h_1', param index 0
I0330 13:43:29.333104 37261 net.cpp:493] Sharing parameters 'b_o' owned by layer 'rnn1_W_ho_h_1', param index 1
I0330 13:43:29.333110 37261 layer_factory.hpp:77] Creating layer rnn1_o_neuron_62
I0330 13:43:29.333127 37261 net.cpp:100] Creating Layer rnn1_o_neuron_62
I0330 13:43:29.333135 37261 net.cpp:434] rnn1_o_neuron_62 <- W_ho_h_62
I0330 13:43:29.333150 37261 net.cpp:408] rnn1_o_neuron_62 -> o_62
I0330 13:43:29.333559 37261 net.cpp:150] Setting up rnn1_o_neuron_62
I0330 13:43:29.333571 37261 net.cpp:157] Top shape: 1 1 30 (30)
I0330 13:43:29.333577 37261 net.cpp:165] Memory required for data: 276216
I0330 13:43:29.333585 37261 layer_factory.hpp:77] Creating layer rnn1_h_conted_62
I0330 13:43:29.333602 37261 net.cpp:100] Creating Layer rnn1_h_conted_62
I0330 13:43:29.333611 37261 net.cpp:434] rnn1_h_conted_62 <- h_62_rnn1_h_neuron_62_0_split_1
I0330 13:43:29.333623 37261 net.cpp:434] rnn1_h_conted_62 <- cont_63
I0330 13:43:29.333636 37261 net.cpp:408] rnn1_h_conted_62 -> h_conted_62
I0330 13:43:29.333686 37261 net.cpp:150] Setting up rnn1_h_conted_62
I0330 13:43:29.333695 37261 net.cpp:157] Top shape: 1 1 30 (30)
I0330 13:43:29.333701 37261 net.cpp:165] Memory required for data: 276336
I0330 13:43:29.333709 37261 layer_factory.hpp:77] Creating layer rnn1_W_hh_h_62
I0330 13:43:29.333726 37261 net.cpp:100] Creating Layer rnn1_W_hh_h_62
I0330 13:43:29.333734 37261 net.cpp:434] rnn1_W_hh_h_62 <- h_conted_62
I0330 13:43:29.333750 37261 net.cpp:408] rnn1_W_hh_h_62 -> W_hh_h_62
I0330 13:43:29.333874 37261 net.cpp:150] Setting up rnn1_W_hh_h_62
I0330 13:43:29.333884 37261 net.cpp:157] Top shape: 1 1 30 (30)
I0330 13:43:29.333891 37261 net.cpp:165] Memory required for data: 276456
I0330 13:43:29.333900 37261 net.cpp:493] Sharing parameters 'W_hh' owned by layer 'rnn1_W_hh_h_0', param index 0
I0330 13:43:29.333909 37261 layer_factory.hpp:77] Creating layer rnn1_h_input_sum_63
I0330 13:43:29.333937 37261 net.cpp:100] Creating Layer rnn1_h_input_sum_63
I0330 13:43:29.333945 37261 net.cpp:434] rnn1_h_input_sum_63 <- W_hh_h_62
I0330 13:43:29.333956 37261 net.cpp:434] rnn1_h_input_sum_63 <- W_xh_x_63
I0330 13:43:29.333968 37261 net.cpp:408] rnn1_h_input_sum_63 -> h_neuron_input_63
I0330 13:43:29.333999 37261 net.cpp:150] Setting up rnn1_h_input_sum_63
I0330 13:43:29.334007 37261 net.cpp:157] Top shape: 1 1 30 (30)
I0330 13:43:29.334013 37261 net.cpp:165] Memory required for data: 276576
I0330 13:43:29.334020 37261 layer_factory.hpp:77] Creating layer rnn1_h_neuron_63
I0330 13:43:29.334034 37261 net.cpp:100] Creating Layer rnn1_h_neuron_63
I0330 13:43:29.334043 37261 net.cpp:434] rnn1_h_neuron_63 <- h_neuron_input_63
I0330 13:43:29.334056 37261 net.cpp:408] rnn1_h_neuron_63 -> h_63
I0330 13:43:29.334467 37261 net.cpp:150] Setting up rnn1_h_neuron_63
I0330 13:43:29.334478 37261 net.cpp:157] Top shape: 1 1 30 (30)
I0330 13:43:29.334486 37261 net.cpp:165] Memory required for data: 276696
I0330 13:43:29.334492 37261 layer_factory.hpp:77] Creating layer h_63_rnn1_h_neuron_63_0_split
I0330 13:43:29.334527 37261 net.cpp:100] Creating Layer h_63_rnn1_h_neuron_63_0_split
I0330 13:43:29.334537 37261 net.cpp:434] h_63_rnn1_h_neuron_63_0_split <- h_63
I0330 13:43:29.334554 37261 net.cpp:408] h_63_rnn1_h_neuron_63_0_split -> h_63_rnn1_h_neuron_63_0_split_0
I0330 13:43:29.334574 37261 net.cpp:408] h_63_rnn1_h_neuron_63_0_split -> h_63_rnn1_h_neuron_63_0_split_1
I0330 13:43:29.334625 37261 net.cpp:150] Setting up h_63_rnn1_h_neuron_63_0_split
I0330 13:43:29.334633 37261 net.cpp:157] Top shape: 1 1 30 (30)
I0330 13:43:29.334640 37261 net.cpp:157] Top shape: 1 1 30 (30)
I0330 13:43:29.334645 37261 net.cpp:165] Memory required for data: 276936
I0330 13:43:29.334652 37261 layer_factory.hpp:77] Creating layer rnn1_W_ho_h_63
I0330 13:43:29.334682 37261 net.cpp:100] Creating Layer rnn1_W_ho_h_63
I0330 13:43:29.334690 37261 net.cpp:434] rnn1_W_ho_h_63 <- h_63_rnn1_h_neuron_63_0_split_0
I0330 13:43:29.334709 37261 net.cpp:408] rnn1_W_ho_h_63 -> W_ho_h_63
I0330 13:43:29.334833 37261 net.cpp:150] Setting up rnn1_W_ho_h_63
I0330 13:43:29.334843 37261 net.cpp:157] Top shape: 1 1 30 (30)
I0330 13:43:29.334851 37261 net.cpp:165] Memory required for data: 277056
I0330 13:43:29.334859 37261 net.cpp:493] Sharing parameters 'W_ho' owned by layer 'rnn1_W_ho_h_1', param index 0
I0330 13:43:29.334867 37261 net.cpp:493] Sharing parameters 'b_o' owned by layer 'rnn1_W_ho_h_1', param index 1
I0330 13:43:29.334874 37261 layer_factory.hpp:77] Creating layer rnn1_o_neuron_63
I0330 13:43:29.334889 37261 net.cpp:100] Creating Layer rnn1_o_neuron_63
I0330 13:43:29.334897 37261 net.cpp:434] rnn1_o_neuron_63 <- W_ho_h_63
I0330 13:43:29.334913 37261 net.cpp:408] rnn1_o_neuron_63 -> o_63
I0330 13:43:29.335327 37261 net.cpp:150] Setting up rnn1_o_neuron_63
I0330 13:43:29.335341 37261 net.cpp:157] Top shape: 1 1 30 (30)
I0330 13:43:29.335347 37261 net.cpp:165] Memory required for data: 277176
I0330 13:43:29.335355 37261 layer_factory.hpp:77] Creating layer rnn1_h_conted_63
I0330 13:43:29.335372 37261 net.cpp:100] Creating Layer rnn1_h_conted_63
I0330 13:43:29.335381 37261 net.cpp:434] rnn1_h_conted_63 <- h_63_rnn1_h_neuron_63_0_split_1
I0330 13:43:29.335394 37261 net.cpp:434] rnn1_h_conted_63 <- cont_64
I0330 13:43:29.335407 37261 net.cpp:408] rnn1_h_conted_63 -> h_conted_63
I0330 13:43:29.335459 37261 net.cpp:150] Setting up rnn1_h_conted_63
I0330 13:43:29.335469 37261 net.cpp:157] Top shape: 1 1 30 (30)
I0330 13:43:29.335474 37261 net.cpp:165] Memory required for data: 277296
I0330 13:43:29.335481 37261 layer_factory.hpp:77] Creating layer rnn1_W_hh_h_63
I0330 13:43:29.335497 37261 net.cpp:100] Creating Layer rnn1_W_hh_h_63
I0330 13:43:29.335505 37261 net.cpp:434] rnn1_W_hh_h_63 <- h_conted_63
I0330 13:43:29.335521 37261 net.cpp:408] rnn1_W_hh_h_63 -> W_hh_h_63
I0330 13:43:29.335613 37261 net.cpp:150] Setting up rnn1_W_hh_h_63
I0330 13:43:29.335623 37261 net.cpp:157] Top shape: 1 1 30 (30)
I0330 13:43:29.335629 37261 net.cpp:165] Memory required for data: 277416
I0330 13:43:29.335638 37261 net.cpp:493] Sharing parameters 'W_hh' owned by layer 'rnn1_W_hh_h_0', param index 0
I0330 13:43:29.335645 37261 layer_factory.hpp:77] Creating layer rnn1_h_input_sum_64
I0330 13:43:29.335659 37261 net.cpp:100] Creating Layer rnn1_h_input_sum_64
I0330 13:43:29.335667 37261 net.cpp:434] rnn1_h_input_sum_64 <- W_hh_h_63
I0330 13:43:29.335680 37261 net.cpp:434] rnn1_h_input_sum_64 <- W_xh_x_64
I0330 13:43:29.335693 37261 net.cpp:408] rnn1_h_input_sum_64 -> h_neuron_input_64
I0330 13:43:29.335722 37261 net.cpp:150] Setting up rnn1_h_input_sum_64
I0330 13:43:29.335731 37261 net.cpp:157] Top shape: 1 1 30 (30)
I0330 13:43:29.335736 37261 net.cpp:165] Memory required for data: 277536
I0330 13:43:29.335743 37261 layer_factory.hpp:77] Creating layer rnn1_h_neuron_64
I0330 13:43:29.335758 37261 net.cpp:100] Creating Layer rnn1_h_neuron_64
I0330 13:43:29.335765 37261 net.cpp:434] rnn1_h_neuron_64 <- h_neuron_input_64
I0330 13:43:29.335780 37261 net.cpp:408] rnn1_h_neuron_64 -> h_64
I0330 13:43:29.336186 37261 net.cpp:150] Setting up rnn1_h_neuron_64
I0330 13:43:29.336197 37261 net.cpp:157] Top shape: 1 1 30 (30)
I0330 13:43:29.336203 37261 net.cpp:165] Memory required for data: 277656
I0330 13:43:29.336211 37261 layer_factory.hpp:77] Creating layer rnn1_W_ho_h_64
I0330 13:43:29.336227 37261 net.cpp:100] Creating Layer rnn1_W_ho_h_64
I0330 13:43:29.336236 37261 net.cpp:434] rnn1_W_ho_h_64 <- h_64
I0330 13:43:29.336256 37261 net.cpp:408] rnn1_W_ho_h_64 -> W_ho_h_64
I0330 13:43:29.336378 37261 net.cpp:150] Setting up rnn1_W_ho_h_64
I0330 13:43:29.336388 37261 net.cpp:157] Top shape: 1 1 30 (30)
I0330 13:43:29.336395 37261 net.cpp:165] Memory required for data: 277776
I0330 13:43:29.336422 37261 net.cpp:493] Sharing parameters 'W_ho' owned by layer 'rnn1_W_ho_h_1', param index 0
I0330 13:43:29.336431 37261 net.cpp:493] Sharing parameters 'b_o' owned by layer 'rnn1_W_ho_h_1', param index 1
I0330 13:43:29.336437 37261 layer_factory.hpp:77] Creating layer rnn1_o_neuron_64
I0330 13:43:29.336473 37261 net.cpp:100] Creating Layer rnn1_o_neuron_64
I0330 13:43:29.336483 37261 net.cpp:434] rnn1_o_neuron_64 <- W_ho_h_64
I0330 13:43:29.336499 37261 net.cpp:408] rnn1_o_neuron_64 -> o_64
I0330 13:43:29.337230 37261 net.cpp:150] Setting up rnn1_o_neuron_64
I0330 13:43:29.337241 37261 net.cpp:157] Top shape: 1 1 30 (30)
I0330 13:43:29.337249 37261 net.cpp:165] Memory required for data: 277896
I0330 13:43:29.337255 37261 layer_factory.hpp:77] Creating layer rnn1_o_concat
I0330 13:43:29.337281 37261 net.cpp:100] Creating Layer rnn1_o_concat
I0330 13:43:29.337291 37261 net.cpp:434] rnn1_o_concat <- o_1
I0330 13:43:29.337303 37261 net.cpp:434] rnn1_o_concat <- o_2
I0330 13:43:29.337312 37261 net.cpp:434] rnn1_o_concat <- o_3
…
I0330 13:43:29.345515 37261 net.cpp:322] The NetState phase (1) differed from the phase (0) specified by a rule in layer mnist
I0330 13:43:29.345530 37261 net.cpp:58] Initializing net from parameters: 
name: "LeNet"
state {
  phase: TEST
}
layer {
  name: "input"
  type: "Input"
  top: "clip"
  input_param {
    shape {
      dim: 64
      dim: 1
    }
  }
}
layer {
  name: "mnist"
  type: "Data"
  top: "data"
  top: "label"
  include {
    phase: TEST
  }
  transform_param {
    scale: 0.00390625
  }
  data_param {
    source: "/home/liushuai/caffe-env/examples/fashion_mnist/mnist_test_lmdb"
    batch_size: 64
    backend: LMDB
  }
}
layer {
  name: "rnn1"
  type: "RNN"
  bottom: "data"
  bottom: "clip"
  top: "rnn1"
  recurrent_param {
    num_output: 30
    weight_filler {
      type: "uniform"
      min: -0.01
      max: 0.01
    }
    bias_filler {
      type: "constant"
      value: 0
    }
  }
}
layer {
  name: "ip2"
  type: "InnerProduct"
  bottom: "rnn1"
  top: "ip2"
  param {
    lr_mult: 1
  }
  param {
    lr_mult: 2
  }
  inner_product_param {
    num_output: 10
    weight_filler {
      type: "xavier"
    }
    bias_filler {
      type: "constant"
    }
  }
}
layer {
  name: "accuracy"
  type: "Accuracy"
  bottom: "ip2"
  bottom: "label"
  top: "accuracy"
  include {
    phase: TEST
  }
}
layer {
  name: "loss"
  type: "SoftmaxWithLoss"
  bottom: "ip2"
  bottom: "label"
  top: "loss"
}
I0330 13:43:29.345690 37261 layer_factory.hpp:77] Creating layer input
I0330 13:43:29.345712 37261 net.cpp:100] Creating Layer input
I0330 13:43:29.345722 37261 net.cpp:408] input -> clip
I0330 13:43:29.345762 37261 net.cpp:150] Setting up input
I0330 13:43:29.345772 37261 net.cpp:157] Top shape: 64 1 (64)
I0330 13:43:29.345778 37261 net.cpp:165] Memory required for data: 256
I0330 13:43:29.345786 37261 layer_factory.hpp:77] Creating layer mnist
I0330 13:43:29.345950 37261 net.cpp:100] Creating Layer mnist
I0330 13:43:29.345999 37261 net.cpp:408] mnist -> data
I0330 13:43:29.346024 37261 net.cpp:408] mnist -> label
I0330 13:43:29.346639 37279 db_lmdb.cpp:35] Opened lmdb /home/liushuai/caffe-env/examples/fashion_mnist/mnist_test_lmdb
I0330 13:43:29.346791 37261 data_layer.cpp:41] output data size: 64,1,28,28
I0330 13:43:29.347589 37261 base_data_layer.cpp:69] Initializing prefetch
I0330 13:43:29.347661 37261 base_data_layer.cpp:72] Prefetch initialized.
I0330 13:43:29.347668 37261 net.cpp:150] Setting up mnist
I0330 13:43:29.347694 37261 net.cpp:157] Top shape: 64 1 28 28 (50176)
I0330 13:43:29.347703 37261 net.cpp:157] Top shape: 64 (64)
I0330 13:43:29.347708 37261 net.cpp:165] Memory required for data: 201216
I0330 13:43:29.347718 37261 layer_factory.hpp:77] Creating layer label_mnist_1_split
I0330 13:43:29.347739 37261 net.cpp:100] Creating Layer label_mnist_1_split
I0330 13:43:29.347748 37261 net.cpp:434] label_mnist_1_split <- label
I0330 13:43:29.347781 37261 net.cpp:408] label_mnist_1_split -> label_mnist_1_split_0
I0330 13:43:29.347802 37261 net.cpp:408] label_mnist_1_split -> label_mnist_1_split_1
I0330 13:43:29.347853 37261 net.cpp:150] Setting up label_mnist_1_split
I0330 13:43:29.347862 37261 net.cpp:157] Top shape: 64 (64)
I0330 13:43:29.347870 37261 net.cpp:157] Top shape: 64 (64)
I0330 13:43:29.347875 37261 net.cpp:165] Memory required for data: 201728
I0330 13:43:29.347882 37261 layer_factory.hpp:77] Creating layer rnn1
I0330 13:43:29.347913 37261 net.cpp:100] Creating Layer rnn1
I0330 13:43:29.347920 37261 net.cpp:434] rnn1 <- data
I0330 13:43:29.347932 37261 net.cpp:434] rnn1 <- clip
I0330 13:43:29.347945 37261 net.cpp:408] rnn1 -> rnn1
I0330 13:43:29.347963 37261 recurrent_layer.cpp:20] Initializing recurrent layer: assuming input batch contains 64 timesteps of 1 independent streams.
I0330 13:43:29.349341 37280 data_layer.cpp:102] Prefetch batch: 0 ms.
I0330 13:43:29.349360 37280 data_layer.cpp:103]      Read time: 0.096 ms.
I0330 13:43:29.349366 37280 data_layer.cpp:104] Transform time: 0.559 ms.
I0330 13:43:29.350303 37280 data_layer.cpp:102] Prefetch batch: 0 ms.
I0330 13:43:29.350311 37280 data_layer.cpp:103]      Read time: 0.079 ms.
I0330 13:43:29.350317 37280 data_layer.cpp:104] Transform time: 0.477 ms.
I0330 13:43:29.349623 37261 net.cpp:58] Initializing net from parameters: 
layer {
  name: "rnn1_"
  type: "Input"
  top: "x"
  top: "cont"
  input_param {
    shape {
      dim: 64
      dim: 1
      dim: 28
      dim: 28
    }
    shape {
      dim: 64
      dim: 1
    }
  }
}
layer {
  name: "rnn1_"
  type: "Input"
  top: "h_0"
  input_param {
    shape {
      dim: 1
      dim: 1
      dim: 30
    }
  }
}
layer {
  name: "rnn1_cont_slice"
  type: "Slice"
  bottom: "cont"
  top: "cont_1"
  top: "cont_2"
  top: "cont_3"
  top: "cont_4"
  top: "cont_5"
  top: "cont_6"
  top: "cont_7"
  top: "cont_8"
  top: "cont_9"
  top: "cont_10"
  top: "cont_11"
  top: "cont_12"
  top: "cont_13"
  top: "cont_14"
  top: "cont_15"
  top: "cont_16"
  top: "cont_17"
  top: "cont_18"
  top: "cont_19"
  top: "cont_20"
  top: "cont_21"
  top: "cont_22"
  top: "cont_23"
  top: "cont_24"
  top: "cont_25"
  top: "cont_26"
  top: "cont_27"
  top: "cont_28"
  top: "cont_29"
  top: "cont_30"
  top: "cont_31"
  top: "cont_32"
  top: "cont_33"
  top: "cont_34"
  top: "cont_35"
  top: "cont_36"
  top: "cont_37"
  top: "cont_38"
  top: "cont_39"
  top: "cont_40"
  top: "cont_41"
  top: "cont_42"
  top: "cont_43"
  top: "cont_44"
  top: "cont_45"
  top: "cont_46"
  top: "cont_47"
  top: "cont_48"
  top: "cont_49"
  top: "cont_50"
  top: "cont_51"
  top: "cont_52"
  top: "cont_53"
  top: "cont_54"
  top: "cont_55"
  top: "cont_56"
  top: "cont_57"
  top: "cont_58"
  top: "cont_59"
  top: "cont_60"
  top: "cont_61"
  top: "cont_62"
  top: "cont_63"
  top: "cont_64"
  slice_param {
    axis: 0
  }
}
layer {
  name: "rnn1_x_transform"
  type: "InnerProduct"
  bottom: "x"
  top: "W_xh_x"
  param {
    name: "W_xh"
  }
  param {
    name: "b_h"
  }
  propagate_down: true
  inner_product_param {
    num_output: 30
    bias_term: true
    weight_filler {
      type: "uniform"
      min: -0.01
      max: 0.01
    }
    bias_filler {
      type: "constant"
      value: 0
    }
    axis: 2
  }
}
layer {
  name: "rnn1_W_xh_x_slice"
  type: "Slice"
  bottom: "W_xh_x"
  top: "W_xh_x_1"
  top: "W_xh_x_2"
  top: "W_xh_x_3"
  top: "W_xh_x_4"
  top: "W_xh_x_5"
  top: "W_xh_x_6"
  top: "W_xh_x_7"
  top: "W_xh_x_8"
  top: "W_xh_x_9"
  top: "W_xh_x_10"
  top: "W_xh_x_11"
  top: "W_xh_x_12"
  top: "W_xh_x_13"
  top: "W_xh_x_14"
  top: "W_xh_x_15"
  top: "W_xh_x_16"
  top: "W_xh_x_17"
  top: "W_xh_x_18"
  top: "W_xh_x_19"
  top: "W_xh_x_20"
  top: "W_xh_x_21"
  top: "W_xh_x_22"
  top: "W_xh_x_23"
  top: "W_xh_x_24"
  top: "W_xh_x_25"
  top: "W_xh_x_26"
  top: "W_xh_x_27"
  top: "W_xh_x_28"
  top: "W_xh_x_29"
  top: "W_xh_x_30"
  top: "W_xh_x_31"
  top: "W_xh_x_32"
  top: "W_xh_x_33"
  top: "W_xh_x_34"
  top: "W_xh_x_35"
  top: "W_xh_x_36"
  top: "W_xh_x_37"
  top: "W_xh_x_38"
  top: "W_xh_x_39"
  top: "W_xh_x_40"
  top: "W_xh_x_41"
  top: "W_xh_x_42"
  top: "W_xh_x_43"
  top: "W_xh_x_44"
  top: "W_xh_x_45"
  top: "W_xh_x_46"
  top: "W_xh_x_47"
  top: "W_xh_x_48"
  top: "W_xh_x_49"
  top: "W_xh_x_50"
  top: "W_xh_x_51"
  top: "W_xh_x_52"
  top: "W_xh_x_53"
  top: "W_xh_x_54"
  top: "W_xh_x_55"
  top: "W_xh_x_56"
  top: "W_xh_x_57"
  top: "W_xh_x_58"
  top: "W_xh_x_59"
  top: "W_xh_x_60"
  top: "W_xh_x_61"
  top: "W_xh_x_62"
  top: "W_xh_x_63"
  top: "W_xh_x_64"
  slice_param {
    axis: 0
  }
}
layer {
  name: "rnn1_h_conted_0"
  type: "Scale"
  bottom: "h_0"
  bottom: "cont_1"
  top: "h_conted_0"
  scale_param {
    axis: 0
  }
}
layer {
  name: "rnn1_W_hh_h_0"
  type: "InnerProduct"
  bottom: "h_conted_0"
  top: "W_hh_h_0"
  param {
    name: "W_hh"
  }
  inner_product_param {
    num_output: 30
    bias_term: false
    weight_filler {
      type: "uniform"
      min: -0.01
      max: 0.01
    }
    axis: 2
  }
}
layer {
  name: "rnn1_h_input_sum_1"
  type: "Eltwise"
  bottom: "W_hh_h_0"
  bottom: "W_xh_x_1"
  top: "h_neuron_input_1"
  eltwise_param {
    operation: SUM
  }
}
layer {
  name: "rnn1_h_neuron_1"
  type: "TanH"
  bottom: "h_neuron_input_1"
  top: "h_1"
}
layer {
  name: "rnn1_W_ho_h_1"
  type: "InnerProduct"
  bottom: "h_1"
  top: "W_ho_h_1"
  param {
    name: "W_ho"
  }
  param {
    name: "b_o"
  }
  inner_product_param {
    num_output: 30
    bias_term: true
    weight_filler {
      type: "uniform"
      min: -0.01
      max: 0.01
    }
    bias_filler {
      type: "constant"
      value: 0
    }
    axis: 2
  }
}
layer {
  name: "rnn1_o_neuron_1"
  type: "TanH"
  bottom: "W_ho_h_1"
  top: "o_1"
}
layer {
  name: "rnn1_h_conted_1"
  type: "Scale"
  bottom: "h_1"
  bottom: "cont_2"
  top: "h_conted_1"
  scale_param {
    axis: 0
  }
}
layer {
  name: "rnn1_W_hh_h_1"
  type: "InnerProduct"
  bottom: "h_conted_1"
  top: "W_hh_h_1"
  param {
    name: "W_hh"
  }
  inner_product_param {
    num_output: 30
    bias_term: false
    weight_filler {
      type: "uniform"
      min: -0.01
      max: 0.01
    }
    axis: 2
  }
}
layer {
  name: "rnn1_h_input_sum_2"
  type: "Eltwise"
  bottom: "W_hh_h_1"
  bottom: "W_xh_x_2"
  top: "h_neuron_input_2"
  eltwise_param {
    operation: SUM
  }
}
layer {
  name: "rnn1_h_neuron_2"
  type: "TanH"
  bottom: "h_neuron_input_2"
  top: "h_2"
}
layer {
  name: "rnn1_W_ho_h_2"
  type: "InnerProduct"
  bottom: "h_2"
  top: "W_ho_h_2"
  param {
    name: "W_ho"
  }
  param {
    name: "b_o"
  }
  inner_product_param {
    num_output: 30
    bias_term: true
    weight_filler {
      type: "uniform"
      min: -0.01
      max: 0.01
    }
    bias_filler {
      type: "constant"
      value: 0
    }
    axis: 2
  }
}
layer {
  name: "rnn1_o_neuron_2"
  type: "TanH"
  bottom: "W_ho_h_2"
  top: "o_2"
}
layer {
  name: "rnn1_h_conted_2"
  type: "Scale"
  bottom: "h_2"
  bottom: "cont_3"
  top: "h_conted_2"
  scale_param {
    axis: 0
  }
}
layer {
  name: "rnn1_W_hh_h_2"
  type: "InnerProduct"
  bottom: "h_conted_2"
  top: "W_hh_h_2"
  param {
    name: "W_hh"
  }
  inner_product_param {
    num_output: 30
    bias_term: false
    weight_filler {
      type: "uniform"
      min: -0.01
      max: 0.01
    }
    axis: 2
  }
}
layer {
  name: "rnn1_h_input_sum_3"
  type: "Eltwise"
  bottom: "W_hh_h_2"
  bottom: "W_xh_x_3"
  top: "h_neuron_input_3"
  eltwise_param {
    operation: SUM
  }
}
layer {
  name: "rnn1_h_neuron_3"
  type: "TanH"
  bottom: "h_neuron_input_3"
  top: "h_3"
}
layer {
  name: "rnn1_W_ho_h_3"
  type: "InnerProduct"
  bottom: "h_3"
  top: "W_ho_h_3"
  param {
    name: "W_ho"
  }
  param {
    name: "b_o"
  }
  inner_product_param {
    num_output: 30
    bias_term: true
    weight_filler {
      type: "uniform"
      min: -0.01
      max: 0.01
    }
    bias_filler {
      type: "constant"
      value: 0
    }
    axis: 2
  }
}
layer {
  name: "rnn1_o_neuron_3"
  type: "TanH"
  bottom: "W_ho_h_3"
  top: "o_3"
}
layer {
  name: "rnn1_h_conted_3"
  type: "Scale"
  bottom: "h_3"
  bottom: "cont_4"
  top: "h_conted_3"
  scale_param {
    axis: 0
  }
}
layer {
  name: "rnn1_W_hh_h_3"
  type: "InnerProduct"
  bottom: "h_conted_3"
  top: "W_hh_h_3"
  param {
    name: "W_hh"
  }
  inner_product_param {
    num_output: 30
    bias_term: false
    weight_filler {
      type: "uniform"
      min: -0.01
      max: 0.01
    }
    axis: 2
  }
}
layer {
  name: "rnn1_h_input_sum_4"
  type: "Eltwise"
  bottom: "W_hh_h_3"
  bottom: "W_xh_x_4"
  top: "h_neuron_input_4"
  eltwise_param {
    operation: SUM
  }
}
layer {
  name: "rnn1_h_neuron_4"
  type: "TanH"
  bottom: "h_neuron_input_4"
  top: "h_4"
}
layer {
  name: "rnn1_W_ho_h_4"
  type: "InnerProduct"
  bottom: "h_4"
  top: "W_ho_h_4"
  param {
    name: "W_ho"
  }
  param {
    name: "b_o"
  }
  inner_product_param {
    num_output: 30
    bias_term: true
    weight_filler {
      type: "uniform"
      min: -0.01
      max: 0.01
    }
    bias_filler {
      type: "constant"
      value: 0
    }
    axis: 2
  }
}
layer {
  name: "rnn1_o_neuron_4"
  type: "TanH"
  bottom: "W_ho_h_4"
  top: "o_4"
}
layer {
  name: "rnn1_h_conted_4"
  type: "Scale"
  bottom: "h_4"
  bottom: "cont_5"
  top: "h_conted_4"
  scale_param {
    axis: 0
  }
}
layer {
  name: "rnn1_W_hh_h_4"
  type: "InnerProduct"
  bottom: "h_conted_4"
  top: "W_hh_h_4"
  param {
    name: "W_hh"
  }
  inner_product_param {
    num_output: 30
    bias_term: false
    weight_filler {
      type: "uniform"
      min: -0.01
      max: 0.01
    }
    axis: 2
  }
}
layer {
  name: "rnn1_h_input_sum_5"
  type: "Eltwise"
  bottom: "W_hh_h_4"
  bottom: "W_xh_x_5"
  top: "h_neuron_input_5"
  eltwise_param {
    operation: SUM
  }
}
layer {
  name: "rnn1_h_neuron_5"
  type: "TanH"
  bottom: "h_neuron_input_5"
  top: "h_5"
}
layer {
  name: "rnn1_W_ho_h_5"
  type: "InnerProduct"
  bottom: "h_5"
  top: "W_ho_h_5"
  param {
    name: "W_ho"
  }
  param {
    name: "b_o"
  }
  inner_product_param {
    num_output: 30
    bias_term: true
    weight_filler {
      type: "uniform"
      min: -0.01
      max: 0.01
    }
    bias_filler {
      type: "constant"
      value: 0
    }
    axis: 2
  }
}
layer {
  name: "rnn1_o_neuron_5"
  type: "TanH"
  bottom: "W_ho_h_5"
  top: "o_5"
}
layer {
  name: "rnn1_h_conted_5"
  type: "Scale"
  bottom: "h_5"
  bottom: "cont_6"
  top: "h_conted_5"
  scale_param {
    axis: 0
  }
}
layer {
  name: "rnn1_W_hh_h_5"
  type: "InnerProduct"
  bottom: "h_conted_5"
  top: "W_hh_h_5"
  param {
    name: "W_hh"
  }
  inner_product_param {
    num_output: 30
    bias_term: false
    weight_filler {
      type: "uniform"
      min: -0.01
      max: 0.01
    }
    axis: 2
  }
}
layer {
  name: "rnn1_h_input_sum_6"
  type: "Eltwise"
  bottom: "W_hh_h_5"
  bottom: "W_xh_x_6"
  top: "h_neuron_input_6"
  eltwise_param {
    operation: SUM
  }
}
layer {
  name: "rnn1_h_neuron_6"
  type: "TanH"
  bottom: "h_neuron_input_6"
  top: "h_6"
}
layer {
  name: "rnn1_W_ho_h_6"
  type: "InnerProduct"
  bottom: "h_6"
  top: "W_ho_h_6"
  param {
    name: "W_ho"
  }
  param {
    name: "b_o"
  }
  inner_product_param {
    num_output: 30
    bias_term: true
    weight_filler {
      type: "uniform"
      min: -0.01
      max: 0.01
    }
    bias_filler {
      type: "constant"
      value: 0
    }
    axis: 2
  }
}
layer {
  name: "rnn1_o_neuron_6"
  type: "TanH"
  bottom: "W_ho_h_6"
  top: "o_6"
}
layer {
  name: "rnn1_h_conted_6"
  type: "Scale"
  bottom: "h_6"
  bottom: "cont_7"
  top: "h_conted_6"
  scale_param {
    axis: 0
  }
}
layer {
  name: "rnn1_W_hh_h_6"
  type: "InnerProduct"
  bottom: "h_conted_6"
  top: "W_hh_h_6"
  param {
    name: "W_hh"
  }
  inner_product_param {
    num_output: 30
    bias_term: false
    weight_filler {
      type: "uniform"
      min: -0.01
      max: 0.01
    }
    axis: 2
  }
}
layer {
  name: "rnn1_h_input_sum_7"
  type: "Eltwise"
  bottom: "W_hh_h_6"
  bottom: "W_xh_x_7"
  top: "h_neuron_input_7"
  eltwise_param {
    operation: SUM
  }
}
layer {
  name: "rnn1_h_neuron_7"
  type: "TanH"
  bottom: "h_neuron_input_7"
  top: "h_7"
}
layer {
  name: "rnn1_W_ho_h_7"
  type: "InnerProduct"
  bottom: "h_7"
  top: "W_ho_h_7"
  param {
    name: "W_ho"
  }
  param {
    name: "b_o"
  }
  inner_product_param {
    num_output: 30
    bias_term: true
    weight_filler {
      type: "uniform"
      min: -0.01
      max: 0.01
    }
    bias_filler {
      type: "constant"
      value: 0
    }
    axis: 2
  }
}
layer {
  name: "rnn1_o_neuron_7"
  type: "TanH"
  bottom: "W_ho_h_7"
  top: "o_7"
}
layer {
  name: "rnn1_h_conted_7"
  type: "Scale"
  bottom: "h_7"
  bottom: "cont_8"
  top: "h_conted_7"
  scale_param {
    axis: 0
  }
}
layer {
  name: "rnn1_W_hh_h_7"
  type: "InnerProduct"
  bottom: "h_conted_7"
  top: "W_hh_h_7"
  param {
    name: "W_hh"
  }
  inner_product_param {
    num_output: 30
    bias_term: false
    weight_filler {
      type: "uniform"
      min: -0.01
      max: 0.01
    }
    axis: 2
  }
}
layer {
  name: "rnn1_h_input_sum_8"
  type: "Eltwise"
  bottom: "W_hh_h_7"
  bottom: "W_xh_x_8"
  top: "h_neuron_input_8"
  eltwise_param {
    operation: SUM
  }
}
layer {
  name: "rnn1_h_neuron_8"
  type: "TanH"
  bottom: "h_neuron_input_8"
  top: "h_8"
}
layer {
  name: "rnn1_W_ho_h_8"
  type: "InnerProduct"
  bottom: "h_8"
  top: "W_ho_h_8"
  param {
    name: "W_ho"
  }
  param {
    name: "b_o"
  }
  inner_product_param {
    num_output: 30
    bias_term: true
    weight_filler {
      type: "uniform"
      min: -0.01
      max: 0.01
    }
    bias_filler {
      type: "constant"
      value: 0
    }
    axis: 2
  }
}
layer {
  name: "rnn1_o_neuron_8"
  type: "TanH"
  bottom: "W_ho_h_8"
  top: "o_8"
}
layer {
  name: "rnn1_h_conted_8"
  type: "Scale"
  bottom: "h_8"
  bottom: "cont_9"
  top: "h_conted_8"
  scale_param {
    axis: 0
  }
}
layer {
  name: "rnn1_W_hh_h_8"
  type: "InnerProduct"
  bottom: "h_conted_8"
  top: "W_hh_h_8"
  param {
    name: "W_hh"
  }
  inner_product_param {
    num_output: 30
    bias_term: false
    weight_filler {
      type: "uniform"
      min: -0.01
      max: 0.01
    }
    axis: 2
  }
}
layer {
  name: "rnn1_h_input_sum_9"
  type: "Eltwise"
  bottom: "W_hh_h_8"
  bottom: "W_xh_x_9"
  top: "h_neuron_input_9"
  eltwise_param {
    operation: SUM
  }
}
layer {
  name: "rnn1_h_neuron_9"
  type: "TanH"
  bottom: "h_neuron_input_9"
  top: "h_9"
}
layer {
  name: "rnn1_W_ho_h_9"
  type: "InnerProduct"
  bottom: "h_9"
  top: "W_ho_h_9"
  param {
    name: "W_ho"
  }
  param {
    name: "b_o"
  }
  inner_product_param {
    num_output: 30
    bias_term: true
    weight_filler {
      type: "uniform"
      min: -0.01
      max: 0.01
    }
    bias_filler {
      type: "constant"
      value: 0
    }
    axis: 2
  }
}
layer {
  name: "rnn1_o_neuron_9"
  type: "TanH"
  bottom: "W_ho_h_9"
  top: "o_9"
}
layer {
  name: "rnn1_h_conted_9"
  type: "Scale"
  bottom: "h_9"
  bottom: "cont_10"
  top: "h_conted_9"
  scale_param {
    axis: 0
  }
}
layer {
  name: "rnn1_W_hh_h_9"
  type: "InnerProduct"
  bottom: "h_conted_9"
  top: "W_hh_h_9"
  param {
    name: "W_hh"
  }
  inner_product_param {
    num_output: 30
    bias_term: false
    weight_filler {
      type: "uniform"
      min: -0.01
      max: 0.01
    }
    axis: 2
  }
}
layer {
  name: "rnn1_h_input_sum_10"
  type: "Eltwise"
  bottom: "W_hh_h_9"
  bottom: "W_xh_x_10"
  top: "h_neuron_input_10"
  eltwise_param {
    operation: SUM
  }
}
layer {
  name: "rnn1_h_neuron_10"
  type: "TanH"
  bottom: "h_neuron_input_10"
  top: "h_10"
}
layer {
  name: "rnn1_W_ho_h_10"
  type: "InnerProduct"
  bottom: "h_10"
  top: "W_ho_h_10"
  param {
    name: "W_ho"
  }
  param {
    name: "b_o"
  }
  inner_product_param {
    num_output: 30
    bias_term: true
    weight_filler {
      type: "uniform"
      min: -0.01
      max: 0.01
    }
    bias_filler {
      type: "constant"
      value: 0
    }
    axis: 2
  }
}
layer {
  name: "rnn1_o_neuron_10"
  type: "TanH"
  bottom: "W_ho_h_10"
  top: "o_10"
}
layer {
  name: "rnn1_h_conted_10"
  type: "Scale"
  bottom: "h_10"
  bottom: "cont_11"
  top: "h_conted_10"
  scale_param {
    axis: 0
  }
}
layer {
  name: "rnn1_W_hh_h_10"
  type: "InnerProduct"
  bottom: "h_conted_10"
  top: "W_hh_h_10"
  param {
    name: "W_hh"
  }
  inner_product_param {
    num_output: 30
    bias_term: false
    weight_filler {
      type: "uniform"
      min: -0.01
      max: 0.01
    }
    axis: 2
  }
}
layer {
  name: "rnn1_h_input_sum_11"
  type: "Eltwise"
  bottom: "W_hh_h_10"
  bottom: "W_xh_x_11"
  top: "h_neuron_input_11"
  eltwise_param {
    operation: SUM
  }
}
layer {
  name: "rnn1_h_neuron_11"
  type: "TanH"
  bottom: "h_neuron_input_11"
  top: "h_11"
}
layer {
  name: "rnn1_W_ho_h_11"
  type: "InnerProduct"
  bottom: "h_11"
  top: "W_ho_h_11"
  param {
    name: "W_ho"
  }
  param {
    name: "b_o"
  }
  inner_product_param {
    num_output: 30
    bias_term: true
    weight_filler {
      type: "uniform"
      min: -0.01
      max: 0.01
    }
    bias_filler {
      type: "constant"
      value: 0
    }
    axis: 2
  }
}
layer {
  name: "rnn1_o_neuron_11"
  type: "TanH"
  bottom: "W_ho_h_11"
  top: "o_11"
}
layer {
  name: "rnn1_h_conted_11"
  type: "Scale"
  bottom: "h_11"
  bottom: "cont_12"
  top: "h_conted_11"
  scale_param {
    axis: 0
  }
}
layer {
  name: "rnn1_W_hh_h_11"
  type: "InnerProduct"
  bottom: "h_conted_11"
  top: "W_hh_h_11"
  param {
    name: "W_hh"
  }
  inner_product_param {
    num_output: 30
    bias_term: false
    weight_filler {
      type: "uniform"
      min: -0.01
      max: 0.01
    }
    axis: 2
  }
}
layer {
  name: "rnn1_h_input_sum_12"
  type: "Eltwise"
  bottom: "W_hh_h_11"
  bottom: "W_xh_x_12"
  top: "h_neuron_input_12"
  eltwise_param {
    operation: SUM
  }
}
layer {
  name: "rnn1_h_neuron_12"
  type: "TanH"
  bottom: "h_neuron_input_12"
  top: "h_12"
}
layer {
  name: "rnn1_W_ho_h_12"
  type: "InnerProduct"
  bottom: "h_12"
  top: "W_ho_h_12"
  param {
    name: "W_ho"
  }
  param {
    name: "b_o"
  }
  inner_product_param {
    num_output: 30
    bias_term: true
    weight_filler {
      type: "uniform"
      min: -0.01
      max: 0.01
    }
    bias_filler {
      type: "constant"
      value: 0
    }
    axis: 2
  }
}
layer {
  name: "rnn1_o_neuron_12"
  type: "TanH"
  bottom: "W_ho_h_12"
  top: "o_12"
}
layer {
  name: "rnn1_h_conted_12"
  type: "Scale"
  bottom: "h_12"
  bottom: "cont_13"
  top: "h_conted_12"
  scale_param {
    axis: 0
  }
}
layer {
  name: "rnn1_W_hh_h_12"
  type: "InnerProduct"
  bottom: "h_conted_12"
  top: "W_hh_h_12"
  param {
    name: "W_hh"
  }
  inner_product_param {
    num_output: 30
    bias_term: false
    weight_filler {
      type: "uniform"
      min: -0.01
      max: 0.01
    }
    axis: 2
  }
}
layer {
  name: "rnn1_h_input_sum_13"
  type: "Eltwise"
  bottom: "W_hh_h_12"
  bottom: "W_xh_x_13"
  top: "h_neuron_input_13"
  eltwise_param {
    operation: SUM
  }
}
layer {
  name: "rnn1_h_neuron_13"
  type: "TanH"
  bottom: "h_neuron_input_13"
  top: "h_13"
}
layer {
  name: "rnn1_W_ho_h_13"
  type: "InnerProduct"
  bottom: "h_13"
  top: "W_ho_h_13"
  param {
    name: "W_ho"
  }
  param {
    name: "b_o"
  }
  inner_product_param {
    num_output: 30
    bias_term: true
    weight_filler {
      type: "uniform"
      min: -0.01
      max: 0.01
    }
    bias_filler {
      type: "constant"
      value: 0
    }
    axis: 2
  }
}
layer {
  name: "rnn1_o_neuron_13"
  type: "TanH"
  bottom: "W_ho_h_13"
  top: "o_13"
}
layer {
  name: "rnn1_h_conted_13"
  type: "Scale"
  bottom: "h_13"
  bottom: "cont_14"
  top: "h_conted_13"
  scale_param {
    axis: 0
  }
}
layer {
  name: "rnn1_W_hh_h_13"
  type: "InnerProduct"
  bottom: "h_conted_13"
  top: "W_hh_h_13"
  param {
    name: "W_hh"
  }
  inner_product_param {
    num_output: 30
    bias_term: false
    weight_filler {
      type: "uniform"
      min: -0.01
      max: 0.01
    }
    axis: 2
  }
}
layer {
  name: "rnn1_h_input_sum_14"
  type: "Eltwise"
  bottom: "W_hh_h_13"
  bottom: "W_xh_x_14"
  top: "h_neuron_input_14"
  eltwise_param {
    operation: SUM
  }
}
layer {
  name: "rnn1_h_neuron_14"
  type: "TanH"
  bottom: "h_neuron_input_14"
  top: "h_14"
}
layer {
  name: "rnn1_W_ho_h_14"
  type: "InnerProduct"
  bottom: "h_14"
  top: "W_ho_h_14"
  param {
    name: "W_ho"
  }
  param {
    name: "b_o"
  }
  inner_product_param {
    num_output: 30
    bias_term: true
    weight_filler {
      type: "uniform"
      min: -0.01
      max: 0.01
    }
    bias_filler {
      type: "constant"
      value: 0
    }
    axis: 2
  }
}
layer {
  name: "rnn1_o_neuron_14"
  type: "TanH"
  bottom: "W_ho_h_14"
  top: "o_14"
}
layer {
  name: "rnn1_h_conted_14"
  type: "Scale"
  bottom: "h_14"
  bottom: "cont_15"
  top: "h_conted_14"
  scale_param {
    axis: 0
  }
}
layer {
  name: "rnn1_W_hh_h_14"
  type: "InnerProduct"
  bottom: "h_conted_14"
  top: "W_hh_h_14"
  param {
    name: "W_hh"
  }
  inner_product_param {
    num_output: 30
    bias_term: false
    weight_filler {
      type: "uniform"
      min: -0.01
      max: 0.01
    }
    axis: 2
  }
}
layer {
  name: "rnn1_h_input_sum_15"
  type: "Eltwise"
  bottom: "W_hh_h_14"
  bottom: "W_xh_x_15"
  top: "h_neuron_input_15"
  eltwise_param {
    operation: SUM
  }
}
layer {
  name: "rnn1_h_neuron_15"
  type: "TanH"
  bottom: "h_neuron_input_15"
  top: "h_15"
}
layer {
  name: "rnn1_W_ho_h_15"
  type: "InnerProduct"
  bottom: "h_15"
  top: "W_ho_h_15"
  param {
    name: "W_ho"
  }
  param {
    name: "b_o"
  }
  inner_product_param {
    num_output: 30
    bias_term: true
    weight_filler {
      type: "uniform"
      min: -0.01
      max: 0.01
    }
    bias_filler {
      type: "constant"
      value: 0
    }
    axis: 2
  }
}
layer {
  name: "rnn1_o_neuron_15"
  type: "TanH"
  bottom: "W_ho_h_15"
  top: "o_15"
}
layer {
  name: "rnn1_h_conted_15"
  type: "Scale"
  bottom: "h_15"
  bottom: "cont_16"
  top: "h_conted_15"
  scale_param {
    axis: 0
  }
}
layer {
  name: "rnn1_W_hh_h_15"
  type: "InnerProduct"
  bottom: "h_conted_15"
  top: "W_hh_h_15"
  param {
    name: "W_hh"
  }
  inner_product_param {
    num_output: 30
    bias_term: false
    weight_filler {
      type: "uniform"
      min: -0.01
      max: 0.01
    }
    axis: 2
  }
}
layer {
  name: "rnn1_h_input_sum_16"
  type: "Eltwise"
  bottom: "W_hh_h_15"
  bottom: "W_xh_x_16"
  top: "h_neuron_input_16"
  eltwise_param {
    operation: SUM
  }
}
layer {
  name: "rnn1_h_neuron_16"
  type: "TanH"
  bottom: "h_neuron_input_16"
  top: "h_16"
}
layer {
  name: "rnn1_W_ho_h_16"
  type: "InnerProduct"
  bottom: "h_16"
  top: "W_ho_h_16"
  param {
    name: "W_ho"
  }
  param {
    name: "b_o"
  }
  inner_product_param {
    num_output: 30
    bias_term: true
    weight_filler {
      type: "uniform"
      min: -0.01
      max: 0.01
    }
    bias_filler {
      type: "constant"
      value: 0
    }
    axis: 2
  }
}
layer {
  name: "rnn1_o_neuron_16"
  type: "TanH"
  bottom: "W_ho_h_16"
  top: "o_16"
}
layer {
  name: "rnn1_h_conted_16"
  type: "Scale"
  bottom: "h_16"
  bottom: "cont_17"
  top: "h_conted_16"
  scale_param {
    axis: 0
  }
}
layer {
  name: "rnn1_W_hh_h_16"
  type: "InnerProduct"
  bottom: "h_conted_16"
  top: "W_hh_h_16"
  param {
    name: "W_hh"
  }
  inner_product_param {
    num_output: 30
    bias_term: false
    weight_filler {
      type: "uniform"
      min: -0.01
      max: 0.01
    }
    axis: 2
  }
}
layer {
  name: "rnn1_h_input_sum_17"
  type: "Eltwise"
  bottom: "W_hh_h_16"
  bottom: "W_xh_x_17"
  top: "h_neuron_input_17"
  eltwise_param {
    operation: SUM
  }
}
layer {
  name: "rnn1_h_neuron_17"
  type: "TanH"
  bottom: "h_neuron_input_17"
  top: "h_17"
}
layer {
  name: "rnn1_W_ho_h_17"
  type: "InnerProduct"
  bottom: "h_17"
  top: "W_ho_h_17"
  param {
    name: "W_ho"
  }
  param {
    name: "b_o"
  }
  inner_product_param {
    num_output: 30
    bias_term: true
    weight_filler {
      type: "uniform"
      min: -0.01
      max: 0.01
    }
    bias_filler {
      type: "constant"
      value: 0
    }
    axis: 2
  }
}
layer {
  name: "rnn1_o_neuron_17"
  type: "TanH"
  bottom: "W_ho_h_17"
  top: "o_17"
}
layer {
  name: "rnn1_h_conted_17"
  type: "Scale"
  bottom: "h_17"
  bottom: "cont_18"
  top: "h_conted_17"
  scale_param {
    axis: 0
  }
}
layer {
  name: "rnn1_W_hh_h_17"
  type: "InnerProduct"
  bottom: "h_conted_17"
  top: "W_hh_h_17"
  param {
    name: "W_hh"
  }
  inner_product_param {
    num_output: 30
    bias_term: false
    weight_filler {
      type: "uniform"
      min: -0.01
      max: 0.01
    }
    axis: 2
  }
}
layer {
  name: "rnn1_h_input_sum_18"
  type: "Eltwise"
  bottom: "W_hh_h_17"
  bottom: "W_xh_x_18"
  top: "h_neuron_input_18"
  eltwise_param {
    operation: SUM
  }
}
layer {
  name: "rnn1_h_neuron_18"
  type: "TanH"
  bottom: "h_neuron_input_18"
  top: "h_18"
}
layer {
  name: "rnn1_W_ho_h_18"
  type: "InnerProduct"
  bottom: "h_18"
  top: "W_ho_h_18"
  param {
    name: "W_ho"
  }
  param {
    name: "b_o"
  }
  inner_product_param {
    num_output: 30
    bias_term: true
    weight_filler {
      type: "uniform"
      min: -0.01
      max: 0.01
    }
    bias_filler {
      type: "constant"
      value: 0
    }
    axis: 2
  }
}
layer {
  name: "rnn1_o_neuron_18"
  type: "TanH"
  bottom: "W_ho_h_18"
  top: "o_18"
}
layer {
  name: "rnn1_h_conted_18"
  type: "Scale"
  bottom: "h_18"
  bottom: "cont_19"
  top: "h_conted_18"
  scale_param {
    axis: 0
  }
}
layer {
  name: "rnn1_W_hh_h_18"
  type: "InnerProduct"
  bottom: "h_conted_18"
  top: "W_hh_h_18"
  param {
    name: "W_hh"
  }
  inner_product_param {
    num_output: 30
    bias_term: false
    weight_filler {
      type: "uniform"
      min: -0.01
      max: 0.01
    }
    axis: 2
  }
}
layer {
  name: "rnn1_h_input_sum_19"
  type: "Eltwise"
  bottom: "W_hh_h_18"
  bottom: "W_xh_x_19"
  top: "h_neuron_input_19"
  eltwise_param {
    operation: SUM
  }
}
layer {
  name: "rnn1_h_neuron_19"
  type: "TanH"
  bottom: "h_neuron_input_19"
  top: "h_19"
}
layer {
  name: "rnn1_W_ho_h_19"
  type: "InnerProduct"
  bottom: "h_19"
  top: "W_ho_h_19"
  param {
    name: "W_ho"
  }
  param {
    name: "b_o"
  }
  inner_product_param {
    num_output: 30
    bias_term: true
    weight_filler {
      type: "uniform"
      min: -0.01
      max: 0.01
    }
    bias_filler {
      type: "constant"
      value: 0
    }
    axis: 2
  }
}
layer {
  name: "rnn1_o_neuron_19"
  type: "TanH"
  bottom: "W_ho_h_19"
  top: "o_19"
}
layer {
  name: "rnn1_h_conted_19"
  type: "Scale"
  bottom: "h_19"
  bottom: "cont_20"
  top: "h_conted_19"
  scale_param {
    axis: 0
  }
}
layer {
  name: "rnn1_W_hh_h_19"
  type: "InnerProduct"
  bottom: "h_conted_19"
  top: "W_hh_h_19"
  param {
    name: "W_hh"
  }
  inner_product_param {
    num_output: 30
    bias_term: false
    weight_filler {
      type: "uniform"
      min: -0.01
      max: 0.01
    }
    axis: 2
  }
}
layer {
  name: "rnn1_h_input_sum_20"
  type: "Eltwise"
  bottom: "W_hh_h_19"
  bottom: "W_xh_x_20"
  top: "h_neuron_input_20"
  eltwise_param {
    operation: SUM
  }
}
layer {
  name: "rnn1_h_neuron_20"
  type: "TanH"
  bottom: "h_neuron_input_20"
  top: "h_20"
}
layer {
  name: "rnn1_W_ho_h_20"
  type: "InnerProduct"
  bottom: "h_20"
  top: "W_ho_h_20"
  param {
    name: "W_ho"
  }
  param {
    name: "b_o"
  }
  inner_product_param {
    num_output: 30
    bias_term: true
    weight_filler {
      type: "uniform"
      min: -0.01
      max: 0.01
    }
    bias_filler {
      type: "constant"
      value: 0
    }
    axis: 2
  }
}
layer {
  name: "rnn1_o_neuron_20"
  type: "TanH"
  bottom: "W_ho_h_20"
  top: "o_20"
}
layer {
  name: "rnn1_h_conted_20"
  type: "Scale"
  bottom: "h_20"
  bottom: "cont_21"
  top: "h_conted_20"
  scale_param {
    axis: 0
  }
}
layer {
  name: "rnn1_W_hh_h_20"
  type: "InnerProduct"
  bottom: "h_conted_20"
  top: "W_hh_h_20"
  param {
    name: "W_hh"
  }
  inner_product_param {
    num_output: 30
    bias_term: false
    weight_filler {
      type: "uniform"
      min: -0.01
      max: 0.01
    }
    axis: 2
  }
}
layer {
  name: "rnn1_h_input_sum_21"
  type: "Eltwise"
  bottom: "W_hh_h_20"
  bottom: "W_xh_x_21"
  top: "h_neuron_input_21"
  eltwise_param {
    operation: SUM
  }
}
layer {
  name: "rnn1_h_neuron_21"
  type: "TanH"
  bottom: "h_neuron_input_21"
  top: "h_21"
}
layer {
  name: "rnn1_W_ho_h_21"
  type: "InnerProduct"
  bottom: "h_21"
  top: "W_ho_h_21"
  param {
    name: "W_ho"
  }
  param {
    name: "b_o"
  }
  inner_product_param {
    num_output: 30
    bias_term: true
    weight_filler {
      type: "uniform"
      min: -0.01
      max: 0.01
    }
    bias_filler {
      type: "constant"
      value: 0
    }
    axis: 2
  }
}
layer {
  name: "rnn1_o_neuron_21"
  type: "TanH"
  bottom: "W_ho_h_21"
  top: "o_21"
}
layer {
  name: "rnn1_h_conted_21"
  type: "Scale"
  bottom: "h_21"
  bottom: "cont_22"
  top: "h_conted_21"
  scale_param {
    axis: 0
  }
}
layer {
  name: "rnn1_W_hh_h_21"
  type: "InnerProduct"
  bottom: "h_conted_21"
  top: "W_hh_h_21"
  param {
    name: "W_hh"
  }
  inner_product_param {
    num_output: 30
    bias_term: false
    weight_filler {
      type: "uniform"
      min: -0.01
      max: 0.01
    }
    axis: 2
  }
}
layer {
  name: "rnn1_h_input_sum_22"
  type: "Eltwise"
  bottom: "W_hh_h_21"
  bottom: "W_xh_x_22"
  top: "h_neuron_input_22"
  eltwise_param {
    operation: SUM
  }
}
layer {
  name: "rnn1_h_neuron_22"
  type: "TanH"
  bottom: "h_neuron_input_22"
  top: "h_22"
}
layer {
  name: "rnn1_W_ho_h_22"
  type: "InnerProduct"
  bottom: "h_22"
  top: "W_ho_h_22"
  param {
    name: "W_ho"
  }
  param {
    name: "b_o"
  }
  inner_product_param {
    num_output: 30
    bias_term: true
    weight_filler {
      type: "uniform"
      min: -0.01
      max: 0.01
    }
    bias_filler {
      type: "constant"
      value: 0
    }
    axis: 2
  }
}
layer {
  name: "rnn1_o_neuron_22"
  type: "TanH"
  bottom: "W_ho_h_22"
  top: "o_22"
}
layer {
  name: "rnn1_h_conted_22"
  type: "Scale"
  bottom: "h_22"
  bottom: "cont_23"
  top: "h_conted_22"
  scale_param {
    axis: 0
  }
}
layer {
  name: "rnn1_W_hh_h_22"
  type: "InnerProduct"
  bottom: "h_conted_22"
  top: "W_hh_h_22"
  param {
    name: "W_hh"
  }
  inner_product_param {
    num_output: 30
    bias_term: false
    weight_filler {
      type: "uniform"
      min: -0.01
      max: 0.01
    }
    axis: 2
  }
}
layer {
  name: "rnn1_h_input_sum_23"
  type: "Eltwise"
  bottom: "W_hh_h_22"
  bottom: "W_xh_x_23"
  top: "h_neuron_input_23"
  eltwise_param {
    operation: SUM
  }
}
layer {
  name: "rnn1_h_neuron_23"
  type: "TanH"
  bottom: "h_neuron_input_23"
  top: "h_23"
}
layer {
  name: "rnn1_W_ho_h_23"
  type: "InnerProduct"
  bottom: "h_23"
  top: "W_ho_h_23"
  param {
    name: "W_ho"
  }
  param {
    name: "b_o"
  }
  inner_product_param {
    num_output: 30
    bias_term: true
    weight_filler {
      type: "uniform"
      min: -0.01
      max: 0.01
    }
    bias_filler {
      type: "constant"
      value: 0
    }
    axis: 2
  }
}
layer {
  name: "rnn1_o_neuron_23"
  type: "TanH"
  bottom: "W_ho_h_23"
  top: "o_23"
}
layer {
  name: "rnn1_h_conted_23"
  type: 
I0330 13:43:29.351178 37280 data_layer.cpp:102] Prefetch batch: 0 ms.
I0330 13:43:29.351187 37280 data_layer.cpp:103]      Read time: 0.06 ms.
I0330 13:43:29.351191 37280 data_layer.cpp:104] Transform time: 0.475 ms.
I0330 13:43:29.355479 37261 layer_factory.hpp:77] Creating layer rnn1_
I0330 13:43:29.355509 37261 net.cpp:100] Creating Layer rnn1_
I0330 13:43:29.355520 37261 net.cpp:408] rnn1_ -> x
I0330 13:43:29.355547 37261 net.cpp:408] rnn1_ -> cont
I0330 13:43:29.355603 37261 net.cpp:150] Setting up rnn1_
I0330 13:43:29.355613 37261 net.cpp:157] Top shape: 64 1 28 28 (50176)
I0330 13:43:29.355623 37261 net.cpp:157] Top shape: 64 1 (64)
I0330 13:43:29.355628 37261 net.cpp:165] Memory required for data: 200960
I0330 13:43:29.355636 37261 layer_factory.hpp:77] Creating layer rnn1_
I0330 13:43:29.355654 37261 net.cpp:100] Creating Layer rnn1_
I0330 13:43:29.355664 37261 net.cpp:408] rnn1_ -> h_0
I0330 13:43:29.355703 37261 net.cpp:150] Setting up rnn1_
I0330 13:43:29.355712 37261 net.cpp:157] Top shape: 1 1 30 (30)
I0330 13:43:29.355720 37261 net.cpp:165] Memory required for data: 201080
I0330 13:43:29.355726 37261 layer_factory.hpp:77] Creating layer rnn1_cont_slice
I0330 13:43:29.355746 37261 net.cpp:100] Creating Layer rnn1_cont_slice
I0330 13:43:29.355753 37261 net.cpp:434] rnn1_cont_slice <- cont
I0330 13:43:29.355772 37261 net.cpp:408] rnn1_cont_slice -> cont_1
I0330 13:43:29.355793 37261 net.cpp:408] rnn1_cont_slice -> cont_2
…
